#
input: "data"
input_dim: 1
input_dim: 3
input_dim: 361
input_dim: 361

layer {
  name: "conv1_1_3x3_s2"
  type: "Convolution"
  bottom: "data"
  top: "conv1_1_3x3_s2"
  param {
    lr_mult: 1
    decay_mult: 1
  }
  convolution_param {
    num_output: 64
    pad: 1
    kernel_size: 3
    stride: 2
    weight_filler {
      type: "msra"
    }
    bias_term: false
  }
}
layer {
  name: "conv1_1_3x3_s2/bn"
  type: "BN"
  bottom: "conv1_1_3x3_s2"
  top: "conv1_1_3x3_s2"
  param {
    lr_mult: 1
    decay_mult: 0
  }
  param {
    lr_mult: 1
    decay_mult: 0
  }
  param {
    lr_mult: 0
    decay_mult: 0
  }
  param {
    lr_mult: 0
    decay_mult: 0
  }
  bn_param {
    slope_filler {
      type: "constant"
      value: 1
    }
    bias_filler {
      type: "constant"
      value: 0
    }
    frozen: true
    momentum: 0.95
  }
}
layer {
  name: "conv1_1_3x3_s2/relu"
  type: "ReLU"
  bottom: "conv1_1_3x3_s2"
  top: "conv1_1_3x3_s2"
}
layer {
  name: "conv1_2_3x3"
  type: "Convolution"
  bottom: "conv1_1_3x3_s2"
  top: "conv1_2_3x3"
  param {
    lr_mult: 1
    decay_mult: 1
  }
  convolution_param {
    num_output: 64
    pad: 1
    kernel_size: 3
    stride: 1
    weight_filler {
      type: "msra"
    }
    bias_term: false
  }
}
layer {
  name: "conv1_2_3x3/bn"
  type: "BN"
  bottom: "conv1_2_3x3"
  top: "conv1_2_3x3"
  param {
    lr_mult: 1
    decay_mult: 0
  }
  param {
    lr_mult: 1
    decay_mult: 0
  }
  param {
    lr_mult: 0
    decay_mult: 0
  }
  param {
    lr_mult: 0
    decay_mult: 0
  }
  bn_param {
    slope_filler {
      type: "constant"
      value: 1
    }
    bias_filler {
      type: "constant"
      value: 0
    }
    frozen: true
    momentum: 0.95
  }
}
layer {
  name: "conv1_2_3x3/relu"
  type: "ReLU"
  bottom: "conv1_2_3x3"
  top: "conv1_2_3x3"
}
layer {
  name: "conv1_3_3x3"
  type: "Convolution"
  bottom: "conv1_2_3x3"
  top: "conv1_3_3x3"
  param {
    lr_mult: 1
    decay_mult: 1
  }
  convolution_param {
    num_output: 128
    pad: 1
    kernel_size: 3
    stride: 1
    weight_filler {
      type: "msra"
    }
    bias_term: false
  }
}
layer {
  name: "conv1_3_3x3/bn"
  type: "BN"
  bottom: "conv1_3_3x3"
  top: "conv1_3_3x3"
  param {
    lr_mult: 1
    decay_mult: 0
  }
  param {
    lr_mult: 1
    decay_mult: 0
  }
  param {
    lr_mult: 0
    decay_mult: 0
  }
  param {
    lr_mult: 0
    decay_mult: 0
  }
  bn_param {
    slope_filler {
      type: "constant"
      value: 1
    }
    bias_filler {
      type: "constant"
      value: 0
    }
    frozen: true
    momentum: 0.95
  }
}
layer {
  name: "conv1_3_3x3/relu"
  type: "ReLU"
  bottom: "conv1_3_3x3"
  top: "conv1_3_3x3"
}
layer {
  name: "pool1_3x3_s2"
  type: "Pooling"
  bottom: "conv1_3_3x3"
  top: "pool1_3x3_s2"
  pooling_param {
    pool: MAX
    kernel_size: 3
    stride: 2
    pad: 1
  }
}
layer {
  name: "conv2_1_1x1_reduce"
  type: "Convolution"
  bottom: "pool1_3x3_s2"
  top: "conv2_1_1x1_reduce"
  param {
    lr_mult: 1
    decay_mult: 1
  }
  convolution_param {
    num_output: 64
    pad: 0
    kernel_size: 1
    stride: 1
    weight_filler {
      type: "msra"
    }
    bias_term: false
  }
}
layer {
  name: "conv2_1_1x1_reduce/bn"
  type: "BN"
  bottom: "conv2_1_1x1_reduce"
  top: "conv2_1_1x1_reduce"
  param {
    lr_mult: 1
    decay_mult: 0
  }
  param {
    lr_mult: 1
    decay_mult: 0
  }
  param {
    lr_mult: 0
    decay_mult: 0
  }
  param {
    lr_mult: 0
    decay_mult: 0
  }
  bn_param {
    slope_filler {
      type: "constant"
      value: 1
    }
    bias_filler {
      type: "constant"
      value: 0
    }
    frozen: true
    momentum: 0.95
  }
}
layer {
  name: "conv2_1_1x1_reduce/relu"
  type: "ReLU"
  bottom: "conv2_1_1x1_reduce"
  top: "conv2_1_1x1_reduce"
}
layer {
  name: "conv2_1_3x3"
  type: "Convolution"
  bottom: "conv2_1_1x1_reduce"
  top: "conv2_1_3x3"
  param {
    lr_mult: 1
    decay_mult: 1
  }
  convolution_param {
    num_output: 64
    pad: 1
    kernel_size: 3
    stride: 1
    weight_filler {
      type: "msra"
    }
    bias_term: false
  }
}
layer {
  name: "conv2_1_3x3/bn"
  type: "BN"
  bottom: "conv2_1_3x3"
  top: "conv2_1_3x3"
  param {
    lr_mult: 1
    decay_mult: 0
  }
  param {
    lr_mult: 1
    decay_mult: 0
  }
  param {
    lr_mult: 0
    decay_mult: 0
  }
  param {
    lr_mult: 0
    decay_mult: 0
  }
  bn_param {
    slope_filler {
      type: "constant"
      value: 1
    }
    bias_filler {
      type: "constant"
      value: 0
    }
    frozen: true
    momentum: 0.95
  }
}
layer {
  name: "conv2_1_3x3/relu"
  type: "ReLU"
  bottom: "conv2_1_3x3"
  top: "conv2_1_3x3"
}
layer {
  name: "conv2_1_1x1_increase"
  type: "Convolution"
  bottom: "conv2_1_3x3"
  top: "conv2_1_1x1_increase"
  param {
    lr_mult: 1
    decay_mult: 1
  }
  convolution_param {
    num_output: 256
    pad: 0
    kernel_size: 1
    stride: 1
    weight_filler {
      type: "msra"
    }
    bias_term: false
  }
}
layer {
  name: "conv2_1_1x1_increase/bn"
  type: "BN"
  bottom: "conv2_1_1x1_increase"
  top: "conv2_1_1x1_increase"
  param {
    lr_mult: 1
    decay_mult: 0
  }
  param {
    lr_mult: 1
    decay_mult: 0
  }
  param {
    lr_mult: 0
    decay_mult: 0
  }
  param {
    lr_mult: 0
    decay_mult: 0
  }
  bn_param {
    slope_filler {
      type: "constant"
      value: 1
    }
    bias_filler {
      type: "constant"
      value: 0
    }
    frozen: true
    momentum: 0.95
  }
}
layer {
  name: "conv2_1_1x1_proj"
  type: "Convolution"
  bottom: "pool1_3x3_s2"
  top: "conv2_1_1x1_proj"
  param {
    lr_mult: 1
    decay_mult: 1
  }
  convolution_param {
    num_output: 256
    pad: 0
    kernel_size: 1
    stride: 1
    weight_filler {
      type: "msra"
    }
    bias_term: false
  }
}
layer {
  name: "conv2_1_1x1_proj/bn"
  type: "BN"
  bottom: "conv2_1_1x1_proj"
  top: "conv2_1_1x1_proj"
  param {
    lr_mult: 1
    decay_mult: 0
  }
  param {
    lr_mult: 1
    decay_mult: 0
  }
  param {
    lr_mult: 0
    decay_mult: 0
  }
  param {
    lr_mult: 0
    decay_mult: 0
  }
  bn_param {
    slope_filler {
      type: "constant"
      value: 1
    }
    bias_filler {
      type: "constant"
      value: 0
    }
    frozen: true
    momentum: 0.95
  }
}
layer {
  name: "conv2_1"
  type: "Eltwise"
  bottom: "conv2_1_1x1_proj"
  bottom: "conv2_1_1x1_increase"
  top: "conv2_1"
  eltwise_param {
    operation: SUM
  }
}
layer {
  name: "conv2_1/relu"
  type: "ReLU"
  bottom: "conv2_1"
  top: "conv2_1"
}
layer {
  name: "conv2_2_1x1_reduce"
  type: "Convolution"
  bottom: "conv2_1"
  top: "conv2_2_1x1_reduce"
  param {
    lr_mult: 1
    decay_mult: 1
  }
  convolution_param {
    num_output: 64
    pad: 0
    kernel_size: 1
    stride: 1
    weight_filler {
      type: "msra"
    }
    bias_term: false
  }
}
layer {
  name: "conv2_2_1x1_reduce/bn"
  type: "BN"
  bottom: "conv2_2_1x1_reduce"
  top: "conv2_2_1x1_reduce"
  param {
    lr_mult: 1
    decay_mult: 0
  }
  param {
    lr_mult: 1
    decay_mult: 0
  }
  param {
    lr_mult: 0
    decay_mult: 0
  }
  param {
    lr_mult: 0
    decay_mult: 0
  }
  bn_param {
    slope_filler {
      type: "constant"
      value: 1
    }
    bias_filler {
      type: "constant"
      value: 0
    }
    frozen: true
    momentum: 0.95
  }
}
layer {
  name: "conv2_2_1x1_reduce/relu"
  type: "ReLU"
  bottom: "conv2_2_1x1_reduce"
  top: "conv2_2_1x1_reduce"
}
layer {
  name: "conv2_2_3x3"
  type: "Convolution"
  bottom: "conv2_2_1x1_reduce"
  top: "conv2_2_3x3"
  param {
    lr_mult: 1
    decay_mult: 1
  }
  convolution_param {
    num_output: 64
    pad: 1
    kernel_size: 3
    stride: 1
    weight_filler {
      type: "msra"
    }
    bias_term: false
  }
}
layer {
  name: "conv2_2_3x3/bn"
  type: "BN"
  bottom: "conv2_2_3x3"
  top: "conv2_2_3x3"
  param {
    lr_mult: 1
    decay_mult: 0
  }
  param {
    lr_mult: 1
    decay_mult: 0
  }
  param {
    lr_mult: 0
    decay_mult: 0
  }
  param {
    lr_mult: 0
    decay_mult: 0
  }
  bn_param {
    slope_filler {
      type: "constant"
      value: 1
    }
    bias_filler {
      type: "constant"
      value: 0
    }
    frozen: true
    momentum: 0.95
  }
}
layer {
  name: "conv2_2_3x3/relu"
  type: "ReLU"
  bottom: "conv2_2_3x3"
  top: "conv2_2_3x3"
}
layer {
  name: "conv2_2_1x1_increase"
  type: "Convolution"
  bottom: "conv2_2_3x3"
  top: "conv2_2_1x1_increase"
  param {
    lr_mult: 1
    decay_mult: 1
  }
  convolution_param {
    num_output: 256
    pad: 0
    kernel_size: 1
    stride: 1
    weight_filler {
      type: "msra"
    }
    bias_term: false
  }
}
layer {
  name: "conv2_2_1x1_increase/bn"
  type: "BN"
  bottom: "conv2_2_1x1_increase"
  top: "conv2_2_1x1_increase"
  param {
    lr_mult: 1
    decay_mult: 0
  }
  param {
    lr_mult: 1
    decay_mult: 0
  }
  param {
    lr_mult: 0
    decay_mult: 0
  }
  param {
    lr_mult: 0
    decay_mult: 0
  }
  bn_param {
    slope_filler {
      type: "constant"
      value: 1
    }
    bias_filler {
      type: "constant"
      value: 0
    }
    frozen: true
    momentum: 0.95
  }
}
layer {
  name: "conv2_2"
  type: "Eltwise"
  bottom: "conv2_1"
  bottom: "conv2_2_1x1_increase"
  top: "conv2_2"
  eltwise_param {
    operation: SUM
  }
}
layer {
  name: "conv2_2/relu"
  type: "ReLU"
  bottom: "conv2_2"
  top: "conv2_2"
}
layer {
  name: "conv2_3_1x1_reduce"
  type: "Convolution"
  bottom: "conv2_2"
  top: "conv2_3_1x1_reduce"
  param {
    lr_mult: 1
    decay_mult: 1
  }
  convolution_param {
    num_output: 64
    pad: 0
    kernel_size: 1
    stride: 1
    weight_filler {
      type: "msra"
    }
    bias_term: false
  }
}
layer {
  name: "conv2_3_1x1_reduce/bn"
  type: "BN"
  bottom: "conv2_3_1x1_reduce"
  top: "conv2_3_1x1_reduce"
  param {
    lr_mult: 1
    decay_mult: 0
  }
  param {
    lr_mult: 1
    decay_mult: 0
  }
  param {
    lr_mult: 0
    decay_mult: 0
  }
  param {
    lr_mult: 0
    decay_mult: 0
  }
  bn_param {
    slope_filler {
      type: "constant"
      value: 1
    }
    bias_filler {
      type: "constant"
      value: 0
    }
    frozen: true
    momentum: 0.95
  }
}
layer {
  name: "conv2_3_1x1_reduce/relu"
  type: "ReLU"
  bottom: "conv2_3_1x1_reduce"
  top: "conv2_3_1x1_reduce"
}
layer {
  name: "conv2_3_3x3"
  type: "Convolution"
  bottom: "conv2_3_1x1_reduce"
  top: "conv2_3_3x3"
  param {
    lr_mult: 1
    decay_mult: 1
  }
  convolution_param {
    num_output: 64
    pad: 1
    kernel_size: 3
    stride: 1
    weight_filler {
      type: "msra"
    }
    bias_term: false
  }
}
layer {
  name: "conv2_3_3x3/bn"
  type: "BN"
  bottom: "conv2_3_3x3"
  top: "conv2_3_3x3"
  param {
    lr_mult: 1
    decay_mult: 0
  }
  param {
    lr_mult: 1
    decay_mult: 0
  }
  param {
    lr_mult: 0
    decay_mult: 0
  }
  param {
    lr_mult: 0
    decay_mult: 0
  }
  bn_param {
    slope_filler {
      type: "constant"
      value: 1
    }
    bias_filler {
      type: "constant"
      value: 0
    }
    frozen: true
    momentum: 0.95
  }
}
layer {
  name: "conv2_3_3x3/relu"
  type: "ReLU"
  bottom: "conv2_3_3x3"
  top: "conv2_3_3x3"
}
layer {
  name: "conv2_3_1x1_increase"
  type: "Convolution"
  bottom: "conv2_3_3x3"
  top: "conv2_3_1x1_increase"
  param {
    lr_mult: 1
    decay_mult: 1
  }
  convolution_param {
    num_output: 256
    pad: 0
    kernel_size: 1
    stride: 1
    weight_filler {
      type: "msra"
    }
    bias_term: false
  }
}
layer {
  name: "conv2_3_1x1_increase/bn"
  type: "BN"
  bottom: "conv2_3_1x1_increase"
  top: "conv2_3_1x1_increase"
  param {
    lr_mult: 1
    decay_mult: 0
  }
  param {
    lr_mult: 1
    decay_mult: 0
  }
  param {
    lr_mult: 0
    decay_mult: 0
  }
  param {
    lr_mult: 0
    decay_mult: 0
  }
  bn_param {
    slope_filler {
      type: "constant"
      value: 1
    }
    bias_filler {
      type: "constant"
      value: 0
    }
    frozen: true
    momentum: 0.95
  }
}
layer {
  name: "conv2_3"
  type: "Eltwise"
  bottom: "conv2_2"
  bottom: "conv2_3_1x1_increase"
  top: "conv2_3"
  eltwise_param {
    operation: SUM
  }
}
layer {
  name: "conv2_3/relu"
  type: "ReLU"
  bottom: "conv2_3"
  top: "conv2_3"
}
layer {
  name: "conv3_1_1x1_reduce"
  type: "Convolution"
  bottom: "conv2_3"
  top: "conv3_1_1x1_reduce"
  param {
    lr_mult: 1
    decay_mult: 1
  }
  convolution_param {
    num_output: 128
    pad: 0
    kernel_size: 1
    stride: 1
    weight_filler {
      type: "msra"
    }
    bias_term: false
  }
}
layer {
  name: "conv3_1_1x1_reduce/bn"
  type: "BN"
  bottom: "conv3_1_1x1_reduce"
  top: "conv3_1_1x1_reduce"
  param {
    lr_mult: 1
    decay_mult: 0
  }
  param {
    lr_mult: 1
    decay_mult: 0
  }
  param {
    lr_mult: 0
    decay_mult: 0
  }
  param {
    lr_mult: 0
    decay_mult: 0
  }
  bn_param {
    slope_filler {
      type: "constant"
      value: 1
    }
    bias_filler {
      type: "constant"
      value: 0
    }
    frozen: true
    momentum: 0.95
  }
}
layer {
  name: "conv3_1_1x1_reduce/relu"
  type: "ReLU"
  bottom: "conv3_1_1x1_reduce"
  top: "conv3_1_1x1_reduce"
}
layer {
  name: "conv3_1_3x3"
  type: "Convolution"
  bottom: "conv3_1_1x1_reduce"
  top: "conv3_1_3x3"
  param {
    lr_mult: 1
    decay_mult: 1
  }
  convolution_param {
    num_output: 128
    pad: 1
    kernel_size: 3
    stride: 2
    weight_filler {
      type: "msra"
    }
    bias_term: false
  }
}
layer {
  name: "conv3_1_3x3/bn"
  type: "BN"
  bottom: "conv3_1_3x3"
  top: "conv3_1_3x3"
  param {
    lr_mult: 1
    decay_mult: 0
  }
  param {
    lr_mult: 1
    decay_mult: 0
  }
  param {
    lr_mult: 0
    decay_mult: 0
  }
  param {
    lr_mult: 0
    decay_mult: 0
  }
  bn_param {
    slope_filler {
      type: "constant"
      value: 1
    }
    bias_filler {
      type: "constant"
      value: 0
    }
    frozen: true
    momentum: 0.95
  }
}
layer {
  name: "conv3_1_3x3/relu"
  type: "ReLU"
  bottom: "conv3_1_3x3"
  top: "conv3_1_3x3"
}
layer {
  name: "conv3_1_1x1_increase"
  type: "Convolution"
  bottom: "conv3_1_3x3"
  top: "conv3_1_1x1_increase"
  param {
    lr_mult: 1
    decay_mult: 1
  }
  convolution_param {
    num_output: 512
    pad: 0
    kernel_size: 1
    stride: 1
    weight_filler {
      type: "msra"
    }
    bias_term: false
  }
}
layer {
  name: "conv3_1_1x1_increase/bn"
  type: "BN"
  bottom: "conv3_1_1x1_increase"
  top: "conv3_1_1x1_increase"
  param {
    lr_mult: 1
    decay_mult: 0
  }
  param {
    lr_mult: 1
    decay_mult: 0
  }
  param {
    lr_mult: 0
    decay_mult: 0
  }
  param {
    lr_mult: 0
    decay_mult: 0
  }
  bn_param {
    slope_filler {
      type: "constant"
      value: 1
    }
    bias_filler {
      type: "constant"
      value: 0
    }
    frozen: true
    momentum: 0.95
  }
}
layer {
  name: "conv3_1_1x1_proj"
  type: "Convolution"
  bottom: "conv2_3"
  top: "conv3_1_1x1_proj"
  param {
    lr_mult: 1
    decay_mult: 1
  }
  convolution_param {
    num_output: 512
    pad: 0
    kernel_size: 1
    stride: 2
    weight_filler {
      type: "msra"
    }
    bias_term: false
  }
}
layer {
  name: "conv3_1_1x1_proj/bn"
  type: "BN"
  bottom: "conv3_1_1x1_proj"
  top: "conv3_1_1x1_proj"
  param {
    lr_mult: 1
    decay_mult: 0
  }
  param {
    lr_mult: 1
    decay_mult: 0
  }
  param {
    lr_mult: 0
    decay_mult: 0
  }
  param {
    lr_mult: 0
    decay_mult: 0
  }
  bn_param {
    slope_filler {
      type: "constant"
      value: 1
    }
    bias_filler {
      type: "constant"
      value: 0
    }
    frozen: true
    momentum: 0.95
  }
}
layer {
  name: "conv3_1"
  type: "Eltwise"
  bottom: "conv3_1_1x1_proj"
  bottom: "conv3_1_1x1_increase"
  top: "conv3_1"
  eltwise_param {
    operation: SUM
  }
}
layer {
  name: "conv3_1/relu"
  type: "ReLU"
  bottom: "conv3_1"
  top: "conv3_1"
}
layer {
  name: "conv3_2_1x1_reduce"
  type: "Convolution"
  bottom: "conv3_1"
  top: "conv3_2_1x1_reduce"
  param {
    lr_mult: 1
    decay_mult: 1
  }
  convolution_param {
    num_output: 128
    pad: 0
    kernel_size: 1
    stride: 1
    weight_filler {
      type: "msra"
    }
    bias_term: false
  }
}
layer {
  name: "conv3_2_1x1_reduce/bn"
  type: "BN"
  bottom: "conv3_2_1x1_reduce"
  top: "conv3_2_1x1_reduce"
  param {
    lr_mult: 1
    decay_mult: 0
  }
  param {
    lr_mult: 1
    decay_mult: 0
  }
  param {
    lr_mult: 0
    decay_mult: 0
  }
  param {
    lr_mult: 0
    decay_mult: 0
  }
  bn_param {
    slope_filler {
      type: "constant"
      value: 1
    }
    bias_filler {
      type: "constant"
      value: 0
    }
    frozen: true
    momentum: 0.95
  }
}
layer {
  name: "conv3_2_1x1_reduce/relu"
  type: "ReLU"
  bottom: "conv3_2_1x1_reduce"
  top: "conv3_2_1x1_reduce"
}
layer {
  name: "conv3_2_3x3"
  type: "Convolution"
  bottom: "conv3_2_1x1_reduce"
  top: "conv3_2_3x3"
  param {
    lr_mult: 1
    decay_mult: 1
  }
  convolution_param {
    num_output: 128
    pad: 1
    kernel_size: 3
    stride: 1
    weight_filler {
      type: "msra"
    }
    bias_term: false
  }
}
layer {
  name: "conv3_2_3x3/bn"
  type: "BN"
  bottom: "conv3_2_3x3"
  top: "conv3_2_3x3"
  param {
    lr_mult: 1
    decay_mult: 0
  }
  param {
    lr_mult: 1
    decay_mult: 0
  }
  param {
    lr_mult: 0
    decay_mult: 0
  }
  param {
    lr_mult: 0
    decay_mult: 0
  }
  bn_param {
    slope_filler {
      type: "constant"
      value: 1
    }
    bias_filler {
      type: "constant"
      value: 0
    }
    frozen: true
    momentum: 0.95
  }
}
layer {
  name: "conv3_2_3x3/relu"
  type: "ReLU"
  bottom: "conv3_2_3x3"
  top: "conv3_2_3x3"
}
layer {
  name: "conv3_2_1x1_increase"
  type: "Convolution"
  bottom: "conv3_2_3x3"
  top: "conv3_2_1x1_increase"
  param {
    lr_mult: 1
    decay_mult: 1
  }
  convolution_param {
    num_output: 512
    pad: 0
    kernel_size: 1
    stride: 1
    weight_filler {
      type: "msra"
    }
    bias_term: false
  }
}
layer {
  name: "conv3_2_1x1_increase/bn"
  type: "BN"
  bottom: "conv3_2_1x1_increase"
  top: "conv3_2_1x1_increase"
  param {
    lr_mult: 1
    decay_mult: 0
  }
  param {
    lr_mult: 1
    decay_mult: 0
  }
  param {
    lr_mult: 0
    decay_mult: 0
  }
  param {
    lr_mult: 0
    decay_mult: 0
  }
  bn_param {
    slope_filler {
      type: "constant"
      value: 1
    }
    bias_filler {
      type: "constant"
      value: 0
    }
    frozen: true
    momentum: 0.95
  }
}
layer {
  name: "conv3_2"
  type: "Eltwise"
  bottom: "conv3_1"
  bottom: "conv3_2_1x1_increase"
  top: "conv3_2"
  eltwise_param {
    operation: SUM
  }
}
layer {
  name: "conv3_2/relu"
  type: "ReLU"
  bottom: "conv3_2"
  top: "conv3_2"
}
layer {
  name: "conv3_3_1x1_reduce"
  type: "Convolution"
  bottom: "conv3_2"
  top: "conv3_3_1x1_reduce"
  param {
    lr_mult: 1
    decay_mult: 1
  }
  convolution_param {
    num_output: 128
    pad: 0
    kernel_size: 1
    stride: 1
    weight_filler {
      type: "msra"
    }
    bias_term: false
  }
}
layer {
  name: "conv3_3_1x1_reduce/bn"
  type: "BN"
  bottom: "conv3_3_1x1_reduce"
  top: "conv3_3_1x1_reduce"
  param {
    lr_mult: 1
    decay_mult: 0
  }
  param {
    lr_mult: 1
    decay_mult: 0
  }
  param {
    lr_mult: 0
    decay_mult: 0
  }
  param {
    lr_mult: 0
    decay_mult: 0
  }
  bn_param {
    slope_filler {
      type: "constant"
      value: 1
    }
    bias_filler {
      type: "constant"
      value: 0
    }
    frozen: true
    momentum: 0.95
  }
}
layer {
  name: "conv3_3_1x1_reduce/relu"
  type: "ReLU"
  bottom: "conv3_3_1x1_reduce"
  top: "conv3_3_1x1_reduce"
}
layer {
  name: "conv3_3_3x3"
  type: "Convolution"
  bottom: "conv3_3_1x1_reduce"
  top: "conv3_3_3x3"
  param {
    lr_mult: 1
    decay_mult: 1
  }
  convolution_param {
    num_output: 128
    pad: 1
    kernel_size: 3
    stride: 1
    weight_filler {
      type: "msra"
    }
    bias_term: false
  }
}
layer {
  name: "conv3_3_3x3/bn"
  type: "BN"
  bottom: "conv3_3_3x3"
  top: "conv3_3_3x3"
  param {
    lr_mult: 1
    decay_mult: 0
  }
  param {
    lr_mult: 1
    decay_mult: 0
  }
  param {
    lr_mult: 0
    decay_mult: 0
  }
  param {
    lr_mult: 0
    decay_mult: 0
  }
  bn_param {
    slope_filler {
      type: "constant"
      value: 1
    }
    bias_filler {
      type: "constant"
      value: 0
    }
    frozen: true
    momentum: 0.95
  }
}
layer {
  name: "conv3_3_3x3/relu"
  type: "ReLU"
  bottom: "conv3_3_3x3"
  top: "conv3_3_3x3"
}
layer {
  name: "conv3_3_1x1_increase"
  type: "Convolution"
  bottom: "conv3_3_3x3"
  top: "conv3_3_1x1_increase"
  param {
    lr_mult: 1
    decay_mult: 1
  }
  convolution_param {
    num_output: 512
    pad: 0
    kernel_size: 1
    stride: 1
    weight_filler {
      type: "msra"
    }
    bias_term: false
  }
}
layer {
  name: "conv3_3_1x1_increase/bn"
  type: "BN"
  bottom: "conv3_3_1x1_increase"
  top: "conv3_3_1x1_increase"
  param {
    lr_mult: 1
    decay_mult: 0
  }
  param {
    lr_mult: 1
    decay_mult: 0
  }
  param {
    lr_mult: 0
    decay_mult: 0
  }
  param {
    lr_mult: 0
    decay_mult: 0
  }
  bn_param {
    slope_filler {
      type: "constant"
      value: 1
    }
    bias_filler {
      type: "constant"
      value: 0
    }
    frozen: true
    momentum: 0.95
  }
}
layer {
  name: "conv3_3"
  type: "Eltwise"
  bottom: "conv3_2"
  bottom: "conv3_3_1x1_increase"
  top: "conv3_3"
  eltwise_param {
    operation: SUM
  }
}
layer {
  name: "conv3_3/relu"
  type: "ReLU"
  bottom: "conv3_3"
  top: "conv3_3"
}
layer {
  name: "conv3_4_1x1_reduce"
  type: "Convolution"
  bottom: "conv3_3"
  top: "conv3_4_1x1_reduce"
  param {
    lr_mult: 1
    decay_mult: 1
  }
  convolution_param {
    num_output: 128
    pad: 0
    kernel_size: 1
    stride: 1
    weight_filler {
      type: "msra"
    }
    bias_term: false
  }
}
layer {
  name: "conv3_4_1x1_reduce/bn"
  type: "BN"
  bottom: "conv3_4_1x1_reduce"
  top: "conv3_4_1x1_reduce"
  param {
    lr_mult: 1
    decay_mult: 0
  }
  param {
    lr_mult: 1
    decay_mult: 0
  }
  param {
    lr_mult: 0
    decay_mult: 0
  }
  param {
    lr_mult: 0
    decay_mult: 0
  }
  bn_param {
    slope_filler {
      type: "constant"
      value: 1
    }
    bias_filler {
      type: "constant"
      value: 0
    }
    frozen: true
    momentum: 0.95
  }
}
layer {
  name: "conv3_4_1x1_reduce/relu"
  type: "ReLU"
  bottom: "conv3_4_1x1_reduce"
  top: "conv3_4_1x1_reduce"
}
layer {
  name: "conv3_4_3x3"
  type: "Convolution"
  bottom: "conv3_4_1x1_reduce"
  top: "conv3_4_3x3"
  param {
    lr_mult: 1
    decay_mult: 1
  }
  convolution_param {
    num_output: 128
    pad: 1
    kernel_size: 3
    stride: 1
    weight_filler {
      type: "msra"
    }
    bias_term: false
  }
}
layer {
  name: "conv3_4_3x3/bn"
  type: "BN"
  bottom: "conv3_4_3x3"
  top: "conv3_4_3x3"
  param {
    lr_mult: 1
    decay_mult: 0
  }
  param {
    lr_mult: 1
    decay_mult: 0
  }
  param {
    lr_mult: 0
    decay_mult: 0
  }
  param {
    lr_mult: 0
    decay_mult: 0
  }
  bn_param {
    slope_filler {
      type: "constant"
      value: 1
    }
    bias_filler {
      type: "constant"
      value: 0
    }
    frozen: true
    momentum: 0.95
  }
}
layer {
  name: "conv3_4_3x3/relu"
  type: "ReLU"
  bottom: "conv3_4_3x3"
  top: "conv3_4_3x3"
}
layer {
  name: "conv3_4_1x1_increase"
  type: "Convolution"
  bottom: "conv3_4_3x3"
  top: "conv3_4_1x1_increase"
  param {
    lr_mult: 1
    decay_mult: 1
  }
  convolution_param {
    num_output: 512
    pad: 0
    kernel_size: 1
    stride: 1
    weight_filler {
      type: "msra"
    }
    bias_term: false
  }
}
layer {
  name: "conv3_4_1x1_increase/bn"
  type: "BN"
  bottom: "conv3_4_1x1_increase"
  top: "conv3_4_1x1_increase"
  param {
    lr_mult: 1
    decay_mult: 0
  }
  param {
    lr_mult: 1
    decay_mult: 0
  }
  param {
    lr_mult: 0
    decay_mult: 0
  }
  param {
    lr_mult: 0
    decay_mult: 0
  }
  bn_param {
    slope_filler {
      type: "constant"
      value: 1
    }
    bias_filler {
      type: "constant"
      value: 0
    }
    frozen: true
    momentum: 0.95
  }
}
layer {
  name: "conv3_4"
  type: "Eltwise"
  bottom: "conv3_3"
  bottom: "conv3_4_1x1_increase"
  top: "conv3_4"
  eltwise_param {
    operation: SUM
  }
}
layer {
  name: "conv3_4/relu"
  type: "ReLU"
  bottom: "conv3_4"
  top: "conv3_4"
}
layer {
  name: "conv4_1_1x1_reduce"
  type: "Convolution"
  bottom: "conv3_4"
  top: "conv4_1_1x1_reduce"
  param {
    lr_mult: 1
    decay_mult: 1
  }
  convolution_param {
    num_output: 256
    pad: 0
    kernel_size: 1
    stride: 1
    weight_filler {
      type: "msra"
    }
    bias_term: false
  }
}
layer {
  name: "conv4_1_1x1_reduce/bn"
  type: "BN"
  bottom: "conv4_1_1x1_reduce"
  top: "conv4_1_1x1_reduce"
  param {
    lr_mult: 1
    decay_mult: 0
  }
  param {
    lr_mult: 1
    decay_mult: 0
  }
  param {
    lr_mult: 0
    decay_mult: 0
  }
  param {
    lr_mult: 0
    decay_mult: 0
  }
  bn_param {
    slope_filler {
      type: "constant"
      value: 1
    }
    bias_filler {
      type: "constant"
      value: 0
    }
    frozen: true
    momentum: 0.95
  }
}
layer {
  name: "conv4_1_1x1_reduce/relu"
  type: "ReLU"
  bottom: "conv4_1_1x1_reduce"
  top: "conv4_1_1x1_reduce"
}
layer {
  name: "conv4_1_3x3"
  type: "Convolution"
  bottom: "conv4_1_1x1_reduce"
  top: "conv4_1_3x3"
  param {
    lr_mult: 1
    decay_mult: 1
  }
  convolution_param {
    num_output: 256
    pad: 2
    dilation: 2
    kernel_size: 3
    stride: 1
    weight_filler {
      type: "msra"
    }
    bias_term: false
  }
}
layer {
  name: "conv4_1_3x3/bn"
  type: "BN"
  bottom: "conv4_1_3x3"
  top: "conv4_1_3x3"
  param {
    lr_mult: 1
    decay_mult: 0
  }
  param {
    lr_mult: 1
    decay_mult: 0
  }
  param {
    lr_mult: 0
    decay_mult: 0
  }
  param {
    lr_mult: 0
    decay_mult: 0
  }
  bn_param {
    slope_filler {
      type: "constant"
      value: 1
    }
    bias_filler {
      type: "constant"
      value: 0
    }
    frozen: true
    momentum: 0.95
  }
}
layer {
  name: "conv4_1_3x3/relu"
  type: "ReLU"
  bottom: "conv4_1_3x3"
  top: "conv4_1_3x3"
}
layer {
  name: "conv4_1_1x1_increase"
  type: "Convolution"
  bottom: "conv4_1_3x3"
  top: "conv4_1_1x1_increase"
  param {
    lr_mult: 1
    decay_mult: 1
  }
  convolution_param {
    num_output: 1024
    pad: 0
    kernel_size: 1
    stride: 1
    weight_filler {
      type: "msra"
    }
    bias_term: false
  }
}
layer {
  name: "conv4_1_1x1_increase/bn"
  type: "BN"
  bottom: "conv4_1_1x1_increase"
  top: "conv4_1_1x1_increase"
  param {
    lr_mult: 1
    decay_mult: 0
  }
  param {
    lr_mult: 1
    decay_mult: 0
  }
  param {
    lr_mult: 0
    decay_mult: 0
  }
  param {
    lr_mult: 0
    decay_mult: 0
  }
  bn_param {
    slope_filler {
      type: "constant"
      value: 1
    }
    bias_filler {
      type: "constant"
      value: 0
    }
    frozen: true
    momentum: 0.95
  }
}
layer {
  name: "conv4_1_1x1_proj"
  type: "Convolution"
  bottom: "conv3_4"
  top: "conv4_1_1x1_proj"
  param {
    lr_mult: 1
    decay_mult: 1
  }
  convolution_param {
    num_output: 1024
    pad: 0
    kernel_size: 1
    stride: 1
    weight_filler {
      type: "msra"
    }
    bias_term: false
  }
}
layer {
  name: "conv4_1_1x1_proj/bn"
  type: "BN"
  bottom: "conv4_1_1x1_proj"
  top: "conv4_1_1x1_proj"
  param {
    lr_mult: 1
    decay_mult: 0
  }
  param {
    lr_mult: 1
    decay_mult: 0
  }
  param {
    lr_mult: 0
    decay_mult: 0
  }
  param {
    lr_mult: 0
    decay_mult: 0
  }
  bn_param {
    slope_filler {
      type: "constant"
      value: 1
    }
    bias_filler {
      type: "constant"
      value: 0
    }
    frozen: true
    momentum: 0.95
  }
}
layer {
  name: "conv4_1"
  type: "Eltwise"
  bottom: "conv4_1_1x1_proj"
  bottom: "conv4_1_1x1_increase"
  top: "conv4_1"
  eltwise_param {
    operation: SUM
  }
}
layer {
  name: "conv4_1/relu"
  type: "ReLU"
  bottom: "conv4_1"
  top: "conv4_1"
}
layer {
  name: "conv4_2_1x1_reduce"
  type: "Convolution"
  bottom: "conv4_1"
  top: "conv4_2_1x1_reduce"
  param {
    lr_mult: 1
    decay_mult: 1
  }
  convolution_param {
    num_output: 256
    pad: 0
    kernel_size: 1
    stride: 1
    weight_filler {
      type: "msra"
    }
    bias_term: false
  }
}
layer {
  name: "conv4_2_1x1_reduce/bn"
  type: "BN"
  bottom: "conv4_2_1x1_reduce"
  top: "conv4_2_1x1_reduce"
  param {
    lr_mult: 1
    decay_mult: 0
  }
  param {
    lr_mult: 1
    decay_mult: 0
  }
  param {
    lr_mult: 0
    decay_mult: 0
  }
  param {
    lr_mult: 0
    decay_mult: 0
  }
  bn_param {
    slope_filler {
      type: "constant"
      value: 1
    }
    bias_filler {
      type: "constant"
      value: 0
    }
    frozen: true
    momentum: 0.95
  }
}
layer {
  name: "conv4_2_1x1_reduce/relu"
  type: "ReLU"
  bottom: "conv4_2_1x1_reduce"
  top: "conv4_2_1x1_reduce"
}
layer {
  name: "conv4_2_3x3"
  type: "Convolution"
  bottom: "conv4_2_1x1_reduce"
  top: "conv4_2_3x3"
  param {
    lr_mult: 1
    decay_mult: 1
  }
  convolution_param {
    num_output: 256
    pad: 2
    dilation: 2
    kernel_size: 3
    stride: 1
    weight_filler {
      type: "msra"
    }
    bias_term: false
  }
}
layer {
  name: "conv4_2_3x3/bn"
  type: "BN"
  bottom: "conv4_2_3x3"
  top: "conv4_2_3x3"
  param {
    lr_mult: 1
    decay_mult: 0
  }
  param {
    lr_mult: 1
    decay_mult: 0
  }
  param {
    lr_mult: 0
    decay_mult: 0
  }
  param {
    lr_mult: 0
    decay_mult: 0
  }
  bn_param {
    slope_filler {
      type: "constant"
      value: 1
    }
    bias_filler {
      type: "constant"
      value: 0
    }
    frozen: true
    momentum: 0.95
  }
}
layer {
  name: "conv4_2_3x3/relu"
  type: "ReLU"
  bottom: "conv4_2_3x3"
  top: "conv4_2_3x3"
}
layer {
  name: "conv4_2_1x1_increase"
  type: "Convolution"
  bottom: "conv4_2_3x3"
  top: "conv4_2_1x1_increase"
  param {
    lr_mult: 1
    decay_mult: 1
  }
  convolution_param {
    num_output: 1024
    pad: 0
    kernel_size: 1
    stride: 1
    weight_filler {
      type: "msra"
    }
    bias_term: false
  }
}
layer {
  name: "conv4_2_1x1_increase/bn"
  type: "BN"
  bottom: "conv4_2_1x1_increase"
  top: "conv4_2_1x1_increase"
  param {
    lr_mult: 1
    decay_mult: 0
  }
  param {
    lr_mult: 1
    decay_mult: 0
  }
  param {
    lr_mult: 0
    decay_mult: 0
  }
  param {
    lr_mult: 0
    decay_mult: 0
  }
  bn_param {
    slope_filler {
      type: "constant"
      value: 1
    }
    bias_filler {
      type: "constant"
      value: 0
    }
    frozen: true
    momentum: 0.95
  }
}
layer {
  name: "conv4_2"
  type: "Eltwise"
  bottom: "conv4_1"
  bottom: "conv4_2_1x1_increase"
  top: "conv4_2"
  eltwise_param {
    operation: SUM
  }
}
layer {
  name: "conv4_2/relu"
  type: "ReLU"
  bottom: "conv4_2"
  top: "conv4_2"
}
layer {
  name: "conv4_3_1x1_reduce"
  type: "Convolution"
  bottom: "conv4_2"
  top: "conv4_3_1x1_reduce"
  param {
    lr_mult: 1
    decay_mult: 1
  }
  convolution_param {
    num_output: 256
    pad: 0
    kernel_size: 1
    stride: 1
    weight_filler {
      type: "msra"
    }
    bias_term: false
  }
}
layer {
  name: "conv4_3_1x1_reduce/bn"
  type: "BN"
  bottom: "conv4_3_1x1_reduce"
  top: "conv4_3_1x1_reduce"
  param {
    lr_mult: 1
    decay_mult: 0
  }
  param {
    lr_mult: 1
    decay_mult: 0
  }
  param {
    lr_mult: 0
    decay_mult: 0
  }
  param {
    lr_mult: 0
    decay_mult: 0
  }
  bn_param {
    slope_filler {
      type: "constant"
      value: 1
    }
    bias_filler {
      type: "constant"
      value: 0
    }
    frozen: true
    momentum: 0.95
  }
}
layer {
  name: "conv4_3_1x1_reduce/relu"
  type: "ReLU"
  bottom: "conv4_3_1x1_reduce"
  top: "conv4_3_1x1_reduce"
}
layer {
  name: "conv4_3_3x3"
  type: "Convolution"
  bottom: "conv4_3_1x1_reduce"
  top: "conv4_3_3x3"
  param {
    lr_mult: 1
    decay_mult: 1
  }
  convolution_param {
    num_output: 256
    pad: 2
    dilation: 2
    kernel_size: 3
    stride: 1
    weight_filler {
      type: "msra"
    }
    bias_term: false
  }
}
layer {
  name: "conv4_3_3x3/bn"
  type: "BN"
  bottom: "conv4_3_3x3"
  top: "conv4_3_3x3"
  param {
    lr_mult: 1
    decay_mult: 0
  }
  param {
    lr_mult: 1
    decay_mult: 0
  }
  param {
    lr_mult: 0
    decay_mult: 0
  }
  param {
    lr_mult: 0
    decay_mult: 0
  }
  bn_param {
    slope_filler {
      type: "constant"
      value: 1
    }
    bias_filler {
      type: "constant"
      value: 0
    }
    frozen: true
    momentum: 0.95
  }
}
layer {
  name: "conv4_3_3x3/relu"
  type: "ReLU"
  bottom: "conv4_3_3x3"
  top: "conv4_3_3x3"
}
layer {
  name: "conv4_3_1x1_increase"
  type: "Convolution"
  bottom: "conv4_3_3x3"
  top: "conv4_3_1x1_increase"
  param {
    lr_mult: 1
    decay_mult: 1
  }
  convolution_param {
    num_output: 1024
    pad: 0
    kernel_size: 1
    stride: 1
    weight_filler {
      type: "msra"
    }
    bias_term: false
  }
}
layer {
  name: "conv4_3_1x1_increase/bn"
  type: "BN"
  bottom: "conv4_3_1x1_increase"
  top: "conv4_3_1x1_increase"
  param {
    lr_mult: 1
    decay_mult: 0
  }
  param {
    lr_mult: 1
    decay_mult: 0
  }
  param {
    lr_mult: 0
    decay_mult: 0
  }
  param {
    lr_mult: 0
    decay_mult: 0
  }
  bn_param {
    slope_filler {
      type: "constant"
      value: 1
    }
    bias_filler {
      type: "constant"
      value: 0
    }
    frozen: true
    momentum: 0.95
  }
}
layer {
  name: "conv4_3"
  type: "Eltwise"
  bottom: "conv4_2"
  bottom: "conv4_3_1x1_increase"
  top: "conv4_3"
  eltwise_param {
    operation: SUM
  }
}
layer {
  name: "conv4_3/relu"
  type: "ReLU"
  bottom: "conv4_3"
  top: "conv4_3"
}
layer {
  name: "conv4_4_1x1_reduce"
  type: "Convolution"
  bottom: "conv4_3"
  top: "conv4_4_1x1_reduce"
  param {
    lr_mult: 1
    decay_mult: 1
  }
  convolution_param {
    num_output: 256
    pad: 0
    kernel_size: 1
    stride: 1
    weight_filler {
      type: "msra"
    }
    bias_term: false
  }
}
layer {
  name: "conv4_4_1x1_reduce/bn"
  type: "BN"
  bottom: "conv4_4_1x1_reduce"
  top: "conv4_4_1x1_reduce"
  param {
    lr_mult: 1
    decay_mult: 0
  }
  param {
    lr_mult: 1
    decay_mult: 0
  }
  param {
    lr_mult: 0
    decay_mult: 0
  }
  param {
    lr_mult: 0
    decay_mult: 0
  }
  bn_param {
    slope_filler {
      type: "constant"
      value: 1
    }
    bias_filler {
      type: "constant"
      value: 0
    }
    frozen: true
    momentum: 0.95
  }
}
layer {
  name: "conv4_4_1x1_reduce/relu"
  type: "ReLU"
  bottom: "conv4_4_1x1_reduce"
  top: "conv4_4_1x1_reduce"
}
layer {
  name: "conv4_4_3x3"
  type: "Convolution"
  bottom: "conv4_4_1x1_reduce"
  top: "conv4_4_3x3"
  param {
    lr_mult: 1
    decay_mult: 1
  }
  convolution_param {
    num_output: 256
    pad: 2
    dilation: 2
    kernel_size: 3
    stride: 1
    weight_filler {
      type: "msra"
    }
    bias_term: false
  }
}
layer {
  name: "conv4_4_3x3/bn"
  type: "BN"
  bottom: "conv4_4_3x3"
  top: "conv4_4_3x3"
  param {
    lr_mult: 1
    decay_mult: 0
  }
  param {
    lr_mult: 1
    decay_mult: 0
  }
  param {
    lr_mult: 0
    decay_mult: 0
  }
  param {
    lr_mult: 0
    decay_mult: 0
  }
  bn_param {
    slope_filler {
      type: "constant"
      value: 1
    }
    bias_filler {
      type: "constant"
      value: 0
    }
    frozen: true
    momentum: 0.95
  }
}
layer {
  name: "conv4_4_3x3/relu"
  type: "ReLU"
  bottom: "conv4_4_3x3"
  top: "conv4_4_3x3"
}
layer {
  name: "conv4_4_1x1_increase"
  type: "Convolution"
  bottom: "conv4_4_3x3"
  top: "conv4_4_1x1_increase"
  param {
    lr_mult: 1
    decay_mult: 1
  }
  convolution_param {
    num_output: 1024
    pad: 0
    kernel_size: 1
    stride: 1
    weight_filler {
      type: "msra"
    }
    bias_term: false
  }
}
layer {
  name: "conv4_4_1x1_increase/bn"
  type: "BN"
  bottom: "conv4_4_1x1_increase"
  top: "conv4_4_1x1_increase"
  param {
    lr_mult: 1
    decay_mult: 0
  }
  param {
    lr_mult: 1
    decay_mult: 0
  }
  param {
    lr_mult: 0
    decay_mult: 0
  }
  param {
    lr_mult: 0
    decay_mult: 0
  }
  bn_param {
    slope_filler {
      type: "constant"
      value: 1
    }
    bias_filler {
      type: "constant"
      value: 0
    }
    frozen: true
    momentum: 0.95
  }
}
layer {
  name: "conv4_4"
  type: "Eltwise"
  bottom: "conv4_3"
  bottom: "conv4_4_1x1_increase"
  top: "conv4_4"
  eltwise_param {
    operation: SUM
  }
}
layer {
  name: "conv4_4/relu"
  type: "ReLU"
  bottom: "conv4_4"
  top: "conv4_4"
}
layer {
  name: "conv4_5_1x1_reduce"
  type: "Convolution"
  bottom: "conv4_4"
  top: "conv4_5_1x1_reduce"
  param {
    lr_mult: 1
    decay_mult: 1
  }
  convolution_param {
    num_output: 256
    pad: 0
    kernel_size: 1
    stride: 1
    weight_filler {
      type: "msra"
    }
    bias_term: false
  }
}
layer {
  name: "conv4_5_1x1_reduce/bn"
  type: "BN"
  bottom: "conv4_5_1x1_reduce"
  top: "conv4_5_1x1_reduce"
  param {
    lr_mult: 1
    decay_mult: 0
  }
  param {
    lr_mult: 1
    decay_mult: 0
  }
  param {
    lr_mult: 0
    decay_mult: 0
  }
  param {
    lr_mult: 0
    decay_mult: 0
  }
  bn_param {
    slope_filler {
      type: "constant"
      value: 1
    }
    bias_filler {
      type: "constant"
      value: 0
    }
    frozen: true
    momentum: 0.95
  }
}
layer {
  name: "conv4_5_1x1_reduce/relu"
  type: "ReLU"
  bottom: "conv4_5_1x1_reduce"
  top: "conv4_5_1x1_reduce"
}
layer {
  name: "conv4_5_3x3"
  type: "Convolution"
  bottom: "conv4_5_1x1_reduce"
  top: "conv4_5_3x3"
  param {
    lr_mult: 1
    decay_mult: 1
  }
  convolution_param {
    num_output: 256
    pad: 2
    dilation: 2
    kernel_size: 3
    stride: 1
    weight_filler {
      type: "msra"
    }
    bias_term: false
  }
}
layer {
  name: "conv4_5_3x3/bn"
  type: "BN"
  bottom: "conv4_5_3x3"
  top: "conv4_5_3x3"
  param {
    lr_mult: 1
    decay_mult: 0
  }
  param {
    lr_mult: 1
    decay_mult: 0
  }
  param {
    lr_mult: 0
    decay_mult: 0
  }
  param {
    lr_mult: 0
    decay_mult: 0
  }
  bn_param {
    slope_filler {
      type: "constant"
      value: 1
    }
    bias_filler {
      type: "constant"
      value: 0
    }
    frozen: true
    momentum: 0.95
  }
}
layer {
  name: "conv4_5_3x3/relu"
  type: "ReLU"
  bottom: "conv4_5_3x3"
  top: "conv4_5_3x3"
}
layer {
  name: "conv4_5_1x1_increase"
  type: "Convolution"
  bottom: "conv4_5_3x3"
  top: "conv4_5_1x1_increase"
  param {
    lr_mult: 1
    decay_mult: 1
  }
  convolution_param {
    num_output: 1024
    pad: 0
    kernel_size: 1
    stride: 1
    weight_filler {
      type: "msra"
    }
    bias_term: false
  }
}
layer {
  name: "conv4_5_1x1_increase/bn"
  type: "BN"
  bottom: "conv4_5_1x1_increase"
  top: "conv4_5_1x1_increase"
  param {
    lr_mult: 1
    decay_mult: 0
  }
  param {
    lr_mult: 1
    decay_mult: 0
  }
  param {
    lr_mult: 0
    decay_mult: 0
  }
  param {
    lr_mult: 0
    decay_mult: 0
  }
  bn_param {
    slope_filler {
      type: "constant"
      value: 1
    }
    bias_filler {
      type: "constant"
      value: 0
    }
    frozen: true
    momentum: 0.95
  }
}
layer {
  name: "conv4_5"
  type: "Eltwise"
  bottom: "conv4_4"
  bottom: "conv4_5_1x1_increase"
  top: "conv4_5"
  eltwise_param {
    operation: SUM
  }
}
layer {
  name: "conv4_5/relu"
  type: "ReLU"
  bottom: "conv4_5"
  top: "conv4_5"
}
layer {
  name: "conv4_6_1x1_reduce"
  type: "Convolution"
  bottom: "conv4_5"
  top: "conv4_6_1x1_reduce"
  param {
    lr_mult: 1
    decay_mult: 1
  }
  convolution_param {
    num_output: 256
    pad: 0
    kernel_size: 1
    stride: 1
    weight_filler {
      type: "msra"
    }
    bias_term: false
  }
}
layer {
  name: "conv4_6_1x1_reduce/bn"
  type: "BN"
  bottom: "conv4_6_1x1_reduce"
  top: "conv4_6_1x1_reduce"
  param {
    lr_mult: 1
    decay_mult: 0
  }
  param {
    lr_mult: 1
    decay_mult: 0
  }
  param {
    lr_mult: 0
    decay_mult: 0
  }
  param {
    lr_mult: 0
    decay_mult: 0
  }
  bn_param {
    slope_filler {
      type: "constant"
      value: 1
    }
    bias_filler {
      type: "constant"
      value: 0
    }
    frozen: true
    momentum: 0.95
  }
}
layer {
  name: "conv4_6_1x1_reduce/relu"
  type: "ReLU"
  bottom: "conv4_6_1x1_reduce"
  top: "conv4_6_1x1_reduce"
}
layer {
  name: "conv4_6_3x3"
  type: "Convolution"
  bottom: "conv4_6_1x1_reduce"
  top: "conv4_6_3x3"
  param {
    lr_mult: 1
    decay_mult: 1
  }
  convolution_param {
    num_output: 256
    pad: 2
    dilation: 2
    kernel_size: 3
    stride: 1
    weight_filler {
      type: "msra"
    }
    bias_term: false
  }
}
layer {
  name: "conv4_6_3x3/bn"
  type: "BN"
  bottom: "conv4_6_3x3"
  top: "conv4_6_3x3"
  param {
    lr_mult: 1
    decay_mult: 0
  }
  param {
    lr_mult: 1
    decay_mult: 0
  }
  param {
    lr_mult: 0
    decay_mult: 0
  }
  param {
    lr_mult: 0
    decay_mult: 0
  }
  bn_param {
    slope_filler {
      type: "constant"
      value: 1
    }
    bias_filler {
      type: "constant"
      value: 0
    }
    frozen: true
    momentum: 0.95
  }
}
layer {
  name: "conv4_6_3x3/relu"
  type: "ReLU"
  bottom: "conv4_6_3x3"
  top: "conv4_6_3x3"
}
layer {
  name: "conv4_6_1x1_increase"
  type: "Convolution"
  bottom: "conv4_6_3x3"
  top: "conv4_6_1x1_increase"
  param {
    lr_mult: 1
    decay_mult: 1
  }
  convolution_param {
    num_output: 1024
    pad: 0
    kernel_size: 1
    stride: 1
    weight_filler {
      type: "msra"
    }
    bias_term: false
  }
}
layer {
  name: "conv4_6_1x1_increase/bn"
  type: "BN"
  bottom: "conv4_6_1x1_increase"
  top: "conv4_6_1x1_increase"
  param {
    lr_mult: 1
    decay_mult: 0
  }
  param {
    lr_mult: 1
    decay_mult: 0
  }
  param {
    lr_mult: 0
    decay_mult: 0
  }
  param {
    lr_mult: 0
    decay_mult: 0
  }
  bn_param {
    slope_filler {
      type: "constant"
      value: 1
    }
    bias_filler {
      type: "constant"
      value: 0
    }
    frozen: true
    momentum: 0.95
  }
}
layer {
  name: "conv4_6"
  type: "Eltwise"
  bottom: "conv4_5"
  bottom: "conv4_6_1x1_increase"
  top: "conv4_6"
  eltwise_param {
    operation: SUM
  }
}
layer {
  name: "conv4_6/relu"
  type: "ReLU"
  bottom: "conv4_6"
  top: "conv4_6"
}
layer {
  name: "conv4_7_1x1_reduce"
  type: "Convolution"
  bottom: "conv4_6"
  top: "conv4_7_1x1_reduce"
  param {
    lr_mult: 1
    decay_mult: 1
  }
  convolution_param {
    num_output: 256
    pad: 0
    kernel_size: 1
    stride: 1
    weight_filler {
      type: "msra"
    }
    bias_term: false
  }
}
layer {
  name: "conv4_7_1x1_reduce/bn"
  type: "BN"
  bottom: "conv4_7_1x1_reduce"
  top: "conv4_7_1x1_reduce"
  param {
    lr_mult: 1
    decay_mult: 0
  }
  param {
    lr_mult: 1
    decay_mult: 0
  }
  param {
    lr_mult: 0
    decay_mult: 0
  }
  param {
    lr_mult: 0
    decay_mult: 0
  }
  bn_param {
    slope_filler {
      type: "constant"
      value: 1
    }
    bias_filler {
      type: "constant"
      value: 0
    }
    frozen: true
    momentum: 0.95
  }
}
layer {
  name: "conv4_7_1x1_reduce/relu"
  type: "ReLU"
  bottom: "conv4_7_1x1_reduce"
  top: "conv4_7_1x1_reduce"
}
layer {
  name: "conv4_7_3x3"
  type: "Convolution"
  bottom: "conv4_7_1x1_reduce"
  top: "conv4_7_3x3"
  param {
    lr_mult: 1
    decay_mult: 1
  }
  convolution_param {
    num_output: 256
    pad: 2
    dilation: 2
    kernel_size: 3
    stride: 1
    weight_filler {
      type: "msra"
    }
    bias_term: false
  }
}
layer {
  name: "conv4_7_3x3/bn"
  type: "BN"
  bottom: "conv4_7_3x3"
  top: "conv4_7_3x3"
  param {
    lr_mult: 1
    decay_mult: 0
  }
  param {
    lr_mult: 1
    decay_mult: 0
  }
  param {
    lr_mult: 0
    decay_mult: 0
  }
  param {
    lr_mult: 0
    decay_mult: 0
  }
  bn_param {
    slope_filler {
      type: "constant"
      value: 1
    }
    bias_filler {
      type: "constant"
      value: 0
    }
    frozen: true
    momentum: 0.95
  }
}
layer {
  name: "conv4_7_3x3/relu"
  type: "ReLU"
  bottom: "conv4_7_3x3"
  top: "conv4_7_3x3"
}
layer {
  name: "conv4_7_1x1_increase"
  type: "Convolution"
  bottom: "conv4_7_3x3"
  top: "conv4_7_1x1_increase"
  param {
    lr_mult: 1
    decay_mult: 1
  }
  convolution_param {
    num_output: 1024
    pad: 0
    kernel_size: 1
    stride: 1
    weight_filler {
      type: "msra"
    }
    bias_term: false
  }
}
layer {
  name: "conv4_7_1x1_increase/bn"
  type: "BN"
  bottom: "conv4_7_1x1_increase"
  top: "conv4_7_1x1_increase"
  param {
    lr_mult: 1
    decay_mult: 0
  }
  param {
    lr_mult: 1
    decay_mult: 0
  }
  param {
    lr_mult: 0
    decay_mult: 0
  }
  param {
    lr_mult: 0
    decay_mult: 0
  }
  bn_param {
    slope_filler {
      type: "constant"
      value: 1
    }
    bias_filler {
      type: "constant"
      value: 0
    }
    frozen: true
    momentum: 0.95
  }
}
layer {
  name: "conv4_7"
  type: "Eltwise"
  bottom: "conv4_6"
  bottom: "conv4_7_1x1_increase"
  top: "conv4_7"
  eltwise_param {
    operation: SUM
  }
}
layer {
  name: "conv4_7/relu"
  type: "ReLU"
  bottom: "conv4_7"
  top: "conv4_7"
}
layer {
  name: "conv4_8_1x1_reduce"
  type: "Convolution"
  bottom: "conv4_7"
  top: "conv4_8_1x1_reduce"
  param {
    lr_mult: 1
    decay_mult: 1
  }
  convolution_param {
    num_output: 256
    pad: 0
    kernel_size: 1
    stride: 1
    weight_filler {
      type: "msra"
    }
    bias_term: false
  }
}
layer {
  name: "conv4_8_1x1_reduce/bn"
  type: "BN"
  bottom: "conv4_8_1x1_reduce"
  top: "conv4_8_1x1_reduce"
  param {
    lr_mult: 1
    decay_mult: 0
  }
  param {
    lr_mult: 1
    decay_mult: 0
  }
  param {
    lr_mult: 0
    decay_mult: 0
  }
  param {
    lr_mult: 0
    decay_mult: 0
  }
  bn_param {
    slope_filler {
      type: "constant"
      value: 1
    }
    bias_filler {
      type: "constant"
      value: 0
    }
    frozen: true
    momentum: 0.95
  }
}
layer {
  name: "conv4_8_1x1_reduce/relu"
  type: "ReLU"
  bottom: "conv4_8_1x1_reduce"
  top: "conv4_8_1x1_reduce"
}
layer {
  name: "conv4_8_3x3"
  type: "Convolution"
  bottom: "conv4_8_1x1_reduce"
  top: "conv4_8_3x3"
  param {
    lr_mult: 1
    decay_mult: 1
  }
  convolution_param {
    num_output: 256
    pad: 2
    dilation: 2
    kernel_size: 3
    stride: 1
    weight_filler {
      type: "msra"
    }
    bias_term: false
  }
}
layer {
  name: "conv4_8_3x3/bn"
  type: "BN"
  bottom: "conv4_8_3x3"
  top: "conv4_8_3x3"
  param {
    lr_mult: 1
    decay_mult: 0
  }
  param {
    lr_mult: 1
    decay_mult: 0
  }
  param {
    lr_mult: 0
    decay_mult: 0
  }
  param {
    lr_mult: 0
    decay_mult: 0
  }
  bn_param {
    slope_filler {
      type: "constant"
      value: 1
    }
    bias_filler {
      type: "constant"
      value: 0
    }
    frozen: true
    momentum: 0.95
  }
}
layer {
  name: "conv4_8_3x3/relu"
  type: "ReLU"
  bottom: "conv4_8_3x3"
  top: "conv4_8_3x3"
}
layer {
  name: "conv4_8_1x1_increase"
  type: "Convolution"
  bottom: "conv4_8_3x3"
  top: "conv4_8_1x1_increase"
  param {
    lr_mult: 1
    decay_mult: 1
  }
  convolution_param {
    num_output: 1024
    pad: 0
    kernel_size: 1
    stride: 1
    weight_filler {
      type: "msra"
    }
    bias_term: false
  }
}
layer {
  name: "conv4_8_1x1_increase/bn"
  type: "BN"
  bottom: "conv4_8_1x1_increase"
  top: "conv4_8_1x1_increase"
  param {
    lr_mult: 1
    decay_mult: 0
  }
  param {
    lr_mult: 1
    decay_mult: 0
  }
  param {
    lr_mult: 0
    decay_mult: 0
  }
  param {
    lr_mult: 0
    decay_mult: 0
  }
  bn_param {
    slope_filler {
      type: "constant"
      value: 1
    }
    bias_filler {
      type: "constant"
      value: 0
    }
    frozen: true
    momentum: 0.95
  }
}
layer {
  name: "conv4_8"
  type: "Eltwise"
  bottom: "conv4_7"
  bottom: "conv4_8_1x1_increase"
  top: "conv4_8"
  eltwise_param {
    operation: SUM
  }
}
layer {
  name: "conv4_8/relu"
  type: "ReLU"
  bottom: "conv4_8"
  top: "conv4_8"
}
layer {
  name: "conv4_9_1x1_reduce"
  type: "Convolution"
  bottom: "conv4_8"
  top: "conv4_9_1x1_reduce"
  param {
    lr_mult: 1
    decay_mult: 1
  }
  convolution_param {
    num_output: 256
    pad: 0
    kernel_size: 1
    stride: 1
    weight_filler {
      type: "msra"
    }
    bias_term: false
  }
}
layer {
  name: "conv4_9_1x1_reduce/bn"
  type: "BN"
  bottom: "conv4_9_1x1_reduce"
  top: "conv4_9_1x1_reduce"
  param {
    lr_mult: 1
    decay_mult: 0
  }
  param {
    lr_mult: 1
    decay_mult: 0
  }
  param {
    lr_mult: 0
    decay_mult: 0
  }
  param {
    lr_mult: 0
    decay_mult: 0
  }
  bn_param {
    slope_filler {
      type: "constant"
      value: 1
    }
    bias_filler {
      type: "constant"
      value: 0
    }
    frozen: true
    momentum: 0.95
  }
}
layer {
  name: "conv4_9_1x1_reduce/relu"
  type: "ReLU"
  bottom: "conv4_9_1x1_reduce"
  top: "conv4_9_1x1_reduce"
}
layer {
  name: "conv4_9_3x3"
  type: "Convolution"
  bottom: "conv4_9_1x1_reduce"
  top: "conv4_9_3x3"
  param {
    lr_mult: 1
    decay_mult: 1
  }
  convolution_param {
    num_output: 256
    pad: 2
    dilation: 2
    kernel_size: 3
    stride: 1
    weight_filler {
      type: "msra"
    }
    bias_term: false
  }
}
layer {
  name: "conv4_9_3x3/bn"
  type: "BN"
  bottom: "conv4_9_3x3"
  top: "conv4_9_3x3"
  param {
    lr_mult: 1
    decay_mult: 0
  }
  param {
    lr_mult: 1
    decay_mult: 0
  }
  param {
    lr_mult: 0
    decay_mult: 0
  }
  param {
    lr_mult: 0
    decay_mult: 0
  }
  bn_param {
    slope_filler {
      type: "constant"
      value: 1
    }
    bias_filler {
      type: "constant"
      value: 0
    }
    frozen: true
    momentum: 0.95
  }
}
layer {
  name: "conv4_9_3x3/relu"
  type: "ReLU"
  bottom: "conv4_9_3x3"
  top: "conv4_9_3x3"
}
layer {
  name: "conv4_9_1x1_increase"
  type: "Convolution"
  bottom: "conv4_9_3x3"
  top: "conv4_9_1x1_increase"
  param {
    lr_mult: 1
    decay_mult: 1
  }
  convolution_param {
    num_output: 1024
    pad: 0
    kernel_size: 1
    stride: 1
    weight_filler {
      type: "msra"
    }
    bias_term: false
  }
}
layer {
  name: "conv4_9_1x1_increase/bn"
  type: "BN"
  bottom: "conv4_9_1x1_increase"
  top: "conv4_9_1x1_increase"
  param {
    lr_mult: 1
    decay_mult: 0
  }
  param {
    lr_mult: 1
    decay_mult: 0
  }
  param {
    lr_mult: 0
    decay_mult: 0
  }
  param {
    lr_mult: 0
    decay_mult: 0
  }
  bn_param {
    slope_filler {
      type: "constant"
      value: 1
    }
    bias_filler {
      type: "constant"
      value: 0
    }
    frozen: true
    momentum: 0.95
  }
}
layer {
  name: "conv4_9"
  type: "Eltwise"
  bottom: "conv4_8"
  bottom: "conv4_9_1x1_increase"
  top: "conv4_9"
  eltwise_param {
    operation: SUM
  }
}
layer {
  name: "conv4_9/relu"
  type: "ReLU"
  bottom: "conv4_9"
  top: "conv4_9"
}
layer {
  name: "conv4_10_1x1_reduce"
  type: "Convolution"
  bottom: "conv4_9"
  top: "conv4_10_1x1_reduce"
  param {
    lr_mult: 1
    decay_mult: 1
  }
  convolution_param {
    num_output: 256
    pad: 0
    kernel_size: 1
    stride: 1
    weight_filler {
      type: "msra"
    }
    bias_term: false
  }
}
layer {
  name: "conv4_10_1x1_reduce/bn"
  type: "BN"
  bottom: "conv4_10_1x1_reduce"
  top: "conv4_10_1x1_reduce"
  param {
    lr_mult: 1
    decay_mult: 0
  }
  param {
    lr_mult: 1
    decay_mult: 0
  }
  param {
    lr_mult: 0
    decay_mult: 0
  }
  param {
    lr_mult: 0
    decay_mult: 0
  }
  bn_param {
    slope_filler {
      type: "constant"
      value: 1
    }
    bias_filler {
      type: "constant"
      value: 0
    }
    frozen: true
    momentum: 0.95
  }
}
layer {
  name: "conv4_10_1x1_reduce/relu"
  type: "ReLU"
  bottom: "conv4_10_1x1_reduce"
  top: "conv4_10_1x1_reduce"
}
layer {
  name: "conv4_10_3x3"
  type: "Convolution"
  bottom: "conv4_10_1x1_reduce"
  top: "conv4_10_3x3"
  param {
    lr_mult: 1
    decay_mult: 1
  }
  convolution_param {
    num_output: 256
    pad: 2
    dilation: 2
    kernel_size: 3
    stride: 1
    weight_filler {
      type: "msra"
    }
    bias_term: false
  }
}
layer {
  name: "conv4_10_3x3/bn"
  type: "BN"
  bottom: "conv4_10_3x3"
  top: "conv4_10_3x3"
  param {
    lr_mult: 1
    decay_mult: 0
  }
  param {
    lr_mult: 1
    decay_mult: 0
  }
  param {
    lr_mult: 0
    decay_mult: 0
  }
  param {
    lr_mult: 0
    decay_mult: 0
  }
  bn_param {
    slope_filler {
      type: "constant"
      value: 1
    }
    bias_filler {
      type: "constant"
      value: 0
    }
    frozen: true
    momentum: 0.95
  }
}
layer {
  name: "conv4_10_3x3/relu"
  type: "ReLU"
  bottom: "conv4_10_3x3"
  top: "conv4_10_3x3"
}
layer {
  name: "conv4_10_1x1_increase"
  type: "Convolution"
  bottom: "conv4_10_3x3"
  top: "conv4_10_1x1_increase"
  param {
    lr_mult: 1
    decay_mult: 1
  }
  convolution_param {
    num_output: 1024
    pad: 0
    kernel_size: 1
    stride: 1
    weight_filler {
      type: "msra"
    }
    bias_term: false
  }
}
layer {
  name: "conv4_10_1x1_increase/bn"
  type: "BN"
  bottom: "conv4_10_1x1_increase"
  top: "conv4_10_1x1_increase"
  param {
    lr_mult: 1
    decay_mult: 0
  }
  param {
    lr_mult: 1
    decay_mult: 0
  }
  param {
    lr_mult: 0
    decay_mult: 0
  }
  param {
    lr_mult: 0
    decay_mult: 0
  }
  bn_param {
    slope_filler {
      type: "constant"
      value: 1
    }
    bias_filler {
      type: "constant"
      value: 0
    }
    frozen: true
    momentum: 0.95
  }
}
layer {
  name: "conv4_10"
  type: "Eltwise"
  bottom: "conv4_9"
  bottom: "conv4_10_1x1_increase"
  top: "conv4_10"
  eltwise_param {
    operation: SUM
  }
}
layer {
  name: "conv4_10/relu"
  type: "ReLU"
  bottom: "conv4_10"
  top: "conv4_10"
}
layer {
  name: "conv4_11_1x1_reduce"
  type: "Convolution"
  bottom: "conv4_10"
  top: "conv4_11_1x1_reduce"
  param {
    lr_mult: 1
    decay_mult: 1
  }
  convolution_param {
    num_output: 256
    pad: 0
    kernel_size: 1
    stride: 1
    weight_filler {
      type: "msra"
    }
    bias_term: false
  }
}
layer {
  name: "conv4_11_1x1_reduce/bn"
  type: "BN"
  bottom: "conv4_11_1x1_reduce"
  top: "conv4_11_1x1_reduce"
  param {
    lr_mult: 1
    decay_mult: 0
  }
  param {
    lr_mult: 1
    decay_mult: 0
  }
  param {
    lr_mult: 0
    decay_mult: 0
  }
  param {
    lr_mult: 0
    decay_mult: 0
  }
  bn_param {
    slope_filler {
      type: "constant"
      value: 1
    }
    bias_filler {
      type: "constant"
      value: 0
    }
    frozen: true
    momentum: 0.95
  }
}
layer {
  name: "conv4_11_1x1_reduce/relu"
  type: "ReLU"
  bottom: "conv4_11_1x1_reduce"
  top: "conv4_11_1x1_reduce"
}
layer {
  name: "conv4_11_3x3"
  type: "Convolution"
  bottom: "conv4_11_1x1_reduce"
  top: "conv4_11_3x3"
  param {
    lr_mult: 1
    decay_mult: 1
  }
  convolution_param {
    num_output: 256
    pad: 2
    dilation: 2
    kernel_size: 3
    stride: 1
    weight_filler {
      type: "msra"
    }
    bias_term: false
  }
}
layer {
  name: "conv4_11_3x3/bn"
  type: "BN"
  bottom: "conv4_11_3x3"
  top: "conv4_11_3x3"
  param {
    lr_mult: 1
    decay_mult: 0
  }
  param {
    lr_mult: 1
    decay_mult: 0
  }
  param {
    lr_mult: 0
    decay_mult: 0
  }
  param {
    lr_mult: 0
    decay_mult: 0
  }
  bn_param {
    slope_filler {
      type: "constant"
      value: 1
    }
    bias_filler {
      type: "constant"
      value: 0
    }
    frozen: true
    momentum: 0.95
  }
}
layer {
  name: "conv4_11_3x3/relu"
  type: "ReLU"
  bottom: "conv4_11_3x3"
  top: "conv4_11_3x3"
}
layer {
  name: "conv4_11_1x1_increase"
  type: "Convolution"
  bottom: "conv4_11_3x3"
  top: "conv4_11_1x1_increase"
  param {
    lr_mult: 1
    decay_mult: 1
  }
  convolution_param {
    num_output: 1024
    pad: 0
    kernel_size: 1
    stride: 1
    weight_filler {
      type: "msra"
    }
    bias_term: false
  }
}
layer {
  name: "conv4_11_1x1_increase/bn"
  type: "BN"
  bottom: "conv4_11_1x1_increase"
  top: "conv4_11_1x1_increase"
  param {
    lr_mult: 1
    decay_mult: 0
  }
  param {
    lr_mult: 1
    decay_mult: 0
  }
  param {
    lr_mult: 0
    decay_mult: 0
  }
  param {
    lr_mult: 0
    decay_mult: 0
  }
  bn_param {
    slope_filler {
      type: "constant"
      value: 1
    }
    bias_filler {
      type: "constant"
      value: 0
    }
    frozen: true
    momentum: 0.95
  }
}
layer {
  name: "conv4_11"
  type: "Eltwise"
  bottom: "conv4_10"
  bottom: "conv4_11_1x1_increase"
  top: "conv4_11"
  eltwise_param {
    operation: SUM
  }
}
layer {
  name: "conv4_11/relu"
  type: "ReLU"
  bottom: "conv4_11"
  top: "conv4_11"
}
layer {
  name: "conv4_12_1x1_reduce"
  type: "Convolution"
  bottom: "conv4_11"
  top: "conv4_12_1x1_reduce"
  param {
    lr_mult: 1
    decay_mult: 1
  }
  convolution_param {
    num_output: 256
    pad: 0
    kernel_size: 1
    stride: 1
    weight_filler {
      type: "msra"
    }
    bias_term: false
  }
}
layer {
  name: "conv4_12_1x1_reduce/bn"
  type: "BN"
  bottom: "conv4_12_1x1_reduce"
  top: "conv4_12_1x1_reduce"
  param {
    lr_mult: 1
    decay_mult: 0
  }
  param {
    lr_mult: 1
    decay_mult: 0
  }
  param {
    lr_mult: 0
    decay_mult: 0
  }
  param {
    lr_mult: 0
    decay_mult: 0
  }
  bn_param {
    slope_filler {
      type: "constant"
      value: 1
    }
    bias_filler {
      type: "constant"
      value: 0
    }
    frozen: true
    momentum: 0.95
  }
}
layer {
  name: "conv4_12_1x1_reduce/relu"
  type: "ReLU"
  bottom: "conv4_12_1x1_reduce"
  top: "conv4_12_1x1_reduce"
}
layer {
  name: "conv4_12_3x3"
  type: "Convolution"
  bottom: "conv4_12_1x1_reduce"
  top: "conv4_12_3x3"
  param {
    lr_mult: 1
    decay_mult: 1
  }
  convolution_param {
    num_output: 256
    pad: 2
    dilation: 2
    kernel_size: 3
    stride: 1
    weight_filler {
      type: "msra"
    }
    bias_term: false
  }
}
layer {
  name: "conv4_12_3x3/bn"
  type: "BN"
  bottom: "conv4_12_3x3"
  top: "conv4_12_3x3"
  param {
    lr_mult: 1
    decay_mult: 0
  }
  param {
    lr_mult: 1
    decay_mult: 0
  }
  param {
    lr_mult: 0
    decay_mult: 0
  }
  param {
    lr_mult: 0
    decay_mult: 0
  }
  bn_param {
    slope_filler {
      type: "constant"
      value: 1
    }
    bias_filler {
      type: "constant"
      value: 0
    }
    frozen: true
    momentum: 0.95
  }
}
layer {
  name: "conv4_12_3x3/relu"
  type: "ReLU"
  bottom: "conv4_12_3x3"
  top: "conv4_12_3x3"
}
layer {
  name: "conv4_12_1x1_increase"
  type: "Convolution"
  bottom: "conv4_12_3x3"
  top: "conv4_12_1x1_increase"
  param {
    lr_mult: 1
    decay_mult: 1
  }
  convolution_param {
    num_output: 1024
    pad: 0
    kernel_size: 1
    stride: 1
    weight_filler {
      type: "msra"
    }
    bias_term: false
  }
}
layer {
  name: "conv4_12_1x1_increase/bn"
  type: "BN"
  bottom: "conv4_12_1x1_increase"
  top: "conv4_12_1x1_increase"
  param {
    lr_mult: 1
    decay_mult: 0
  }
  param {
    lr_mult: 1
    decay_mult: 0
  }
  param {
    lr_mult: 0
    decay_mult: 0
  }
  param {
    lr_mult: 0
    decay_mult: 0
  }
  bn_param {
    slope_filler {
      type: "constant"
      value: 1
    }
    bias_filler {
      type: "constant"
      value: 0
    }
    frozen: true
    momentum: 0.95
  }
}
layer {
  name: "conv4_12"
  type: "Eltwise"
  bottom: "conv4_11"
  bottom: "conv4_12_1x1_increase"
  top: "conv4_12"
  eltwise_param {
    operation: SUM
  }
}
layer {
  name: "conv4_12/relu"
  type: "ReLU"
  bottom: "conv4_12"
  top: "conv4_12"
}
layer {
  name: "conv4_13_1x1_reduce"
  type: "Convolution"
  bottom: "conv4_12"
  top: "conv4_13_1x1_reduce"
  param {
    lr_mult: 1
    decay_mult: 1
  }
  convolution_param {
    num_output: 256
    pad: 0
    kernel_size: 1
    stride: 1
    weight_filler {
      type: "msra"
    }
    bias_term: false
  }
}
layer {
  name: "conv4_13_1x1_reduce/bn"
  type: "BN"
  bottom: "conv4_13_1x1_reduce"
  top: "conv4_13_1x1_reduce"
  param {
    lr_mult: 1
    decay_mult: 0
  }
  param {
    lr_mult: 1
    decay_mult: 0
  }
  param {
    lr_mult: 0
    decay_mult: 0
  }
  param {
    lr_mult: 0
    decay_mult: 0
  }
  bn_param {
    slope_filler {
      type: "constant"
      value: 1
    }
    bias_filler {
      type: "constant"
      value: 0
    }
    frozen: true
    momentum: 0.95
  }
}
layer {
  name: "conv4_13_1x1_reduce/relu"
  type: "ReLU"
  bottom: "conv4_13_1x1_reduce"
  top: "conv4_13_1x1_reduce"
}
layer {
  name: "conv4_13_3x3"
  type: "Convolution"
  bottom: "conv4_13_1x1_reduce"
  top: "conv4_13_3x3"
  param {
    lr_mult: 1
    decay_mult: 1
  }
  convolution_param {
    num_output: 256
    pad: 2
    dilation: 2
    kernel_size: 3
    stride: 1
    weight_filler {
      type: "msra"
    }
    bias_term: false
  }
}
layer {
  name: "conv4_13_3x3/bn"
  type: "BN"
  bottom: "conv4_13_3x3"
  top: "conv4_13_3x3"
  param {
    lr_mult: 1
    decay_mult: 0
  }
  param {
    lr_mult: 1
    decay_mult: 0
  }
  param {
    lr_mult: 0
    decay_mult: 0
  }
  param {
    lr_mult: 0
    decay_mult: 0
  }
  bn_param {
    slope_filler {
      type: "constant"
      value: 1
    }
    bias_filler {
      type: "constant"
      value: 0
    }
    frozen: true
    momentum: 0.95
  }
}
layer {
  name: "conv4_13_3x3/relu"
  type: "ReLU"
  bottom: "conv4_13_3x3"
  top: "conv4_13_3x3"
}
layer {
  name: "conv4_13_1x1_increase"
  type: "Convolution"
  bottom: "conv4_13_3x3"
  top: "conv4_13_1x1_increase"
  param {
    lr_mult: 1
    decay_mult: 1
  }
  convolution_param {
    num_output: 1024
    pad: 0
    kernel_size: 1
    stride: 1
    weight_filler {
      type: "msra"
    }
    bias_term: false
  }
}
layer {
  name: "conv4_13_1x1_increase/bn"
  type: "BN"
  bottom: "conv4_13_1x1_increase"
  top: "conv4_13_1x1_increase"
  param {
    lr_mult: 1
    decay_mult: 0
  }
  param {
    lr_mult: 1
    decay_mult: 0
  }
  param {
    lr_mult: 0
    decay_mult: 0
  }
  param {
    lr_mult: 0
    decay_mult: 0
  }
  bn_param {
    slope_filler {
      type: "constant"
      value: 1
    }
    bias_filler {
      type: "constant"
      value: 0
    }
    frozen: true
    momentum: 0.95
  }
}
layer {
  name: "conv4_13"
  type: "Eltwise"
  bottom: "conv4_12"
  bottom: "conv4_13_1x1_increase"
  top: "conv4_13"
  eltwise_param {
    operation: SUM
  }
}
layer {
  name: "conv4_13/relu"
  type: "ReLU"
  bottom: "conv4_13"
  top: "conv4_13"
}
layer {
  name: "conv4_14_1x1_reduce"
  type: "Convolution"
  bottom: "conv4_13"
  top: "conv4_14_1x1_reduce"
  param {
    lr_mult: 1
    decay_mult: 1
  }
  convolution_param {
    num_output: 256
    pad: 0
    kernel_size: 1
    stride: 1
    weight_filler {
      type: "msra"
    }
    bias_term: false
  }
}
layer {
  name: "conv4_14_1x1_reduce/bn"
  type: "BN"
  bottom: "conv4_14_1x1_reduce"
  top: "conv4_14_1x1_reduce"
  param {
    lr_mult: 1
    decay_mult: 0
  }
  param {
    lr_mult: 1
    decay_mult: 0
  }
  param {
    lr_mult: 0
    decay_mult: 0
  }
  param {
    lr_mult: 0
    decay_mult: 0
  }
  bn_param {
    slope_filler {
      type: "constant"
      value: 1
    }
    bias_filler {
      type: "constant"
      value: 0
    }
    frozen: true
    momentum: 0.95
  }
}
layer {
  name: "conv4_14_1x1_reduce/relu"
  type: "ReLU"
  bottom: "conv4_14_1x1_reduce"
  top: "conv4_14_1x1_reduce"
}
layer {
  name: "conv4_14_3x3"
  type: "Convolution"
  bottom: "conv4_14_1x1_reduce"
  top: "conv4_14_3x3"
  param {
    lr_mult: 1
    decay_mult: 1
  }
  convolution_param {
    num_output: 256
    pad: 2
    dilation: 2
    kernel_size: 3
    stride: 1
    weight_filler {
      type: "msra"
    }
    bias_term: false
  }
}
layer {
  name: "conv4_14_3x3/bn"
  type: "BN"
  bottom: "conv4_14_3x3"
  top: "conv4_14_3x3"
  param {
    lr_mult: 1
    decay_mult: 0
  }
  param {
    lr_mult: 1
    decay_mult: 0
  }
  param {
    lr_mult: 0
    decay_mult: 0
  }
  param {
    lr_mult: 0
    decay_mult: 0
  }
  bn_param {
    slope_filler {
      type: "constant"
      value: 1
    }
    bias_filler {
      type: "constant"
      value: 0
    }
    frozen: true
    momentum: 0.95
  }
}
layer {
  name: "conv4_14_3x3/relu"
  type: "ReLU"
  bottom: "conv4_14_3x3"
  top: "conv4_14_3x3"
}
layer {
  name: "conv4_14_1x1_increase"
  type: "Convolution"
  bottom: "conv4_14_3x3"
  top: "conv4_14_1x1_increase"
  param {
    lr_mult: 1
    decay_mult: 1
  }
  convolution_param {
    num_output: 1024
    pad: 0
    kernel_size: 1
    stride: 1
    weight_filler {
      type: "msra"
    }
    bias_term: false
  }
}
layer {
  name: "conv4_14_1x1_increase/bn"
  type: "BN"
  bottom: "conv4_14_1x1_increase"
  top: "conv4_14_1x1_increase"
  param {
    lr_mult: 1
    decay_mult: 0
  }
  param {
    lr_mult: 1
    decay_mult: 0
  }
  param {
    lr_mult: 0
    decay_mult: 0
  }
  param {
    lr_mult: 0
    decay_mult: 0
  }
  bn_param {
    slope_filler {
      type: "constant"
      value: 1
    }
    bias_filler {
      type: "constant"
      value: 0
    }
    frozen: true
    momentum: 0.95
  }
}
layer {
  name: "conv4_14"
  type: "Eltwise"
  bottom: "conv4_13"
  bottom: "conv4_14_1x1_increase"
  top: "conv4_14"
  eltwise_param {
    operation: SUM
  }
}
layer {
  name: "conv4_14/relu"
  type: "ReLU"
  bottom: "conv4_14"
  top: "conv4_14"
}
layer {
  name: "conv4_15_1x1_reduce"
  type: "Convolution"
  bottom: "conv4_14"
  top: "conv4_15_1x1_reduce"
  param {
    lr_mult: 1
    decay_mult: 1
  }
  convolution_param {
    num_output: 256
    pad: 0
    kernel_size: 1
    stride: 1
    weight_filler {
      type: "msra"
    }
    bias_term: false
  }
}
layer {
  name: "conv4_15_1x1_reduce/bn"
  type: "BN"
  bottom: "conv4_15_1x1_reduce"
  top: "conv4_15_1x1_reduce"
  param {
    lr_mult: 1
    decay_mult: 0
  }
  param {
    lr_mult: 1
    decay_mult: 0
  }
  param {
    lr_mult: 0
    decay_mult: 0
  }
  param {
    lr_mult: 0
    decay_mult: 0
  }
  bn_param {
    slope_filler {
      type: "constant"
      value: 1
    }
    bias_filler {
      type: "constant"
      value: 0
    }
    frozen: true
    momentum: 0.95
  }
}
layer {
  name: "conv4_15_1x1_reduce/relu"
  type: "ReLU"
  bottom: "conv4_15_1x1_reduce"
  top: "conv4_15_1x1_reduce"
}
layer {
  name: "conv4_15_3x3"
  type: "Convolution"
  bottom: "conv4_15_1x1_reduce"
  top: "conv4_15_3x3"
  param {
    lr_mult: 1
    decay_mult: 1
  }
  convolution_param {
    num_output: 256
    pad: 2
    dilation: 2
    kernel_size: 3
    stride: 1
    weight_filler {
      type: "msra"
    }
    bias_term: false
  }
}
layer {
  name: "conv4_15_3x3/bn"
  type: "BN"
  bottom: "conv4_15_3x3"
  top: "conv4_15_3x3"
  param {
    lr_mult: 1
    decay_mult: 0
  }
  param {
    lr_mult: 1
    decay_mult: 0
  }
  param {
    lr_mult: 0
    decay_mult: 0
  }
  param {
    lr_mult: 0
    decay_mult: 0
  }
  bn_param {
    slope_filler {
      type: "constant"
      value: 1
    }
    bias_filler {
      type: "constant"
      value: 0
    }
    frozen: true
    momentum: 0.95
  }
}
layer {
  name: "conv4_15_3x3/relu"
  type: "ReLU"
  bottom: "conv4_15_3x3"
  top: "conv4_15_3x3"
}
layer {
  name: "conv4_15_1x1_increase"
  type: "Convolution"
  bottom: "conv4_15_3x3"
  top: "conv4_15_1x1_increase"
  param {
    lr_mult: 1
    decay_mult: 1
  }
  convolution_param {
    num_output: 1024
    pad: 0
    kernel_size: 1
    stride: 1
    weight_filler {
      type: "msra"
    }
    bias_term: false
  }
}
layer {
  name: "conv4_15_1x1_increase/bn"
  type: "BN"
  bottom: "conv4_15_1x1_increase"
  top: "conv4_15_1x1_increase"
  param {
    lr_mult: 1
    decay_mult: 0
  }
  param {
    lr_mult: 1
    decay_mult: 0
  }
  param {
    lr_mult: 0
    decay_mult: 0
  }
  param {
    lr_mult: 0
    decay_mult: 0
  }
  bn_param {
    slope_filler {
      type: "constant"
      value: 1
    }
    bias_filler {
      type: "constant"
      value: 0
    }
    frozen: true
    momentum: 0.95
  }
}
layer {
  name: "conv4_15"
  type: "Eltwise"
  bottom: "conv4_14"
  bottom: "conv4_15_1x1_increase"
  top: "conv4_15"
  eltwise_param {
    operation: SUM
  }
}
layer {
  name: "conv4_15/relu"
  type: "ReLU"
  bottom: "conv4_15"
  top: "conv4_15"
}
layer {
  name: "conv4_16_1x1_reduce"
  type: "Convolution"
  bottom: "conv4_15"
  top: "conv4_16_1x1_reduce"
  param {
    lr_mult: 1
    decay_mult: 1
  }
  convolution_param {
    num_output: 256
    pad: 0
    kernel_size: 1
    stride: 1
    weight_filler {
      type: "msra"
    }
    bias_term: false
  }
}
layer {
  name: "conv4_16_1x1_reduce/bn"
  type: "BN"
  bottom: "conv4_16_1x1_reduce"
  top: "conv4_16_1x1_reduce"
  param {
    lr_mult: 1
    decay_mult: 0
  }
  param {
    lr_mult: 1
    decay_mult: 0
  }
  param {
    lr_mult: 0
    decay_mult: 0
  }
  param {
    lr_mult: 0
    decay_mult: 0
  }
  bn_param {
    slope_filler {
      type: "constant"
      value: 1
    }
    bias_filler {
      type: "constant"
      value: 0
    }
    frozen: true
    momentum: 0.95
  }
}
layer {
  name: "conv4_16_1x1_reduce/relu"
  type: "ReLU"
  bottom: "conv4_16_1x1_reduce"
  top: "conv4_16_1x1_reduce"
}
layer {
  name: "conv4_16_3x3"
  type: "Convolution"
  bottom: "conv4_16_1x1_reduce"
  top: "conv4_16_3x3"
  param {
    lr_mult: 1
    decay_mult: 1
  }
  convolution_param {
    num_output: 256
    pad: 2
    dilation: 2
    kernel_size: 3
    stride: 1
    weight_filler {
      type: "msra"
    }
    bias_term: false
  }
}
layer {
  name: "conv4_16_3x3/bn"
  type: "BN"
  bottom: "conv4_16_3x3"
  top: "conv4_16_3x3"
  param {
    lr_mult: 1
    decay_mult: 0
  }
  param {
    lr_mult: 1
    decay_mult: 0
  }
  param {
    lr_mult: 0
    decay_mult: 0
  }
  param {
    lr_mult: 0
    decay_mult: 0
  }
  bn_param {
    slope_filler {
      type: "constant"
      value: 1
    }
    bias_filler {
      type: "constant"
      value: 0
    }
    frozen: true
    momentum: 0.95
  }
}
layer {
  name: "conv4_16_3x3/relu"
  type: "ReLU"
  bottom: "conv4_16_3x3"
  top: "conv4_16_3x3"
}
layer {
  name: "conv4_16_1x1_increase"
  type: "Convolution"
  bottom: "conv4_16_3x3"
  top: "conv4_16_1x1_increase"
  param {
    lr_mult: 1
    decay_mult: 1
  }
  convolution_param {
    num_output: 1024
    pad: 0
    kernel_size: 1
    stride: 1
    weight_filler {
      type: "msra"
    }
    bias_term: false
  }
}
layer {
  name: "conv4_16_1x1_increase/bn"
  type: "BN"
  bottom: "conv4_16_1x1_increase"
  top: "conv4_16_1x1_increase"
  param {
    lr_mult: 1
    decay_mult: 0
  }
  param {
    lr_mult: 1
    decay_mult: 0
  }
  param {
    lr_mult: 0
    decay_mult: 0
  }
  param {
    lr_mult: 0
    decay_mult: 0
  }
  bn_param {
    slope_filler {
      type: "constant"
      value: 1
    }
    bias_filler {
      type: "constant"
      value: 0
    }
    frozen: true
    momentum: 0.95
  }
}
layer {
  name: "conv4_16"
  type: "Eltwise"
  bottom: "conv4_15"
  bottom: "conv4_16_1x1_increase"
  top: "conv4_16"
  eltwise_param {
    operation: SUM
  }
}
layer {
  name: "conv4_16/relu"
  type: "ReLU"
  bottom: "conv4_16"
  top: "conv4_16"
}
layer {
  name: "conv4_17_1x1_reduce"
  type: "Convolution"
  bottom: "conv4_16"
  top: "conv4_17_1x1_reduce"
  param {
    lr_mult: 1
    decay_mult: 1
  }
  convolution_param {
    num_output: 256
    pad: 0
    kernel_size: 1
    stride: 1
    weight_filler {
      type: "msra"
    }
    bias_term: false
  }
}
layer {
  name: "conv4_17_1x1_reduce/bn"
  type: "BN"
  bottom: "conv4_17_1x1_reduce"
  top: "conv4_17_1x1_reduce"
  param {
    lr_mult: 1
    decay_mult: 0
  }
  param {
    lr_mult: 1
    decay_mult: 0
  }
  param {
    lr_mult: 0
    decay_mult: 0
  }
  param {
    lr_mult: 0
    decay_mult: 0
  }
  bn_param {
    slope_filler {
      type: "constant"
      value: 1
    }
    bias_filler {
      type: "constant"
      value: 0
    }
    frozen: true
    momentum: 0.95
  }
}
layer {
  name: "conv4_17_1x1_reduce/relu"
  type: "ReLU"
  bottom: "conv4_17_1x1_reduce"
  top: "conv4_17_1x1_reduce"
}
layer {
  name: "conv4_17_3x3"
  type: "Convolution"
  bottom: "conv4_17_1x1_reduce"
  top: "conv4_17_3x3"
  param {
    lr_mult: 1
    decay_mult: 1
  }
  convolution_param {
    num_output: 256
    pad: 2
    dilation: 2
    kernel_size: 3
    stride: 1
    weight_filler {
      type: "msra"
    }
    bias_term: false
  }
}
layer {
  name: "conv4_17_3x3/bn"
  type: "BN"
  bottom: "conv4_17_3x3"
  top: "conv4_17_3x3"
  param {
    lr_mult: 1
    decay_mult: 0
  }
  param {
    lr_mult: 1
    decay_mult: 0
  }
  param {
    lr_mult: 0
    decay_mult: 0
  }
  param {
    lr_mult: 0
    decay_mult: 0
  }
  bn_param {
    slope_filler {
      type: "constant"
      value: 1
    }
    bias_filler {
      type: "constant"
      value: 0
    }
    frozen: true
    momentum: 0.95
  }
}
layer {
  name: "conv4_17_3x3/relu"
  type: "ReLU"
  bottom: "conv4_17_3x3"
  top: "conv4_17_3x3"
}
layer {
  name: "conv4_17_1x1_increase"
  type: "Convolution"
  bottom: "conv4_17_3x3"
  top: "conv4_17_1x1_increase"
  param {
    lr_mult: 1
    decay_mult: 1
  }
  convolution_param {
    num_output: 1024
    pad: 0
    kernel_size: 1
    stride: 1
    weight_filler {
      type: "msra"
    }
    bias_term: false
  }
}
layer {
  name: "conv4_17_1x1_increase/bn"
  type: "BN"
  bottom: "conv4_17_1x1_increase"
  top: "conv4_17_1x1_increase"
  param {
    lr_mult: 1
    decay_mult: 0
  }
  param {
    lr_mult: 1
    decay_mult: 0
  }
  param {
    lr_mult: 0
    decay_mult: 0
  }
  param {
    lr_mult: 0
    decay_mult: 0
  }
  bn_param {
    slope_filler {
      type: "constant"
      value: 1
    }
    bias_filler {
      type: "constant"
      value: 0
    }
    frozen: true
    momentum: 0.95
  }
}
layer {
  name: "conv4_17"
  type: "Eltwise"
  bottom: "conv4_16"
  bottom: "conv4_17_1x1_increase"
  top: "conv4_17"
  eltwise_param {
    operation: SUM
  }
}
layer {
  name: "conv4_17/relu"
  type: "ReLU"
  bottom: "conv4_17"
  top: "conv4_17"
}
layer {
  name: "conv4_18_1x1_reduce"
  type: "Convolution"
  bottom: "conv4_17"
  top: "conv4_18_1x1_reduce"
  param {
    lr_mult: 1
    decay_mult: 1
  }
  convolution_param {
    num_output: 256
    pad: 0
    kernel_size: 1
    stride: 1
    weight_filler {
      type: "msra"
    }
    bias_term: false
  }
}
layer {
  name: "conv4_18_1x1_reduce/bn"
  type: "BN"
  bottom: "conv4_18_1x1_reduce"
  top: "conv4_18_1x1_reduce"
  param {
    lr_mult: 1
    decay_mult: 0
  }
  param {
    lr_mult: 1
    decay_mult: 0
  }
  param {
    lr_mult: 0
    decay_mult: 0
  }
  param {
    lr_mult: 0
    decay_mult: 0
  }
  bn_param {
    slope_filler {
      type: "constant"
      value: 1
    }
    bias_filler {
      type: "constant"
      value: 0
    }
    frozen: true
    momentum: 0.95
  }
}
layer {
  name: "conv4_18_1x1_reduce/relu"
  type: "ReLU"
  bottom: "conv4_18_1x1_reduce"
  top: "conv4_18_1x1_reduce"
}
layer {
  name: "conv4_18_3x3"
  type: "Convolution"
  bottom: "conv4_18_1x1_reduce"
  top: "conv4_18_3x3"
  param {
    lr_mult: 1
    decay_mult: 1
  }
  convolution_param {
    num_output: 256
    pad: 2
    dilation: 2
    kernel_size: 3
    stride: 1
    weight_filler {
      type: "msra"
    }
    bias_term: false
  }
}
layer {
  name: "conv4_18_3x3/bn"
  type: "BN"
  bottom: "conv4_18_3x3"
  top: "conv4_18_3x3"
  param {
    lr_mult: 1
    decay_mult: 0
  }
  param {
    lr_mult: 1
    decay_mult: 0
  }
  param {
    lr_mult: 0
    decay_mult: 0
  }
  param {
    lr_mult: 0
    decay_mult: 0
  }
  bn_param {
    slope_filler {
      type: "constant"
      value: 1
    }
    bias_filler {
      type: "constant"
      value: 0
    }
    frozen: true
    momentum: 0.95
  }
}
layer {
  name: "conv4_18_3x3/relu"
  type: "ReLU"
  bottom: "conv4_18_3x3"
  top: "conv4_18_3x3"
}
layer {
  name: "conv4_18_1x1_increase"
  type: "Convolution"
  bottom: "conv4_18_3x3"
  top: "conv4_18_1x1_increase"
  param {
    lr_mult: 1
    decay_mult: 1
  }
  convolution_param {
    num_output: 1024
    pad: 0
    kernel_size: 1
    stride: 1
    weight_filler {
      type: "msra"
    }
    bias_term: false
  }
}
layer {
  name: "conv4_18_1x1_increase/bn"
  type: "BN"
  bottom: "conv4_18_1x1_increase"
  top: "conv4_18_1x1_increase"
  param {
    lr_mult: 1
    decay_mult: 0
  }
  param {
    lr_mult: 1
    decay_mult: 0
  }
  param {
    lr_mult: 0
    decay_mult: 0
  }
  param {
    lr_mult: 0
    decay_mult: 0
  }
  bn_param {
    slope_filler {
      type: "constant"
      value: 1
    }
    bias_filler {
      type: "constant"
      value: 0
    }
    frozen: true
    momentum: 0.95
  }
}
layer {
  name: "conv4_18"
  type: "Eltwise"
  bottom: "conv4_17"
  bottom: "conv4_18_1x1_increase"
  top: "conv4_18"
  eltwise_param {
    operation: SUM
  }
}
layer {
  name: "conv4_18/relu"
  type: "ReLU"
  bottom: "conv4_18"
  top: "conv4_18"
}
layer {
  name: "conv4_19_1x1_reduce"
  type: "Convolution"
  bottom: "conv4_18"
  top: "conv4_19_1x1_reduce"
  param {
    lr_mult: 1
    decay_mult: 1
  }
  convolution_param {
    num_output: 256
    pad: 0
    kernel_size: 1
    stride: 1
    weight_filler {
      type: "msra"
    }
    bias_term: false
  }
}
layer {
  name: "conv4_19_1x1_reduce/bn"
  type: "BN"
  bottom: "conv4_19_1x1_reduce"
  top: "conv4_19_1x1_reduce"
  param {
    lr_mult: 1
    decay_mult: 0
  }
  param {
    lr_mult: 1
    decay_mult: 0
  }
  param {
    lr_mult: 0
    decay_mult: 0
  }
  param {
    lr_mult: 0
    decay_mult: 0
  }
  bn_param {
    slope_filler {
      type: "constant"
      value: 1
    }
    bias_filler {
      type: "constant"
      value: 0
    }
    frozen: true
    momentum: 0.95
  }
}
layer {
  name: "conv4_19_1x1_reduce/relu"
  type: "ReLU"
  bottom: "conv4_19_1x1_reduce"
  top: "conv4_19_1x1_reduce"
}
layer {
  name: "conv4_19_3x3"
  type: "Convolution"
  bottom: "conv4_19_1x1_reduce"
  top: "conv4_19_3x3"
  param {
    lr_mult: 1
    decay_mult: 1
  }
  convolution_param {
    num_output: 256
    pad: 2
    dilation: 2
    kernel_size: 3
    stride: 1
    weight_filler {
      type: "msra"
    }
    bias_term: false
  }
}
layer {
  name: "conv4_19_3x3/bn"
  type: "BN"
  bottom: "conv4_19_3x3"
  top: "conv4_19_3x3"
  param {
    lr_mult: 1
    decay_mult: 0
  }
  param {
    lr_mult: 1
    decay_mult: 0
  }
  param {
    lr_mult: 0
    decay_mult: 0
  }
  param {
    lr_mult: 0
    decay_mult: 0
  }
  bn_param {
    slope_filler {
      type: "constant"
      value: 1
    }
    bias_filler {
      type: "constant"
      value: 0
    }
    frozen: true
    momentum: 0.95
  }
}
layer {
  name: "conv4_19_3x3/relu"
  type: "ReLU"
  bottom: "conv4_19_3x3"
  top: "conv4_19_3x3"
}
layer {
  name: "conv4_19_1x1_increase"
  type: "Convolution"
  bottom: "conv4_19_3x3"
  top: "conv4_19_1x1_increase"
  param {
    lr_mult: 1
    decay_mult: 1
  }
  convolution_param {
    num_output: 1024
    pad: 0
    kernel_size: 1
    stride: 1
    weight_filler {
      type: "msra"
    }
    bias_term: false
  }
}
layer {
  name: "conv4_19_1x1_increase/bn"
  type: "BN"
  bottom: "conv4_19_1x1_increase"
  top: "conv4_19_1x1_increase"
  param {
    lr_mult: 1
    decay_mult: 0
  }
  param {
    lr_mult: 1
    decay_mult: 0
  }
  param {
    lr_mult: 0
    decay_mult: 0
  }
  param {
    lr_mult: 0
    decay_mult: 0
  }
  bn_param {
    slope_filler {
      type: "constant"
      value: 1
    }
    bias_filler {
      type: "constant"
      value: 0
    }
    frozen: true
    momentum: 0.95
  }
}
layer {
  name: "conv4_19"
  type: "Eltwise"
  bottom: "conv4_18"
  bottom: "conv4_19_1x1_increase"
  top: "conv4_19"
  eltwise_param {
    operation: SUM
  }
}
layer {
  name: "conv4_19/relu"
  type: "ReLU"
  bottom: "conv4_19"
  top: "conv4_19"
}
layer {
  name: "conv4_20_1x1_reduce"
  type: "Convolution"
  bottom: "conv4_19"
  top: "conv4_20_1x1_reduce"
  param {
    lr_mult: 1
    decay_mult: 1
  }
  convolution_param {
    num_output: 256
    pad: 0
    kernel_size: 1
    stride: 1
    weight_filler {
      type: "msra"
    }
    bias_term: false
  }
}
layer {
  name: "conv4_20_1x1_reduce/bn"
  type: "BN"
  bottom: "conv4_20_1x1_reduce"
  top: "conv4_20_1x1_reduce"
  param {
    lr_mult: 1
    decay_mult: 0
  }
  param {
    lr_mult: 1
    decay_mult: 0
  }
  param {
    lr_mult: 0
    decay_mult: 0
  }
  param {
    lr_mult: 0
    decay_mult: 0
  }
  bn_param {
    slope_filler {
      type: "constant"
      value: 1
    }
    bias_filler {
      type: "constant"
      value: 0
    }
    frozen: true
    momentum: 0.95
  }
}
layer {
  name: "conv4_20_1x1_reduce/relu"
  type: "ReLU"
  bottom: "conv4_20_1x1_reduce"
  top: "conv4_20_1x1_reduce"
}
layer {
  name: "conv4_20_3x3"
  type: "Convolution"
  bottom: "conv4_20_1x1_reduce"
  top: "conv4_20_3x3"
  param {
    lr_mult: 1
    decay_mult: 1
  }
  convolution_param {
    num_output: 256
    pad: 2
    dilation: 2
    kernel_size: 3
    stride: 1
    weight_filler {
      type: "msra"
    }
    bias_term: false
  }
}
layer {
  name: "conv4_20_3x3/bn"
  type: "BN"
  bottom: "conv4_20_3x3"
  top: "conv4_20_3x3"
  param {
    lr_mult: 1
    decay_mult: 0
  }
  param {
    lr_mult: 1
    decay_mult: 0
  }
  param {
    lr_mult: 0
    decay_mult: 0
  }
  param {
    lr_mult: 0
    decay_mult: 0
  }
  bn_param {
    slope_filler {
      type: "constant"
      value: 1
    }
    bias_filler {
      type: "constant"
      value: 0
    }
    frozen: true
    momentum: 0.95
  }
}
layer {
  name: "conv4_20_3x3/relu"
  type: "ReLU"
  bottom: "conv4_20_3x3"
  top: "conv4_20_3x3"
}
layer {
  name: "conv4_20_1x1_increase"
  type: "Convolution"
  bottom: "conv4_20_3x3"
  top: "conv4_20_1x1_increase"
  param {
    lr_mult: 1
    decay_mult: 1
  }
  convolution_param {
    num_output: 1024
    pad: 0
    kernel_size: 1
    stride: 1
    weight_filler {
      type: "msra"
    }
    bias_term: false
  }
}
layer {
  name: "conv4_20_1x1_increase/bn"
  type: "BN"
  bottom: "conv4_20_1x1_increase"
  top: "conv4_20_1x1_increase"
  param {
    lr_mult: 1
    decay_mult: 0
  }
  param {
    lr_mult: 1
    decay_mult: 0
  }
  param {
    lr_mult: 0
    decay_mult: 0
  }
  param {
    lr_mult: 0
    decay_mult: 0
  }
  bn_param {
    slope_filler {
      type: "constant"
      value: 1
    }
    bias_filler {
      type: "constant"
      value: 0
    }
    frozen: true
    momentum: 0.95
  }
}
layer {
  name: "conv4_20"
  type: "Eltwise"
  bottom: "conv4_19"
  bottom: "conv4_20_1x1_increase"
  top: "conv4_20"
  eltwise_param {
    operation: SUM
  }
}
layer {
  name: "conv4_20/relu"
  type: "ReLU"
  bottom: "conv4_20"
  top: "conv4_20"
}
layer {
  name: "conv4_21_1x1_reduce"
  type: "Convolution"
  bottom: "conv4_20"
  top: "conv4_21_1x1_reduce"
  param {
    lr_mult: 1
    decay_mult: 1
  }
  convolution_param {
    num_output: 256
    pad: 0
    kernel_size: 1
    stride: 1
    weight_filler {
      type: "msra"
    }
    bias_term: false
  }
}
layer {
  name: "conv4_21_1x1_reduce/bn"
  type: "BN"
  bottom: "conv4_21_1x1_reduce"
  top: "conv4_21_1x1_reduce"
  param {
    lr_mult: 1
    decay_mult: 0
  }
  param {
    lr_mult: 1
    decay_mult: 0
  }
  param {
    lr_mult: 0
    decay_mult: 0
  }
  param {
    lr_mult: 0
    decay_mult: 0
  }
  bn_param {
    slope_filler {
      type: "constant"
      value: 1
    }
    bias_filler {
      type: "constant"
      value: 0
    }
    frozen: true
    momentum: 0.95
  }
}
layer {
  name: "conv4_21_1x1_reduce/relu"
  type: "ReLU"
  bottom: "conv4_21_1x1_reduce"
  top: "conv4_21_1x1_reduce"
}
layer {
  name: "conv4_21_3x3"
  type: "Convolution"
  bottom: "conv4_21_1x1_reduce"
  top: "conv4_21_3x3"
  param {
    lr_mult: 1
    decay_mult: 1
  }
  convolution_param {
    num_output: 256
    pad: 2
    dilation: 2
    kernel_size: 3
    stride: 1
    weight_filler {
      type: "msra"
    }
    bias_term: false
  }
}
layer {
  name: "conv4_21_3x3/bn"
  type: "BN"
  bottom: "conv4_21_3x3"
  top: "conv4_21_3x3"
  param {
    lr_mult: 1
    decay_mult: 0
  }
  param {
    lr_mult: 1
    decay_mult: 0
  }
  param {
    lr_mult: 0
    decay_mult: 0
  }
  param {
    lr_mult: 0
    decay_mult: 0
  }
  bn_param {
    slope_filler {
      type: "constant"
      value: 1
    }
    bias_filler {
      type: "constant"
      value: 0
    }
    frozen: true
    momentum: 0.95
  }
}
layer {
  name: "conv4_21_3x3/relu"
  type: "ReLU"
  bottom: "conv4_21_3x3"
  top: "conv4_21_3x3"
}
layer {
  name: "conv4_21_1x1_increase"
  type: "Convolution"
  bottom: "conv4_21_3x3"
  top: "conv4_21_1x1_increase"
  param {
    lr_mult: 1
    decay_mult: 1
  }
  convolution_param {
    num_output: 1024
    pad: 0
    kernel_size: 1
    stride: 1
    weight_filler {
      type: "msra"
    }
    bias_term: false
  }
}
layer {
  name: "conv4_21_1x1_increase/bn"
  type: "BN"
  bottom: "conv4_21_1x1_increase"
  top: "conv4_21_1x1_increase"
  param {
    lr_mult: 1
    decay_mult: 0
  }
  param {
    lr_mult: 1
    decay_mult: 0
  }
  param {
    lr_mult: 0
    decay_mult: 0
  }
  param {
    lr_mult: 0
    decay_mult: 0
  }
  bn_param {
    slope_filler {
      type: "constant"
      value: 1
    }
    bias_filler {
      type: "constant"
      value: 0
    }
    frozen: true
    momentum: 0.95
  }
}
layer {
  name: "conv4_21"
  type: "Eltwise"
  bottom: "conv4_20"
  bottom: "conv4_21_1x1_increase"
  top: "conv4_21"
  eltwise_param {
    operation: SUM
  }
}
layer {
  name: "conv4_21/relu"
  type: "ReLU"
  bottom: "conv4_21"
  top: "conv4_21"
}
layer {
  name: "conv4_22_1x1_reduce"
  type: "Convolution"
  bottom: "conv4_21"
  top: "conv4_22_1x1_reduce"
  param {
    lr_mult: 1
    decay_mult: 1
  }
  convolution_param {
    num_output: 256
    pad: 0
    kernel_size: 1
    stride: 1
    weight_filler {
      type: "msra"
    }
    bias_term: false
  }
}
layer {
  name: "conv4_22_1x1_reduce/bn"
  type: "BN"
  bottom: "conv4_22_1x1_reduce"
  top: "conv4_22_1x1_reduce"
  param {
    lr_mult: 1
    decay_mult: 0
  }
  param {
    lr_mult: 1
    decay_mult: 0
  }
  param {
    lr_mult: 0
    decay_mult: 0
  }
  param {
    lr_mult: 0
    decay_mult: 0
  }
  bn_param {
    slope_filler {
      type: "constant"
      value: 1
    }
    bias_filler {
      type: "constant"
      value: 0
    }
    frozen: true
    momentum: 0.95
  }
}
layer {
  name: "conv4_22_1x1_reduce/relu"
  type: "ReLU"
  bottom: "conv4_22_1x1_reduce"
  top: "conv4_22_1x1_reduce"
}
layer {
  name: "conv4_22_3x3"
  type: "Convolution"
  bottom: "conv4_22_1x1_reduce"
  top: "conv4_22_3x3"
  param {
    lr_mult: 1
    decay_mult: 1
  }
  convolution_param {
    num_output: 256
    pad: 2
    dilation: 2
    kernel_size: 3
    stride: 1
    weight_filler {
      type: "msra"
    }
    bias_term: false
  }
}
layer {
  name: "conv4_22_3x3/bn"
  type: "BN"
  bottom: "conv4_22_3x3"
  top: "conv4_22_3x3"
  param {
    lr_mult: 1
    decay_mult: 0
  }
  param {
    lr_mult: 1
    decay_mult: 0
  }
  param {
    lr_mult: 0
    decay_mult: 0
  }
  param {
    lr_mult: 0
    decay_mult: 0
  }
  bn_param {
    slope_filler {
      type: "constant"
      value: 1
    }
    bias_filler {
      type: "constant"
      value: 0
    }
    frozen: true
    momentum: 0.95
  }
}
layer {
  name: "conv4_22_3x3/relu"
  type: "ReLU"
  bottom: "conv4_22_3x3"
  top: "conv4_22_3x3"
}
layer {
  name: "conv4_22_1x1_increase"
  type: "Convolution"
  bottom: "conv4_22_3x3"
  top: "conv4_22_1x1_increase"
  param {
    lr_mult: 1
    decay_mult: 1
  }
  convolution_param {
    num_output: 1024
    pad: 0
    kernel_size: 1
    stride: 1
    weight_filler {
      type: "msra"
    }
    bias_term: false
  }
}
layer {
  name: "conv4_22_1x1_increase/bn"
  type: "BN"
  bottom: "conv4_22_1x1_increase"
  top: "conv4_22_1x1_increase"
  param {
    lr_mult: 1
    decay_mult: 0
  }
  param {
    lr_mult: 1
    decay_mult: 0
  }
  param {
    lr_mult: 0
    decay_mult: 0
  }
  param {
    lr_mult: 0
    decay_mult: 0
  }
  bn_param {
    slope_filler {
      type: "constant"
      value: 1
    }
    bias_filler {
      type: "constant"
      value: 0
    }
    frozen: true
    momentum: 0.95
  }
}
layer {
  name: "conv4_22"
  type: "Eltwise"
  bottom: "conv4_21"
  bottom: "conv4_22_1x1_increase"
  top: "conv4_22"
  eltwise_param {
    operation: SUM
  }
}
layer {
  name: "conv4_22/relu"
  type: "ReLU"
  bottom: "conv4_22"
  top: "conv4_22"
}
layer {
  name: "conv4_23_1x1_reduce"
  type: "Convolution"
  bottom: "conv4_22"
  top: "conv4_23_1x1_reduce"
  param {
    lr_mult: 1
    decay_mult: 1
  }
  convolution_param {
    num_output: 256
    pad: 0
    kernel_size: 1
    stride: 1
    weight_filler {
      type: "msra"
    }
    bias_term: false
  }
}
layer {
  name: "conv4_23_1x1_reduce/bn"
  type: "BN"
  bottom: "conv4_23_1x1_reduce"
  top: "conv4_23_1x1_reduce"
  param {
    lr_mult: 1
    decay_mult: 0
  }
  param {
    lr_mult: 1
    decay_mult: 0
  }
  param {
    lr_mult: 0
    decay_mult: 0
  }
  param {
    lr_mult: 0
    decay_mult: 0
  }
  bn_param {
    slope_filler {
      type: "constant"
      value: 1
    }
    bias_filler {
      type: "constant"
      value: 0
    }
    frozen: true
    momentum: 0.95
  }
}
layer {
  name: "conv4_23_1x1_reduce/relu"
  type: "ReLU"
  bottom: "conv4_23_1x1_reduce"
  top: "conv4_23_1x1_reduce"
}
layer {
  name: "conv4_23_3x3"
  type: "Convolution"
  bottom: "conv4_23_1x1_reduce"
  top: "conv4_23_3x3"
  param {
    lr_mult: 1
    decay_mult: 1
  }
  convolution_param {
    num_output: 256
    pad: 2
    dilation: 2
    kernel_size: 3
    stride: 1
    weight_filler {
      type: "msra"
    }
    bias_term: false
  }
}
layer {
  name: "conv4_23_3x3/bn"
  type: "BN"
  bottom: "conv4_23_3x3"
  top: "conv4_23_3x3"
  param {
    lr_mult: 1
    decay_mult: 0
  }
  param {
    lr_mult: 1
    decay_mult: 0
  }
  param {
    lr_mult: 0
    decay_mult: 0
  }
  param {
    lr_mult: 0
    decay_mult: 0
  }
  bn_param {
    slope_filler {
      type: "constant"
      value: 1
    }
    bias_filler {
      type: "constant"
      value: 0
    }
    frozen: true
    momentum: 0.95
  }
}
layer {
  name: "conv4_23_3x3/relu"
  type: "ReLU"
  bottom: "conv4_23_3x3"
  top: "conv4_23_3x3"
}
layer {
  name: "conv4_23_1x1_increase"
  type: "Convolution"
  bottom: "conv4_23_3x3"
  top: "conv4_23_1x1_increase"
  param {
    lr_mult: 1
    decay_mult: 1
  }
  convolution_param {
    num_output: 1024
    pad: 0
    kernel_size: 1
    stride: 1
    weight_filler {
      type: "msra"
    }
    bias_term: false
  }
}
layer {
  name: "conv4_23_1x1_increase/bn"
  type: "BN"
  bottom: "conv4_23_1x1_increase"
  top: "conv4_23_1x1_increase"
  param {
    lr_mult: 1
    decay_mult: 0
  }
  param {
    lr_mult: 1
    decay_mult: 0
  }
  param {
    lr_mult: 0
    decay_mult: 0
  }
  param {
    lr_mult: 0
    decay_mult: 0
  }
  bn_param {
    slope_filler {
      type: "constant"
      value: 1
    }
    bias_filler {
      type: "constant"
      value: 0
    }
    frozen: true
    momentum: 0.95
  }
}
layer {
  name: "conv4_23"
  type: "Eltwise"
  bottom: "conv4_22"
  bottom: "conv4_23_1x1_increase"
  top: "conv4_23"
  eltwise_param {
    operation: SUM
  }
}
layer {
  name: "conv4_23/relu"
  type: "ReLU"
  bottom: "conv4_23"
  top: "conv4_23"
}
layer {
  name: "conv5_1_1x1_reduce"
  type: "Convolution"
  bottom: "conv4_23"
  top: "conv5_1_1x1_reduce"
  param {
    lr_mult: 1
    decay_mult: 1
  }
  convolution_param {
    num_output: 512
    pad: 0
    kernel_size: 1
    stride: 1
    weight_filler {
      type: "msra"
    }
    bias_term: false
  }
}
layer {
  name: "conv5_1_1x1_reduce/bn"
  type: "BN"
  bottom: "conv5_1_1x1_reduce"
  top: "conv5_1_1x1_reduce"
  param {
    lr_mult: 1
    decay_mult: 0
  }
  param {
    lr_mult: 1
    decay_mult: 0
  }
  param {
    lr_mult: 0
    decay_mult: 0
  }
  param {
    lr_mult: 0
    decay_mult: 0
  }
  bn_param {
    slope_filler {
      type: "constant"
      value: 1
    }
    bias_filler {
      type: "constant"
      value: 0
    }
    frozen: true
    momentum: 0.95
  }
}
layer {
  name: "conv5_1_1x1_reduce/relu"
  type: "ReLU"
  bottom: "conv5_1_1x1_reduce"
  top: "conv5_1_1x1_reduce"
}
layer {
  name: "conv5_1_3x3"
  type: "Convolution"
  bottom: "conv5_1_1x1_reduce"
  top: "conv5_1_3x3"
  param {
    lr_mult: 1
    decay_mult: 1
  }
  convolution_param {
    num_output: 512
    pad: 4
    dilation: 4
    kernel_size: 3
    stride: 1
    weight_filler {
      type: "msra"
    }
    bias_term: false
  }
}
layer {
  name: "conv5_1_3x3/bn"
  type: "BN"
  bottom: "conv5_1_3x3"
  top: "conv5_1_3x3"
  param {
    lr_mult: 1
    decay_mult: 0
  }
  param {
    lr_mult: 1
    decay_mult: 0
  }
  param {
    lr_mult: 0
    decay_mult: 0
  }
  param {
    lr_mult: 0
    decay_mult: 0
  }
  bn_param {
    slope_filler {
      type: "constant"
      value: 1
    }
    bias_filler {
      type: "constant"
      value: 0
    }
    frozen: true
    momentum: 0.95
  }
}
layer {
  name: "conv5_1_3x3/relu"
  type: "ReLU"
  bottom: "conv5_1_3x3"
  top: "conv5_1_3x3"
}
layer {
  name: "conv5_1_1x1_increase"
  type: "Convolution"
  bottom: "conv5_1_3x3"
  top: "conv5_1_1x1_increase"
  param {
    lr_mult: 1
    decay_mult: 1
  }
  convolution_param {
    num_output: 2048
    pad: 0
    kernel_size: 1
    stride: 1
    weight_filler {
      type: "msra"
    }
    bias_term: false
  }
}
layer {
  name: "conv5_1_1x1_increase/bn"
  type: "BN"
  bottom: "conv5_1_1x1_increase"
  top: "conv5_1_1x1_increase"
  param {
    lr_mult: 1
    decay_mult: 0
  }
  param {
    lr_mult: 1
    decay_mult: 0
  }
  param {
    lr_mult: 0
    decay_mult: 0
  }
  param {
    lr_mult: 0
    decay_mult: 0
  }
  bn_param {
    slope_filler {
      type: "constant"
      value: 1
    }
    bias_filler {
      type: "constant"
      value: 0
    }
    frozen: true
    momentum: 0.95
  }
}
layer {
  name: "conv5_1_1x1_proj"
  type: "Convolution"
  bottom: "conv4_23"
  top: "conv5_1_1x1_proj"
  param {
    lr_mult: 1
    decay_mult: 1
  }
  convolution_param {
    num_output: 2048
    pad: 0
    kernel_size: 1
    stride: 1
    weight_filler {
      type: "msra"
    }
    bias_term: false
  }
}
layer {
  name: "conv5_1_1x1_proj/bn"
  type: "BN"
  bottom: "conv5_1_1x1_proj"
  top: "conv5_1_1x1_proj"
  param {
    lr_mult: 1
    decay_mult: 0
  }
  param {
    lr_mult: 1
    decay_mult: 0
  }
  param {
    lr_mult: 0
    decay_mult: 0
  }
  param {
    lr_mult: 0
    decay_mult: 0
  }
  bn_param {
    slope_filler {
      type: "constant"
      value: 1
    }
    bias_filler {
      type: "constant"
      value: 0
    }
    frozen: true
    momentum: 0.95
  }
}
layer {
  name: "conv5_1"
  type: "Eltwise"
  bottom: "conv5_1_1x1_proj"
  bottom: "conv5_1_1x1_increase"
  top: "conv5_1"
  eltwise_param {
    operation: SUM
  }
}
layer {
  name: "conv5_1/relu"
  type: "ReLU"
  bottom: "conv5_1"
  top: "conv5_1"
}
layer {
  name: "conv5_2_1x1_reduce"
  type: "Convolution"
  bottom: "conv5_1"
  top: "conv5_2_1x1_reduce"
  param {
    lr_mult: 1
    decay_mult: 1
  }
  convolution_param {
    num_output: 512
    pad: 0
    kernel_size: 1
    stride: 1
    weight_filler {
      type: "msra"
    }
    bias_term: false
  }
}
layer {
  name: "conv5_2_1x1_reduce/bn"
  type: "BN"
  bottom: "conv5_2_1x1_reduce"
  top: "conv5_2_1x1_reduce"
  param {
    lr_mult: 1
    decay_mult: 0
  }
  param {
    lr_mult: 1
    decay_mult: 0
  }
  param {
    lr_mult: 0
    decay_mult: 0
  }
  param {
    lr_mult: 0
    decay_mult: 0
  }
  bn_param {
    slope_filler {
      type: "constant"
      value: 1
    }
    bias_filler {
      type: "constant"
      value: 0
    }
    frozen: true
    momentum: 0.95
  }
}
layer {
  name: "conv5_2_1x1_reduce/relu"
  type: "ReLU"
  bottom: "conv5_2_1x1_reduce"
  top: "conv5_2_1x1_reduce"
}
layer {
  name: "conv5_2_3x3"
  type: "Convolution"
  bottom: "conv5_2_1x1_reduce"
  top: "conv5_2_3x3"
  param {
    lr_mult: 1
    decay_mult: 1
  }
  convolution_param {
    num_output: 512
    pad: 4
    dilation: 4
    kernel_size: 3
    stride: 1
    weight_filler {
      type: "msra"
    }
    bias_term: false
  }
}
layer {
  name: "conv5_2_3x3/bn"
  type: "BN"
  bottom: "conv5_2_3x3"
  top: "conv5_2_3x3"
  param {
    lr_mult: 1
    decay_mult: 0
  }
  param {
    lr_mult: 1
    decay_mult: 0
  }
  param {
    lr_mult: 0
    decay_mult: 0
  }
  param {
    lr_mult: 0
    decay_mult: 0
  }
  bn_param {
    slope_filler {
      type: "constant"
      value: 1
    }
    bias_filler {
      type: "constant"
      value: 0
    }
    frozen: true
    momentum: 0.95
  }
}
layer {
  name: "conv5_2_3x3/relu"
  type: "ReLU"
  bottom: "conv5_2_3x3"
  top: "conv5_2_3x3"
}
layer {
  name: "conv5_2_1x1_increase"
  type: "Convolution"
  bottom: "conv5_2_3x3"
  top: "conv5_2_1x1_increase"
  param {
    lr_mult: 1
    decay_mult: 1
  }
  convolution_param {
    num_output: 2048
    pad: 0
    kernel_size: 1
    stride: 1
    weight_filler {
      type: "msra"
    }
    bias_term: false
  }
}
layer {
  name: "conv5_2_1x1_increase/bn"
  type: "BN"
  bottom: "conv5_2_1x1_increase"
  top: "conv5_2_1x1_increase"
  param {
    lr_mult: 1
    decay_mult: 0
  }
  param {
    lr_mult: 1
    decay_mult: 0
  }
  param {
    lr_mult: 0
    decay_mult: 0
  }
  param {
    lr_mult: 0
    decay_mult: 0
  }
  bn_param {
    slope_filler {
      type: "constant"
      value: 1
    }
    bias_filler {
      type: "constant"
      value: 0
    }
    frozen: true
    momentum: 0.95
  }
}
layer {
  name: "conv5_2"
  type: "Eltwise"
  bottom: "conv5_1"
  bottom: "conv5_2_1x1_increase"
  top: "conv5_2"
  eltwise_param {
    operation: SUM
  }
}
layer {
  name: "conv5_2/relu"
  type: "ReLU"
  bottom: "conv5_2"
  top: "conv5_2"
}
layer {
  name: "conv5_3_1x1_reduce"
  type: "Convolution"
  bottom: "conv5_2"
  top: "conv5_3_1x1_reduce"
  param {
    lr_mult: 1
    decay_mult: 1
  }
  convolution_param {
    num_output: 512
    pad: 0
    kernel_size: 1
    stride: 1
    weight_filler {
      type: "msra"
    }
    bias_term: false
  }
}
layer {
  name: "conv5_3_1x1_reduce/bn"
  type: "BN"
  bottom: "conv5_3_1x1_reduce"
  top: "conv5_3_1x1_reduce"
  param {
    lr_mult: 1
    decay_mult: 0
  }
  param {
    lr_mult: 1
    decay_mult: 0
  }
  param {
    lr_mult: 0
    decay_mult: 0
  }
  param {
    lr_mult: 0
    decay_mult: 0
  }
  bn_param {
    slope_filler {
      type: "constant"
      value: 1
    }
    bias_filler {
      type: "constant"
      value: 0
    }
    frozen: true
    momentum: 0.95
  }
}
layer {
  name: "conv5_3_1x1_reduce/relu"
  type: "ReLU"
  bottom: "conv5_3_1x1_reduce"
  top: "conv5_3_1x1_reduce"
}
layer {
  name: "conv5_3_3x3"
  type: "Convolution"
  bottom: "conv5_3_1x1_reduce"
  top: "conv5_3_3x3"
  param {
    lr_mult: 1
    decay_mult: 1
  }
  convolution_param {
    num_output: 512
    pad: 4
    dilation: 4
    kernel_size: 3
    stride: 1
    weight_filler {
      type: "msra"
    }
    bias_term: false
  }
}
layer {
  name: "conv5_3_3x3/bn"
  type: "BN"
  bottom: "conv5_3_3x3"
  top: "conv5_3_3x3"
  param {
    lr_mult: 1
    decay_mult: 0
  }
  param {
    lr_mult: 1
    decay_mult: 0
  }
  param {
    lr_mult: 0
    decay_mult: 0
  }
  param {
    lr_mult: 0
    decay_mult: 0
  }
  bn_param {
    slope_filler {
      type: "constant"
      value: 1
    }
    bias_filler {
      type: "constant"
      value: 0
    }
    frozen: true
    momentum: 0.95
  }
}
layer {
  name: "conv5_3_3x3/relu"
  type: "ReLU"
  bottom: "conv5_3_3x3"
  top: "conv5_3_3x3"
}
layer {
  name: "conv5_3_1x1_increase"
  type: "Convolution"
  bottom: "conv5_3_3x3"
  top: "conv5_3_1x1_increase"
  param {
    lr_mult: 1
    decay_mult: 1
  }
  convolution_param {
    num_output: 2048
    pad: 0
    kernel_size: 1
    stride: 1
    weight_filler {
      type: "msra"
    }
    bias_term: false
  }
}
layer {
  name: "conv5_3_1x1_increase/bn"
  type: "BN"
  bottom: "conv5_3_1x1_increase"
  top: "conv5_3_1x1_increase"
  param {
    lr_mult: 1
    decay_mult: 0
  }
  param {
    lr_mult: 1
    decay_mult: 0
  }
  param {
    lr_mult: 0
    decay_mult: 0
  }
  param {
    lr_mult: 0
    decay_mult: 0
  }
  bn_param {
    slope_filler {
      type: "constant"
      value: 1
    }
    bias_filler {
      type: "constant"
      value: 0
    }
    frozen: true
    momentum: 0.95
  }
}
layer {
  name: "conv5_3"
  type: "Eltwise"
  bottom: "conv5_2"
  bottom: "conv5_3_1x1_increase"
  top: "conv5_3"
  eltwise_param {
    operation: SUM
  }
}
layer {
  name: "conv5_3/relu"
  type: "ReLU"
  bottom: "conv5_3"
  top: "conv5_3"
}
layer {
  name: "conv5_4"
  type: "Convolution"
  bottom: "conv5_3"
  top: "conv5_4"
  param {
    lr_mult: 10
    decay_mult: 1
  }
  convolution_param {
    num_output: 512
    kernel_size: 3
    stride: 1
    pad: 1
    weight_filler {
      type: "msra"
    }
    bias_term: false
  }
}
layer {
  name: "conv5_4/bn"
  type: "BN"
  bottom: "conv5_4"
  top: "conv5_4"
  param {
    lr_mult: 10
    decay_mult: 0
  }
  param {
    lr_mult: 10
    decay_mult: 0
  }
  param {
    lr_mult: 0
    decay_mult: 0
  }
  param {
    lr_mult: 0
    decay_mult: 0
  }
  bn_param {
    slope_filler {
      type: "constant"
      value: 1
    }
    bias_filler {
      type: "constant"
      value: 0
    }
    frozen: true
    momentum: 0.95
  }
}
layer {
  name: "conv5_4/relu"
  type: "ReLU"
  bottom: "conv5_4"
  top: "conv5_4"
}
layer {
  name: "conv5_4/dropout"
  type: "Dropout"
  bottom: "conv5_4"
  top: "conv5_4"
  dropout_param {
    dropout_ratio: 0.1
  }
}
layer {
  name: "conv5_5"
  type: "Convolution"
  bottom: "conv5_4"
  top: "conv5_5"
  param {
    lr_mult: 10
    decay_mult: 1
  }
  convolution_param {
    num_output: 128
    kernel_size: 1
    stride: 1
    pad: 0
    weight_filler {
      type: "msra"
    }
    bias_term: false
  }
}
layer {
  name: "conv5_5/bn"
  type: "BN"
  bottom: "conv5_5"
  top: "conv5_5"
  param {
    lr_mult: 10
    decay_mult: 0
  }
  param {
    lr_mult: 10
    decay_mult: 0
  }
  param {
    lr_mult: 0
    decay_mult: 0
  }
  param {
    lr_mult: 0
    decay_mult: 0
  }
  bn_param {
    slope_filler {
      type: "constant"
      value: 1
    }
    bias_filler {
      type: "constant"
      value: 0
    }
    frozen: true
    momentum: 0.95
  }
}
layer {
  name: "conv5_5/relu"
  type: "ReLU"
  bottom: "conv5_5"
  top: "conv5_5"
}
layer {
  name: "Slice1"
  bottom: "conv5_5"
  type: "Slice"
  top: "slice1_1"
  top: "slice1_2"
  top: "slice1_3"
  top: "slice1_4"
  top: "slice1_5"
  top: "slice1_6"
  top: "slice1_7"
  top: "slice1_8"
  top: "slice1_9"
  top: "slice1_10"
  top: "slice1_11"
  top: "slice1_12"
  top: "slice1_13"
  top: "slice1_14"
  top: "slice1_15"
  top: "slice1_16"
  top: "slice1_17"
  top: "slice1_18"
  top: "slice1_19"
  top: "slice1_20"
  top: "slice1_21"
  top: "slice1_22"
  top: "slice1_23"
  top: "slice1_24"
  top: "slice1_25"
  top: "slice1_26"
  top: "slice1_27"
  top: "slice1_28"
  top: "slice1_29"
  top: "slice1_30"
  top: "slice1_31"
  top: "slice1_32"
  top: "slice1_33"
  top: "slice1_34"
  top: "slice1_35"
  top: "slice1_36"
  top: "slice1_37"
  top: "slice1_38"
  top: "slice1_39"
  top: "slice1_40"
  top: "slice1_41"
  top: "slice1_42"
  top: "slice1_43"
  top: "slice1_44"
  top: "slice1_45"
  top: "slice1_46"
  slice_param {
    axis: 2
    slice_point: 1
    slice_point: 2
    slice_point: 3
    slice_point: 4
    slice_point: 5
    slice_point: 6
    slice_point: 7
    slice_point: 8
    slice_point: 9
    slice_point: 10
    slice_point: 11
    slice_point: 12
    slice_point: 13
    slice_point: 14
    slice_point: 15
    slice_point: 16
    slice_point: 17
    slice_point: 18
    slice_point: 19
    slice_point: 20
    slice_point: 21
    slice_point: 22
    slice_point: 23
    slice_point: 24
    slice_point: 25
    slice_point: 26
    slice_point: 27
    slice_point: 28
    slice_point: 29
    slice_point: 30
    slice_point: 31
    slice_point: 32
    slice_point: 33
    slice_point: 34
    slice_point: 35
    slice_point: 36
    slice_point: 37
    slice_point: 38
    slice_point: 39
    slice_point: 40
    slice_point: 41
    slice_point: 42
    slice_point: 43
    slice_point: 44
    slice_point: 45
  }
}
layer {
  name: "SCNN_D_1"
  bottom: "slice1_1"
  top: "SCNN_D_1/message"
  type: "Convolution"
  param { 
    name: "SCNN_D_w"
    lr_mult: 1 
    decay_mult: 1 
  }
  convolution_param {
    num_output: 128
    kernel_h: 1
    kernel_w: 9
    pad_h: 0
    pad_w: 4
    stride: 1
    bias_term: false
    weight_filler { type: "gaussian" std: 0.01863 }
  }
}
layer {
  name: "SCNN_D_1/relu"
  bottom: "SCNN_D_1/message"
  top: "SCNN_D_1/message"
  type: "ReLU"
}
layer {
  name: "SCNN_D_1/sum"
  bottom: "SCNN_D_1/message"
  bottom: "slice1_2"
  top: "SCNN_D_2"
  type: "Eltwise"
  eltwise_param {
    operation: SUM
  }
}
layer {
  name: "SCNN_D_2"
  bottom: "SCNN_D_2"
  top: "SCNN_D_2/message"
  type: "Convolution"
  param { 
    name: "SCNN_D_w"
    lr_mult: 1 
    decay_mult: 1 
  }
  convolution_param {
    num_output: 128
    kernel_h: 1
    kernel_w: 9
    pad_h: 0
    pad_w: 4
    stride: 1
    bias_term: false
    weight_filler { type: "gaussian" std: 0.01863 }
  }
}
layer {
  name: "SCNN_D_2/relu"
  bottom: "SCNN_D_2/message"
  top: "SCNN_D_2/message"
  type: "ReLU"
}
layer {
  name: "SCNN_D_2/sum"
  bottom: "SCNN_D_2/message"
  bottom: "slice1_3"
  top: "SCNN_D_3"
  type: "Eltwise"
  eltwise_param {
    operation: SUM
  }
}
layer {
  name: "SCNN_D_3"
  bottom: "SCNN_D_3"
  top: "SCNN_D_3/message"
  type: "Convolution"
  param { 
    name: "SCNN_D_w"
    lr_mult: 1 
    decay_mult: 1 
  }
  convolution_param {
    num_output: 128
    kernel_h: 1
    kernel_w: 9
    pad_h: 0
    pad_w: 4
    stride: 1
    bias_term: false
    weight_filler { type: "gaussian" std: 0.01863 }
  }
}
layer {
  name: "SCNN_D_3/relu"
  bottom: "SCNN_D_3/message"
  top: "SCNN_D_3/message"
  type: "ReLU"
}
layer {
  name: "SCNN_D_3/sum"
  bottom: "SCNN_D_3/message"
  bottom: "slice1_4"
  top: "SCNN_D_4"
  type: "Eltwise"
  eltwise_param {
    operation: SUM
  }
}
layer {
  name: "SCNN_D_4"
  bottom: "SCNN_D_4"
  top: "SCNN_D_4/message"
  type: "Convolution"
  param { 
    name: "SCNN_D_w"
    lr_mult: 1 
    decay_mult: 1 
  }
  convolution_param {
    num_output: 128
    kernel_h: 1
    kernel_w: 9
    pad_h: 0
    pad_w: 4
    stride: 1
    bias_term: false
    weight_filler { type: "gaussian" std: 0.01863 }
  }
}
layer {
  name: "SCNN_D_4/relu"
  bottom: "SCNN_D_4/message"
  top: "SCNN_D_4/message"
  type: "ReLU"
}
layer {
  name: "SCNN_D_4/sum"
  bottom: "SCNN_D_4/message"
  bottom: "slice1_5"
  top: "SCNN_D_5"
  type: "Eltwise"
  eltwise_param {
    operation: SUM
  }
}
layer {
  name: "SCNN_D_5"
  bottom: "SCNN_D_5"
  top: "SCNN_D_5/message"
  type: "Convolution"
  param { 
    name: "SCNN_D_w"
    lr_mult: 1 
    decay_mult: 1 
  }
  convolution_param {
    num_output: 128
    kernel_h: 1
    kernel_w: 9
    pad_h: 0
    pad_w: 4
    stride: 1
    bias_term: false
    weight_filler { type: "gaussian" std: 0.01863 }
  }
}
layer {
  name: "SCNN_D_5/relu"
  bottom: "SCNN_D_5/message"
  top: "SCNN_D_5/message"
  type: "ReLU"
}
layer {
  name: "SCNN_D_5/sum"
  bottom: "SCNN_D_5/message"
  bottom: "slice1_6"
  top: "SCNN_D_6"
  type: "Eltwise"
  eltwise_param {
    operation: SUM
  }
}
layer {
  name: "SCNN_D_6"
  bottom: "SCNN_D_6"
  top: "SCNN_D_6/message"
  type: "Convolution"
  param { 
    name: "SCNN_D_w"
    lr_mult: 1 
    decay_mult: 1 
  }
  convolution_param {
    num_output: 128
    kernel_h: 1
    kernel_w: 9
    pad_h: 0
    pad_w: 4
    stride: 1
    bias_term: false
    weight_filler { type: "gaussian" std: 0.01863 }
  }
}
layer {
  name: "SCNN_D_6/relu"
  bottom: "SCNN_D_6/message"
  top: "SCNN_D_6/message"
  type: "ReLU"
}
layer {
  name: "SCNN_D_6/sum"
  bottom: "SCNN_D_6/message"
  bottom: "slice1_7"
  top: "SCNN_D_7"
  type: "Eltwise"
  eltwise_param {
    operation: SUM
  }
}
layer {
  name: "SCNN_D_7"
  bottom: "SCNN_D_7"
  top: "SCNN_D_7/message"
  type: "Convolution"
  param { 
    name: "SCNN_D_w"
    lr_mult: 1 
    decay_mult: 1 
  }
  convolution_param {
    num_output: 128
    kernel_h: 1
    kernel_w: 9
    pad_h: 0
    pad_w: 4
    stride: 1
    bias_term: false
    weight_filler { type: "gaussian" std: 0.01863 }
  }
}
layer {
  name: "SCNN_D_7/relu"
  bottom: "SCNN_D_7/message"
  top: "SCNN_D_7/message"
  type: "ReLU"
}
layer {
  name: "SCNN_D_7/sum"
  bottom: "SCNN_D_7/message"
  bottom: "slice1_8"
  top: "SCNN_D_8"
  type: "Eltwise"
  eltwise_param {
    operation: SUM
  }
}
layer {
  name: "SCNN_D_8"
  bottom: "SCNN_D_8"
  top: "SCNN_D_8/message"
  type: "Convolution"
  param { 
    name: "SCNN_D_w"
    lr_mult: 1 
    decay_mult: 1 
  }
  convolution_param {
    num_output: 128
    kernel_h: 1
    kernel_w: 9
    pad_h: 0
    pad_w: 4
    stride: 1
    bias_term: false
    weight_filler { type: "gaussian" std: 0.01863 }
  }
}
layer {
  name: "SCNN_D_8/relu"
  bottom: "SCNN_D_8/message"
  top: "SCNN_D_8/message"
  type: "ReLU"
}
layer {
  name: "SCNN_D_8/sum"
  bottom: "SCNN_D_8/message"
  bottom: "slice1_9"
  top: "SCNN_D_9"
  type: "Eltwise"
  eltwise_param {
    operation: SUM
  }
}
layer {
  name: "SCNN_D_9"
  bottom: "SCNN_D_9"
  top: "SCNN_D_9/message"
  type: "Convolution"
  param { 
    name: "SCNN_D_w"
    lr_mult: 1 
    decay_mult: 1 
  }
  convolution_param {
    num_output: 128
    kernel_h: 1
    kernel_w: 9
    pad_h: 0
    pad_w: 4
    stride: 1
    bias_term: false
    weight_filler { type: "gaussian" std: 0.01863 }
  }
}
layer {
  name: "SCNN_D_9/relu"
  bottom: "SCNN_D_9/message"
  top: "SCNN_D_9/message"
  type: "ReLU"
}
layer {
  name: "SCNN_D_9/sum"
  bottom: "SCNN_D_9/message"
  bottom: "slice1_10"
  top: "SCNN_D_10"
  type: "Eltwise"
  eltwise_param {
    operation: SUM
  }
}
layer {
  name: "SCNN_D_10"
  bottom: "SCNN_D_10"
  top: "SCNN_D_10/message"
  type: "Convolution"
  param { 
    name: "SCNN_D_w"
    lr_mult: 1 
    decay_mult: 1 
  }
  convolution_param {
    num_output: 128
    kernel_h: 1
    kernel_w: 9
    pad_h: 0
    pad_w: 4
    stride: 1
    bias_term: false
    weight_filler { type: "gaussian" std: 0.01863 }
  }
}
layer {
  name: "SCNN_D_10/relu"
  bottom: "SCNN_D_10/message"
  top: "SCNN_D_10/message"
  type: "ReLU"
}
layer {
  name: "SCNN_D_10/sum"
  bottom: "SCNN_D_10/message"
  bottom: "slice1_11"
  top: "SCNN_D_11"
  type: "Eltwise"
  eltwise_param {
    operation: SUM
  }
}
layer {
  name: "SCNN_D_11"
  bottom: "SCNN_D_11"
  top: "SCNN_D_11/message"
  type: "Convolution"
  param { 
    name: "SCNN_D_w"
    lr_mult: 1 
    decay_mult: 1 
  }
  convolution_param {
    num_output: 128
    kernel_h: 1
    kernel_w: 9
    pad_h: 0
    pad_w: 4
    stride: 1
    bias_term: false
    weight_filler { type: "gaussian" std: 0.01863 }
  }
}
layer {
  name: "SCNN_D_11/relu"
  bottom: "SCNN_D_11/message"
  top: "SCNN_D_11/message"
  type: "ReLU"
}
layer {
  name: "SCNN_D_11/sum"
  bottom: "SCNN_D_11/message"
  bottom: "slice1_12"
  top: "SCNN_D_12"
  type: "Eltwise"
  eltwise_param {
    operation: SUM
  }
}
layer {
  name: "SCNN_D_12"
  bottom: "SCNN_D_12"
  top: "SCNN_D_12/message"
  type: "Convolution"
  param { 
    name: "SCNN_D_w"
    lr_mult: 1 
    decay_mult: 1 
  }
  convolution_param {
    num_output: 128
    kernel_h: 1
    kernel_w: 9
    pad_h: 0
    pad_w: 4
    stride: 1
    bias_term: false
    weight_filler { type: "gaussian" std: 0.01863 }
  }
}
layer {
  name: "SCNN_D_12/relu"
  bottom: "SCNN_D_12/message"
  top: "SCNN_D_12/message"
  type: "ReLU"
}
layer {
  name: "SCNN_D_12/sum"
  bottom: "SCNN_D_12/message"
  bottom: "slice1_13"
  top: "SCNN_D_13"
  type: "Eltwise"
  eltwise_param {
    operation: SUM
  }
}
layer {
  name: "SCNN_D_13"
  bottom: "SCNN_D_13"
  top: "SCNN_D_13/message"
  type: "Convolution"
  param { 
    name: "SCNN_D_w"
    lr_mult: 1 
    decay_mult: 1 
  }
  convolution_param {
    num_output: 128
    kernel_h: 1
    kernel_w: 9
    pad_h: 0
    pad_w: 4
    stride: 1
    bias_term: false
    weight_filler { type: "gaussian" std: 0.01863 }
  }
}
layer {
  name: "SCNN_D_13/relu"
  bottom: "SCNN_D_13/message"
  top: "SCNN_D_13/message"
  type: "ReLU"
}
layer {
  name: "SCNN_D_13/sum"
  bottom: "SCNN_D_13/message"
  bottom: "slice1_14"
  top: "SCNN_D_14"
  type: "Eltwise"
  eltwise_param {
    operation: SUM
  }
}
layer {
  name: "SCNN_D_14"
  bottom: "SCNN_D_14"
  top: "SCNN_D_14/message"
  type: "Convolution"
  param { 
    name: "SCNN_D_w"
    lr_mult: 1 
    decay_mult: 1 
  }
  convolution_param {
    num_output: 128
    kernel_h: 1
    kernel_w: 9
    pad_h: 0
    pad_w: 4
    stride: 1
    bias_term: false
    weight_filler { type: "gaussian" std: 0.01863 }
  }
}
layer {
  name: "SCNN_D_14/relu"
  bottom: "SCNN_D_14/message"
  top: "SCNN_D_14/message"
  type: "ReLU"
}
layer {
  name: "SCNN_D_14/sum"
  bottom: "SCNN_D_14/message"
  bottom: "slice1_15"
  top: "SCNN_D_15"
  type: "Eltwise"
  eltwise_param {
    operation: SUM
  }
}
layer {
  name: "SCNN_D_15"
  bottom: "SCNN_D_15"
  top: "SCNN_D_15/message"
  type: "Convolution"
  param { 
    name: "SCNN_D_w"
    lr_mult: 1 
    decay_mult: 1 
  }
  convolution_param {
    num_output: 128
    kernel_h: 1
    kernel_w: 9
    pad_h: 0
    pad_w: 4
    stride: 1
    bias_term: false
    weight_filler { type: "gaussian" std: 0.01863 }
  }
}
layer {
  name: "SCNN_D_15/relu"
  bottom: "SCNN_D_15/message"
  top: "SCNN_D_15/message"
  type: "ReLU"
}
layer {
  name: "SCNN_D_15/sum"
  bottom: "SCNN_D_15/message"
  bottom: "slice1_16"
  top: "SCNN_D_16"
  type: "Eltwise"
  eltwise_param {
    operation: SUM
  }
}
layer {
  name: "SCNN_D_16"
  bottom: "SCNN_D_16"
  top: "SCNN_D_16/message"
  type: "Convolution"
  param { 
    name: "SCNN_D_w"
    lr_mult: 1 
    decay_mult: 1 
  }
  convolution_param {
    num_output: 128
    kernel_h: 1
    kernel_w: 9
    pad_h: 0
    pad_w: 4
    stride: 1
    bias_term: false
    weight_filler { type: "gaussian" std: 0.01863 }
  }
}
layer {
  name: "SCNN_D_16/relu"
  bottom: "SCNN_D_16/message"
  top: "SCNN_D_16/message"
  type: "ReLU"
}
layer {
  name: "SCNN_D_16/sum"
  bottom: "SCNN_D_16/message"
  bottom: "slice1_17"
  top: "SCNN_D_17"
  type: "Eltwise"
  eltwise_param {
    operation: SUM
  }
}
layer {
  name: "SCNN_D_17"
  bottom: "SCNN_D_17"
  top: "SCNN_D_17/message"
  type: "Convolution"
  param { 
    name: "SCNN_D_w"
    lr_mult: 1 
    decay_mult: 1 
  }
  convolution_param {
    num_output: 128
    kernel_h: 1
    kernel_w: 9
    pad_h: 0
    pad_w: 4
    stride: 1
    bias_term: false
    weight_filler { type: "gaussian" std: 0.01863 }
  }
}
layer {
  name: "SCNN_D_17/relu"
  bottom: "SCNN_D_17/message"
  top: "SCNN_D_17/message"
  type: "ReLU"
}
layer {
  name: "SCNN_D_17/sum"
  bottom: "SCNN_D_17/message"
  bottom: "slice1_18"
  top: "SCNN_D_18"
  type: "Eltwise"
  eltwise_param {
    operation: SUM
  }
}
layer {
  name: "SCNN_D_18"
  bottom: "SCNN_D_18"
  top: "SCNN_D_18/message"
  type: "Convolution"
  param { 
    name: "SCNN_D_w"
    lr_mult: 1 
    decay_mult: 1 
  }
  convolution_param {
    num_output: 128
    kernel_h: 1
    kernel_w: 9
    pad_h: 0
    pad_w: 4
    stride: 1
    bias_term: false
    weight_filler { type: "gaussian" std: 0.01863 }
  }
}
layer {
  name: "SCNN_D_18/relu"
  bottom: "SCNN_D_18/message"
  top: "SCNN_D_18/message"
  type: "ReLU"
}
layer {
  name: "SCNN_D_18/sum"
  bottom: "SCNN_D_18/message"
  bottom: "slice1_19"
  top: "SCNN_D_19"
  type: "Eltwise"
  eltwise_param {
    operation: SUM
  }
}
layer {
  name: "SCNN_D_19"
  bottom: "SCNN_D_19"
  top: "SCNN_D_19/message"
  type: "Convolution"
  param { 
    name: "SCNN_D_w"
    lr_mult: 1 
    decay_mult: 1 
  }
  convolution_param {
    num_output: 128
    kernel_h: 1
    kernel_w: 9
    pad_h: 0
    pad_w: 4
    stride: 1
    bias_term: false
    weight_filler { type: "gaussian" std: 0.01863 }
  }
}
layer {
  name: "SCNN_D_19/relu"
  bottom: "SCNN_D_19/message"
  top: "SCNN_D_19/message"
  type: "ReLU"
}
layer {
  name: "SCNN_D_19/sum"
  bottom: "SCNN_D_19/message"
  bottom: "slice1_20"
  top: "SCNN_D_20"
  type: "Eltwise"
  eltwise_param {
    operation: SUM
  }
}
layer {
  name: "SCNN_D_20"
  bottom: "SCNN_D_20"
  top: "SCNN_D_20/message"
  type: "Convolution"
  param { 
    name: "SCNN_D_w"
    lr_mult: 1 
    decay_mult: 1 
  }
  convolution_param {
    num_output: 128
    kernel_h: 1
    kernel_w: 9
    pad_h: 0
    pad_w: 4
    stride: 1
    bias_term: false
    weight_filler { type: "gaussian" std: 0.01863 }
  }
}
layer {
  name: "SCNN_D_20/relu"
  bottom: "SCNN_D_20/message"
  top: "SCNN_D_20/message"
  type: "ReLU"
}
layer {
  name: "SCNN_D_20/sum"
  bottom: "SCNN_D_20/message"
  bottom: "slice1_21"
  top: "SCNN_D_21"
  type: "Eltwise"
  eltwise_param {
    operation: SUM
  }
}
layer {
  name: "SCNN_D_21"
  bottom: "SCNN_D_21"
  top: "SCNN_D_21/message"
  type: "Convolution"
  param { 
    name: "SCNN_D_w"
    lr_mult: 1 
    decay_mult: 1 
  }
  convolution_param {
    num_output: 128
    kernel_h: 1
    kernel_w: 9
    pad_h: 0
    pad_w: 4
    stride: 1
    bias_term: false
    weight_filler { type: "gaussian" std: 0.01863 }
  }
}
layer {
  name: "SCNN_D_21/relu"
  bottom: "SCNN_D_21/message"
  top: "SCNN_D_21/message"
  type: "ReLU"
}
layer {
  name: "SCNN_D_21/sum"
  bottom: "SCNN_D_21/message"
  bottom: "slice1_22"
  top: "SCNN_D_22"
  type: "Eltwise"
  eltwise_param {
    operation: SUM
  }
}
layer {
  name: "SCNN_D_22"
  bottom: "SCNN_D_22"
  top: "SCNN_D_22/message"
  type: "Convolution"
  param { 
    name: "SCNN_D_w"
    lr_mult: 1 
    decay_mult: 1 
  }
  convolution_param {
    num_output: 128
    kernel_h: 1
    kernel_w: 9
    pad_h: 0
    pad_w: 4
    stride: 1
    bias_term: false
    weight_filler { type: "gaussian" std: 0.01863 }
  }
}
layer {
  name: "SCNN_D_22/relu"
  bottom: "SCNN_D_22/message"
  top: "SCNN_D_22/message"
  type: "ReLU"
}
layer {
  name: "SCNN_D_22/sum"
  bottom: "SCNN_D_22/message"
  bottom: "slice1_23"
  top: "SCNN_D_23"
  type: "Eltwise"
  eltwise_param {
    operation: SUM
  }
}
layer {
  name: "SCNN_D_23"
  bottom: "SCNN_D_23"
  top: "SCNN_D_23/message"
  type: "Convolution"
  param { 
    name: "SCNN_D_w"
    lr_mult: 1 
    decay_mult: 1 
  }
  convolution_param {
    num_output: 128
    kernel_h: 1
    kernel_w: 9
    pad_h: 0
    pad_w: 4
    stride: 1
    bias_term: false
    weight_filler { type: "gaussian" std: 0.01863 }
  }
}
layer {
  name: "SCNN_D_23/relu"
  bottom: "SCNN_D_23/message"
  top: "SCNN_D_23/message"
  type: "ReLU"
}
layer {
  name: "SCNN_D_23/sum"
  bottom: "SCNN_D_23/message"
  bottom: "slice1_24"
  top: "SCNN_D_24"
  type: "Eltwise"
  eltwise_param {
    operation: SUM
  }
}
layer {
  name: "SCNN_D_24"
  bottom: "SCNN_D_24"
  top: "SCNN_D_24/message"
  type: "Convolution"
  param { 
    name: "SCNN_D_w"
    lr_mult: 1 
    decay_mult: 1 
  }
  convolution_param {
    num_output: 128
    kernel_h: 1
    kernel_w: 9
    pad_h: 0
    pad_w: 4
    stride: 1
    bias_term: false
    weight_filler { type: "gaussian" std: 0.01863 }
  }
}
layer {
  name: "SCNN_D_24/relu"
  bottom: "SCNN_D_24/message"
  top: "SCNN_D_24/message"
  type: "ReLU"
}
layer {
  name: "SCNN_D_24/sum"
  bottom: "SCNN_D_24/message"
  bottom: "slice1_25"
  top: "SCNN_D_25"
  type: "Eltwise"
  eltwise_param {
    operation: SUM
  }
}
layer {
  name: "SCNN_D_25"
  bottom: "SCNN_D_25"
  top: "SCNN_D_25/message"
  type: "Convolution"
  param { 
    name: "SCNN_D_w"
    lr_mult: 1 
    decay_mult: 1 
  }
  convolution_param {
    num_output: 128
    kernel_h: 1
    kernel_w: 9
    pad_h: 0
    pad_w: 4
    stride: 1
    bias_term: false
    weight_filler { type: "gaussian" std: 0.01863 }
  }
}
layer {
  name: "SCNN_D_25/relu"
  bottom: "SCNN_D_25/message"
  top: "SCNN_D_25/message"
  type: "ReLU"
}
layer {
  name: "SCNN_D_25/sum"
  bottom: "SCNN_D_25/message"
  bottom: "slice1_26"
  top: "SCNN_D_26"
  type: "Eltwise"
  eltwise_param {
    operation: SUM
  }
}
layer {
  name: "SCNN_D_26"
  bottom: "SCNN_D_26"
  top: "SCNN_D_26/message"
  type: "Convolution"
  param { 
    name: "SCNN_D_w"
    lr_mult: 1 
    decay_mult: 1 
  }
  convolution_param {
    num_output: 128
    kernel_h: 1
    kernel_w: 9
    pad_h: 0
    pad_w: 4
    stride: 1
    bias_term: false
    weight_filler { type: "gaussian" std: 0.01863 }
  }
}
layer {
  name: "SCNN_D_26/relu"
  bottom: "SCNN_D_26/message"
  top: "SCNN_D_26/message"
  type: "ReLU"
}
layer {
  name: "SCNN_D_26/sum"
  bottom: "SCNN_D_26/message"
  bottom: "slice1_27"
  top: "SCNN_D_27"
  type: "Eltwise"
  eltwise_param {
    operation: SUM
  }
}
layer {
  name: "SCNN_D_27"
  bottom: "SCNN_D_27"
  top: "SCNN_D_27/message"
  type: "Convolution"
  param { 
    name: "SCNN_D_w"
    lr_mult: 1 
    decay_mult: 1 
  }
  convolution_param {
    num_output: 128
    kernel_h: 1
    kernel_w: 9
    pad_h: 0
    pad_w: 4
    stride: 1
    bias_term: false
    weight_filler { type: "gaussian" std: 0.01863 }
  }
}
layer {
  name: "SCNN_D_27/relu"
  bottom: "SCNN_D_27/message"
  top: "SCNN_D_27/message"
  type: "ReLU"
}
layer {
  name: "SCNN_D_27/sum"
  bottom: "SCNN_D_27/message"
  bottom: "slice1_28"
  top: "SCNN_D_28"
  type: "Eltwise"
  eltwise_param {
    operation: SUM
  }
}
layer {
  name: "SCNN_D_28"
  bottom: "SCNN_D_28"
  top: "SCNN_D_28/message"
  type: "Convolution"
  param { 
    name: "SCNN_D_w"
    lr_mult: 1 
    decay_mult: 1 
  }
  convolution_param {
    num_output: 128
    kernel_h: 1
    kernel_w: 9
    pad_h: 0
    pad_w: 4
    stride: 1
    bias_term: false
    weight_filler { type: "gaussian" std: 0.01863 }
  }
}
layer {
  name: "SCNN_D_28/relu"
  bottom: "SCNN_D_28/message"
  top: "SCNN_D_28/message"
  type: "ReLU"
}
layer {
  name: "SCNN_D_28/sum"
  bottom: "SCNN_D_28/message"
  bottom: "slice1_29"
  top: "SCNN_D_29"
  type: "Eltwise"
  eltwise_param {
    operation: SUM
  }
}
layer {
  name: "SCNN_D_29"
  bottom: "SCNN_D_29"
  top: "SCNN_D_29/message"
  type: "Convolution"
  param { 
    name: "SCNN_D_w"
    lr_mult: 1 
    decay_mult: 1 
  }
  convolution_param {
    num_output: 128
    kernel_h: 1
    kernel_w: 9
    pad_h: 0
    pad_w: 4
    stride: 1
    bias_term: false
    weight_filler { type: "gaussian" std: 0.01863 }
  }
}
layer {
  name: "SCNN_D_29/relu"
  bottom: "SCNN_D_29/message"
  top: "SCNN_D_29/message"
  type: "ReLU"
}
layer {
  name: "SCNN_D_29/sum"
  bottom: "SCNN_D_29/message"
  bottom: "slice1_30"
  top: "SCNN_D_30"
  type: "Eltwise"
  eltwise_param {
    operation: SUM
  }
}
layer {
  name: "SCNN_D_30"
  bottom: "SCNN_D_30"
  top: "SCNN_D_30/message"
  type: "Convolution"
  param { 
    name: "SCNN_D_w"
    lr_mult: 1 
    decay_mult: 1 
  }
  convolution_param {
    num_output: 128
    kernel_h: 1
    kernel_w: 9
    pad_h: 0
    pad_w: 4
    stride: 1
    bias_term: false
    weight_filler { type: "gaussian" std: 0.01863 }
  }
}
layer {
  name: "SCNN_D_30/relu"
  bottom: "SCNN_D_30/message"
  top: "SCNN_D_30/message"
  type: "ReLU"
}
layer {
  name: "SCNN_D_30/sum"
  bottom: "SCNN_D_30/message"
  bottom: "slice1_31"
  top: "SCNN_D_31"
  type: "Eltwise"
  eltwise_param {
    operation: SUM
  }
}
layer {
  name: "SCNN_D_31"
  bottom: "SCNN_D_31"
  top: "SCNN_D_31/message"
  type: "Convolution"
  param { 
    name: "SCNN_D_w"
    lr_mult: 1 
    decay_mult: 1 
  }
  convolution_param {
    num_output: 128
    kernel_h: 1
    kernel_w: 9
    pad_h: 0
    pad_w: 4
    stride: 1
    bias_term: false
    weight_filler { type: "gaussian" std: 0.01863 }
  }
}
layer {
  name: "SCNN_D_31/relu"
  bottom: "SCNN_D_31/message"
  top: "SCNN_D_31/message"
  type: "ReLU"
}
layer {
  name: "SCNN_D_31/sum"
  bottom: "SCNN_D_31/message"
  bottom: "slice1_32"
  top: "SCNN_D_32"
  type: "Eltwise"
  eltwise_param {
    operation: SUM
  }
}
layer {
  name: "SCNN_D_32"
  bottom: "SCNN_D_32"
  top: "SCNN_D_32/message"
  type: "Convolution"
  param { 
    name: "SCNN_D_w"
    lr_mult: 1 
    decay_mult: 1 
  }
  convolution_param {
    num_output: 128
    kernel_h: 1
    kernel_w: 9
    pad_h: 0
    pad_w: 4
    stride: 1
    bias_term: false
    weight_filler { type: "gaussian" std: 0.01863 }
  }
}
layer {
  name: "SCNN_D_32/relu"
  bottom: "SCNN_D_32/message"
  top: "SCNN_D_32/message"
  type: "ReLU"
}
layer {
  name: "SCNN_D_32/sum"
  bottom: "SCNN_D_32/message"
  bottom: "slice1_33"
  top: "SCNN_D_33"
  type: "Eltwise"
  eltwise_param {
    operation: SUM
  }
}
layer {
  name: "SCNN_D_33"
  bottom: "SCNN_D_33"
  top: "SCNN_D_33/message"
  type: "Convolution"
  param { 
    name: "SCNN_D_w"
    lr_mult: 1 
    decay_mult: 1 
  }
  convolution_param {
    num_output: 128
    kernel_h: 1
    kernel_w: 9
    pad_h: 0
    pad_w: 4
    stride: 1
    bias_term: false
    weight_filler { type: "gaussian" std: 0.01863 }
  }
}
layer {
  name: "SCNN_D_33/relu"
  bottom: "SCNN_D_33/message"
  top: "SCNN_D_33/message"
  type: "ReLU"
}
layer {
  name: "SCNN_D_33/sum"
  bottom: "SCNN_D_33/message"
  bottom: "slice1_34"
  top: "SCNN_D_34"
  type: "Eltwise"
  eltwise_param {
    operation: SUM
  }
}
layer {
  name: "SCNN_D_34"
  bottom: "SCNN_D_34"
  top: "SCNN_D_34/message"
  type: "Convolution"
  param { 
    name: "SCNN_D_w"
    lr_mult: 1 
    decay_mult: 1 
  }
  convolution_param {
    num_output: 128
    kernel_h: 1
    kernel_w: 9
    pad_h: 0
    pad_w: 4
    stride: 1
    bias_term: false
    weight_filler { type: "gaussian" std: 0.01863 }
  }
}
layer {
  name: "SCNN_D_34/relu"
  bottom: "SCNN_D_34/message"
  top: "SCNN_D_34/message"
  type: "ReLU"
}
layer {
  name: "SCNN_D_34/sum"
  bottom: "SCNN_D_34/message"
  bottom: "slice1_35"
  top: "SCNN_D_35"
  type: "Eltwise"
  eltwise_param {
    operation: SUM
  }
}
layer {
  name: "SCNN_D_35"
  bottom: "SCNN_D_35"
  top: "SCNN_D_35/message"
  type: "Convolution"
  param { 
    name: "SCNN_D_w"
    lr_mult: 1 
    decay_mult: 1 
  }
  convolution_param {
    num_output: 128
    kernel_h: 1
    kernel_w: 9
    pad_h: 0
    pad_w: 4
    stride: 1
    bias_term: false
    weight_filler { type: "gaussian" std: 0.01863 }
  }
}
layer {
  name: "SCNN_D_35/relu"
  bottom: "SCNN_D_35/message"
  top: "SCNN_D_35/message"
  type: "ReLU"
}
layer {
  name: "SCNN_D_35/sum"
  bottom: "SCNN_D_35/message"
  bottom: "slice1_36"
  top: "SCNN_D_36"
  type: "Eltwise"
  eltwise_param {
    operation: SUM
  }
}
layer {
  name: "SCNN_D_36"
  bottom: "SCNN_D_36"
  top: "SCNN_D_36/message"
  type: "Convolution"
  param { 
    name: "SCNN_D_w"
    lr_mult: 1 
    decay_mult: 1 
  }
  convolution_param {
    num_output: 128
    kernel_h: 1
    kernel_w: 9
    pad_h: 0
    pad_w: 4
    stride: 1
    bias_term: false
    weight_filler { type: "gaussian" std: 0.01863 }
  }
}
layer {
  name: "SCNN_D_36/relu"
  bottom: "SCNN_D_36/message"
  top: "SCNN_D_36/message"
  type: "ReLU"
}
layer {
  name: "SCNN_D_36/sum"
  bottom: "SCNN_D_36/message"
  bottom: "slice1_37"
  top: "SCNN_D_37"
  type: "Eltwise"
  eltwise_param {
    operation: SUM
  }
}
layer {
  name: "SCNN_D_37"
  bottom: "SCNN_D_37"
  top: "SCNN_D_37/message"
  type: "Convolution"
  param { 
    name: "SCNN_D_w"
    lr_mult: 1 
    decay_mult: 1 
  }
  convolution_param {
    num_output: 128
    kernel_h: 1
    kernel_w: 9
    pad_h: 0
    pad_w: 4
    stride: 1
    bias_term: false
    weight_filler { type: "gaussian" std: 0.01863 }
  }
}
layer {
  name: "SCNN_D_37/relu"
  bottom: "SCNN_D_37/message"
  top: "SCNN_D_37/message"
  type: "ReLU"
}
layer {
  name: "SCNN_D_37/sum"
  bottom: "SCNN_D_37/message"
  bottom: "slice1_38"
  top: "SCNN_D_38"
  type: "Eltwise"
  eltwise_param {
    operation: SUM
  }
}
layer {
  name: "SCNN_D_38"
  bottom: "SCNN_D_38"
  top: "SCNN_D_38/message"
  type: "Convolution"
  param { 
    name: "SCNN_D_w"
    lr_mult: 1 
    decay_mult: 1 
  }
  convolution_param {
    num_output: 128
    kernel_h: 1
    kernel_w: 9
    pad_h: 0
    pad_w: 4
    stride: 1
    bias_term: false
    weight_filler { type: "gaussian" std: 0.01863 }
  }
}
layer {
  name: "SCNN_D_38/relu"
  bottom: "SCNN_D_38/message"
  top: "SCNN_D_38/message"
  type: "ReLU"
}
layer {
  name: "SCNN_D_38/sum"
  bottom: "SCNN_D_38/message"
  bottom: "slice1_39"
  top: "SCNN_D_39"
  type: "Eltwise"
  eltwise_param {
    operation: SUM
  }
}
layer {
  name: "SCNN_D_39"
  bottom: "SCNN_D_39"
  top: "SCNN_D_39/message"
  type: "Convolution"
  param { 
    name: "SCNN_D_w"
    lr_mult: 1 
    decay_mult: 1 
  }
  convolution_param {
    num_output: 128
    kernel_h: 1
    kernel_w: 9
    pad_h: 0
    pad_w: 4
    stride: 1
    bias_term: false
    weight_filler { type: "gaussian" std: 0.01863 }
  }
}
layer {
  name: "SCNN_D_39/relu"
  bottom: "SCNN_D_39/message"
  top: "SCNN_D_39/message"
  type: "ReLU"
}
layer {
  name: "SCNN_D_39/sum"
  bottom: "SCNN_D_39/message"
  bottom: "slice1_40"
  top: "SCNN_D_40"
  type: "Eltwise"
  eltwise_param {
    operation: SUM
  }
}
layer {
  name: "SCNN_D_40"
  bottom: "SCNN_D_40"
  top: "SCNN_D_40/message"
  type: "Convolution"
  param { 
    name: "SCNN_D_w"
    lr_mult: 1 
    decay_mult: 1 
  }
  convolution_param {
    num_output: 128
    kernel_h: 1
    kernel_w: 9
    pad_h: 0
    pad_w: 4
    stride: 1
    bias_term: false
    weight_filler { type: "gaussian" std: 0.01863 }
  }
}
layer {
  name: "SCNN_D_40/relu"
  bottom: "SCNN_D_40/message"
  top: "SCNN_D_40/message"
  type: "ReLU"
}
layer {
  name: "SCNN_D_40/sum"
  bottom: "SCNN_D_40/message"
  bottom: "slice1_41"
  top: "SCNN_D_41"
  type: "Eltwise"
  eltwise_param {
    operation: SUM
  }
}
layer {
  name: "SCNN_D_41"
  bottom: "SCNN_D_41"
  top: "SCNN_D_41/message"
  type: "Convolution"
  param { 
    name: "SCNN_D_w"
    lr_mult: 1 
    decay_mult: 1 
  }
  convolution_param {
    num_output: 128
    kernel_h: 1
    kernel_w: 9
    pad_h: 0
    pad_w: 4
    stride: 1
    bias_term: false
    weight_filler { type: "gaussian" std: 0.01863 }
  }
}
layer {
  name: "SCNN_D_41/relu"
  bottom: "SCNN_D_41/message"
  top: "SCNN_D_41/message"
  type: "ReLU"
}
layer {
  name: "SCNN_D_41/sum"
  bottom: "SCNN_D_41/message"
  bottom: "slice1_42"
  top: "SCNN_D_42"
  type: "Eltwise"
  eltwise_param {
    operation: SUM
  }
}
layer {
  name: "SCNN_D_42"
  bottom: "SCNN_D_42"
  top: "SCNN_D_42/message"
  type: "Convolution"
  param { 
    name: "SCNN_D_w"
    lr_mult: 1 
    decay_mult: 1 
  }
  convolution_param {
    num_output: 128
    kernel_h: 1
    kernel_w: 9
    pad_h: 0
    pad_w: 4
    stride: 1
    bias_term: false
    weight_filler { type: "gaussian" std: 0.01863 }
  }
}
layer {
  name: "SCNN_D_42/relu"
  bottom: "SCNN_D_42/message"
  top: "SCNN_D_42/message"
  type: "ReLU"
}
layer {
  name: "SCNN_D_42/sum"
  bottom: "SCNN_D_42/message"
  bottom: "slice1_43"
  top: "SCNN_D_43"
  type: "Eltwise"
  eltwise_param {
    operation: SUM
  }
}
layer {
  name: "SCNN_D_43"
  bottom: "SCNN_D_43"
  top: "SCNN_D_43/message"
  type: "Convolution"
  param { 
    name: "SCNN_D_w"
    lr_mult: 1 
    decay_mult: 1 
  }
  convolution_param {
    num_output: 128
    kernel_h: 1
    kernel_w: 9
    pad_h: 0
    pad_w: 4
    stride: 1
    bias_term: false
    weight_filler { type: "gaussian" std: 0.01863 }
  }
}
layer {
  name: "SCNN_D_43/relu"
  bottom: "SCNN_D_43/message"
  top: "SCNN_D_43/message"
  type: "ReLU"
}
layer {
  name: "SCNN_D_43/sum"
  bottom: "SCNN_D_43/message"
  bottom: "slice1_44"
  top: "SCNN_D_44"
  type: "Eltwise"
  eltwise_param {
    operation: SUM
  }
}
layer {
  name: "SCNN_D_44"
  bottom: "SCNN_D_44"
  top: "SCNN_D_44/message"
  type: "Convolution"
  param { 
    name: "SCNN_D_w"
    lr_mult: 1 
    decay_mult: 1 
  }
  convolution_param {
    num_output: 128
    kernel_h: 1
    kernel_w: 9
    pad_h: 0
    pad_w: 4
    stride: 1
    bias_term: false
    weight_filler { type: "gaussian" std: 0.01863 }
  }
}
layer {
  name: "SCNN_D_44/relu"
  bottom: "SCNN_D_44/message"
  top: "SCNN_D_44/message"
  type: "ReLU"
}
layer {
  name: "SCNN_D_44/sum"
  bottom: "SCNN_D_44/message"
  bottom: "slice1_45"
  top: "SCNN_D_45"
  type: "Eltwise"
  eltwise_param {
    operation: SUM
  }
}
layer {
  name: "SCNN_D_45"
  bottom: "SCNN_D_45"
  top: "SCNN_D_45/message"
  type: "Convolution"
  param { 
    name: "SCNN_D_w"
    lr_mult: 1 
    decay_mult: 1 
  }
  convolution_param {
    num_output: 128
    kernel_h: 1
    kernel_w: 9
    pad_h: 0
    pad_w: 4
    stride: 1
    bias_term: false
    weight_filler { type: "gaussian" std: 0.01863 }
  }
}
layer {
  name: "SCNN_D_45/relu"
  bottom: "SCNN_D_45/message"
  top: "SCNN_D_45/message"
  type: "ReLU"
}
layer {
  name: "SCNN_D_45/sum"
  bottom: "SCNN_D_45/message"
  bottom: "slice1_46"
  top: "SCNN_D_46"
  type: "Eltwise"
  eltwise_param {
    operation: SUM
  }
}
layer {
  name: "SCNN_U_46"
  bottom: "SCNN_D_46"
  top: "SCNN_U_46/message"
  type: "Convolution"
  param { 
    name: "SCNN_U_w"
    lr_mult: 1 
    decay_mult: 1 
  }
  convolution_param {
    num_output: 128
    kernel_h: 1
    kernel_w: 9
    pad_h: 0
    pad_w: 4
    stride: 1
    bias_term: false
    weight_filler { type: "gaussian" std: 0.01863 }
  }
}
layer {
  name: "SCNN_U_46/relu"
  bottom: "SCNN_U_46/message"
  top: "SCNN_U_46/message"
  type: "ReLU"
}
layer {
  name: "SCNN_U_46/sum"
  bottom: "SCNN_U_46/message"
  bottom: "SCNN_D_45"
  top: "SCNN_U_45"
  type: "Eltwise"
  eltwise_param {
    operation: SUM
  }
}
layer {
  name: "SCNN_U_45"
  bottom: "SCNN_U_45"
  top: "SCNN_U_45/message"
  type: "Convolution"
  param { 
    name: "SCNN_U_w"
    lr_mult: 1 
    decay_mult: 1 
  }
  convolution_param {
    num_output: 128
    kernel_h: 1
    kernel_w: 9
    pad_h: 0
    pad_w: 4
    stride: 1
    bias_term: false
    weight_filler { type: "gaussian" std: 0.01863 }
  }
}
layer {
  name: "SCNN_U_45/relu"
  bottom: "SCNN_U_45/message"
  top: "SCNN_U_45/message"
  type: "ReLU"
}
layer {
  name: "SCNN_U_45/sum"
  bottom: "SCNN_U_45/message"
  bottom: "SCNN_D_44"
  top: "SCNN_U_44"
  type: "Eltwise"
  eltwise_param {
    operation: SUM
  }
}
layer {
  name: "SCNN_U_44"
  bottom: "SCNN_U_44"
  top: "SCNN_U_44/message"
  type: "Convolution"
  param { 
    name: "SCNN_U_w"
    lr_mult: 1 
    decay_mult: 1 
  }
  convolution_param {
    num_output: 128
    kernel_h: 1
    kernel_w: 9
    pad_h: 0
    pad_w: 4
    stride: 1
    bias_term: false
    weight_filler { type: "gaussian" std: 0.01863 }
  }
}
layer {
  name: "SCNN_U_44/relu"
  bottom: "SCNN_U_44/message"
  top: "SCNN_U_44/message"
  type: "ReLU"
}
layer {
  name: "SCNN_U_44/sum"
  bottom: "SCNN_U_44/message"
  bottom: "SCNN_D_43"
  top: "SCNN_U_43"
  type: "Eltwise"
  eltwise_param {
    operation: SUM
  }
}
layer {
  name: "SCNN_U_43"
  bottom: "SCNN_U_43"
  top: "SCNN_U_43/message"
  type: "Convolution"
  param { 
    name: "SCNN_U_w"
    lr_mult: 1 
    decay_mult: 1 
  }
  convolution_param {
    num_output: 128
    kernel_h: 1
    kernel_w: 9
    pad_h: 0
    pad_w: 4
    stride: 1
    bias_term: false
    weight_filler { type: "gaussian" std: 0.01863 }
  }
}
layer {
  name: "SCNN_U_43/relu"
  bottom: "SCNN_U_43/message"
  top: "SCNN_U_43/message"
  type: "ReLU"
}
layer {
  name: "SCNN_U_43/sum"
  bottom: "SCNN_U_43/message"
  bottom: "SCNN_D_42"
  top: "SCNN_U_42"
  type: "Eltwise"
  eltwise_param {
    operation: SUM
  }
}
layer {
  name: "SCNN_U_42"
  bottom: "SCNN_U_42"
  top: "SCNN_U_42/message"
  type: "Convolution"
  param { 
    name: "SCNN_U_w"
    lr_mult: 1 
    decay_mult: 1 
  }
  convolution_param {
    num_output: 128
    kernel_h: 1
    kernel_w: 9
    pad_h: 0
    pad_w: 4
    stride: 1
    bias_term: false
    weight_filler { type: "gaussian" std: 0.01863 }
  }
}
layer {
  name: "SCNN_U_42/relu"
  bottom: "SCNN_U_42/message"
  top: "SCNN_U_42/message"
  type: "ReLU"
}
layer {
  name: "SCNN_U_42/sum"
  bottom: "SCNN_U_42/message"
  bottom: "SCNN_D_41"
  top: "SCNN_U_41"
  type: "Eltwise"
  eltwise_param {
    operation: SUM
  }
}
layer {
  name: "SCNN_U_41"
  bottom: "SCNN_U_41"
  top: "SCNN_U_41/message"
  type: "Convolution"
  param { 
    name: "SCNN_U_w"
    lr_mult: 1 
    decay_mult: 1 
  }
  convolution_param {
    num_output: 128
    kernel_h: 1
    kernel_w: 9
    pad_h: 0
    pad_w: 4
    stride: 1
    bias_term: false
    weight_filler { type: "gaussian" std: 0.01863 }
  }
}
layer {
  name: "SCNN_U_41/relu"
  bottom: "SCNN_U_41/message"
  top: "SCNN_U_41/message"
  type: "ReLU"
}
layer {
  name: "SCNN_U_41/sum"
  bottom: "SCNN_U_41/message"
  bottom: "SCNN_D_40"
  top: "SCNN_U_40"
  type: "Eltwise"
  eltwise_param {
    operation: SUM
  }
}
layer {
  name: "SCNN_U_40"
  bottom: "SCNN_U_40"
  top: "SCNN_U_40/message"
  type: "Convolution"
  param { 
    name: "SCNN_U_w"
    lr_mult: 1 
    decay_mult: 1 
  }
  convolution_param {
    num_output: 128
    kernel_h: 1
    kernel_w: 9
    pad_h: 0
    pad_w: 4
    stride: 1
    bias_term: false
    weight_filler { type: "gaussian" std: 0.01863 }
  }
}
layer {
  name: "SCNN_U_40/relu"
  bottom: "SCNN_U_40/message"
  top: "SCNN_U_40/message"
  type: "ReLU"
}
layer {
  name: "SCNN_U_40/sum"
  bottom: "SCNN_U_40/message"
  bottom: "SCNN_D_39"
  top: "SCNN_U_39"
  type: "Eltwise"
  eltwise_param {
    operation: SUM
  }
}
layer {
  name: "SCNN_U_39"
  bottom: "SCNN_U_39"
  top: "SCNN_U_39/message"
  type: "Convolution"
  param { 
    name: "SCNN_U_w"
    lr_mult: 1 
    decay_mult: 1 
  }
  convolution_param {
    num_output: 128
    kernel_h: 1
    kernel_w: 9
    pad_h: 0
    pad_w: 4
    stride: 1
    bias_term: false
    weight_filler { type: "gaussian" std: 0.01863 }
  }
}
layer {
  name: "SCNN_U_39/relu"
  bottom: "SCNN_U_39/message"
  top: "SCNN_U_39/message"
  type: "ReLU"
}
layer {
  name: "SCNN_U_39/sum"
  bottom: "SCNN_U_39/message"
  bottom: "SCNN_D_38"
  top: "SCNN_U_38"
  type: "Eltwise"
  eltwise_param {
    operation: SUM
  }
}
layer {
  name: "SCNN_U_38"
  bottom: "SCNN_U_38"
  top: "SCNN_U_38/message"
  type: "Convolution"
  param { 
    name: "SCNN_U_w"
    lr_mult: 1 
    decay_mult: 1 
  }
  convolution_param {
    num_output: 128
    kernel_h: 1
    kernel_w: 9
    pad_h: 0
    pad_w: 4
    stride: 1
    bias_term: false
    weight_filler { type: "gaussian" std: 0.01863 }
  }
}
layer {
  name: "SCNN_U_38/relu"
  bottom: "SCNN_U_38/message"
  top: "SCNN_U_38/message"
  type: "ReLU"
}
layer {
  name: "SCNN_U_38/sum"
  bottom: "SCNN_U_38/message"
  bottom: "SCNN_D_37"
  top: "SCNN_U_37"
  type: "Eltwise"
  eltwise_param {
    operation: SUM
  }
}
layer {
  name: "SCNN_U_37"
  bottom: "SCNN_U_37"
  top: "SCNN_U_37/message"
  type: "Convolution"
  param { 
    name: "SCNN_U_w"
    lr_mult: 1 
    decay_mult: 1 
  }
  convolution_param {
    num_output: 128
    kernel_h: 1
    kernel_w: 9
    pad_h: 0
    pad_w: 4
    stride: 1
    bias_term: false
    weight_filler { type: "gaussian" std: 0.01863 }
  }
}
layer {
  name: "SCNN_U_37/relu"
  bottom: "SCNN_U_37/message"
  top: "SCNN_U_37/message"
  type: "ReLU"
}
layer {
  name: "SCNN_U_37/sum"
  bottom: "SCNN_U_37/message"
  bottom: "SCNN_D_36"
  top: "SCNN_U_36"
  type: "Eltwise"
  eltwise_param {
    operation: SUM
  }
}
layer {
  name: "SCNN_U_36"
  bottom: "SCNN_U_36"
  top: "SCNN_U_36/message"
  type: "Convolution"
  param { 
    name: "SCNN_U_w"
    lr_mult: 1 
    decay_mult: 1 
  }
  convolution_param {
    num_output: 128
    kernel_h: 1
    kernel_w: 9
    pad_h: 0
    pad_w: 4
    stride: 1
    bias_term: false
    weight_filler { type: "gaussian" std: 0.01863 }
  }
}
layer {
  name: "SCNN_U_36/relu"
  bottom: "SCNN_U_36/message"
  top: "SCNN_U_36/message"
  type: "ReLU"
}
layer {
  name: "SCNN_U_36/sum"
  bottom: "SCNN_U_36/message"
  bottom: "SCNN_D_35"
  top: "SCNN_U_35"
  type: "Eltwise"
  eltwise_param {
    operation: SUM
  }
}
layer {
  name: "SCNN_U_35"
  bottom: "SCNN_U_35"
  top: "SCNN_U_35/message"
  type: "Convolution"
  param { 
    name: "SCNN_U_w"
    lr_mult: 1 
    decay_mult: 1 
  }
  convolution_param {
    num_output: 128
    kernel_h: 1
    kernel_w: 9
    pad_h: 0
    pad_w: 4
    stride: 1
    bias_term: false
    weight_filler { type: "gaussian" std: 0.01863 }
  }
}
layer {
  name: "SCNN_U_35/relu"
  bottom: "SCNN_U_35/message"
  top: "SCNN_U_35/message"
  type: "ReLU"
}
layer {
  name: "SCNN_U_35/sum"
  bottom: "SCNN_U_35/message"
  bottom: "SCNN_D_34"
  top: "SCNN_U_34"
  type: "Eltwise"
  eltwise_param {
    operation: SUM
  }
}
layer {
  name: "SCNN_U_34"
  bottom: "SCNN_U_34"
  top: "SCNN_U_34/message"
  type: "Convolution"
  param { 
    name: "SCNN_U_w"
    lr_mult: 1 
    decay_mult: 1 
  }
  convolution_param {
    num_output: 128
    kernel_h: 1
    kernel_w: 9
    pad_h: 0
    pad_w: 4
    stride: 1
    bias_term: false
    weight_filler { type: "gaussian" std: 0.01863 }
  }
}
layer {
  name: "SCNN_U_34/relu"
  bottom: "SCNN_U_34/message"
  top: "SCNN_U_34/message"
  type: "ReLU"
}
layer {
  name: "SCNN_U_34/sum"
  bottom: "SCNN_U_34/message"
  bottom: "SCNN_D_33"
  top: "SCNN_U_33"
  type: "Eltwise"
  eltwise_param {
    operation: SUM
  }
}
layer {
  name: "SCNN_U_33"
  bottom: "SCNN_U_33"
  top: "SCNN_U_33/message"
  type: "Convolution"
  param { 
    name: "SCNN_U_w"
    lr_mult: 1 
    decay_mult: 1 
  }
  convolution_param {
    num_output: 128
    kernel_h: 1
    kernel_w: 9
    pad_h: 0
    pad_w: 4
    stride: 1
    bias_term: false
    weight_filler { type: "gaussian" std: 0.01863 }
  }
}
layer {
  name: "SCNN_U_33/relu"
  bottom: "SCNN_U_33/message"
  top: "SCNN_U_33/message"
  type: "ReLU"
}
layer {
  name: "SCNN_U_33/sum"
  bottom: "SCNN_U_33/message"
  bottom: "SCNN_D_32"
  top: "SCNN_U_32"
  type: "Eltwise"
  eltwise_param {
    operation: SUM
  }
}
layer {
  name: "SCNN_U_32"
  bottom: "SCNN_U_32"
  top: "SCNN_U_32/message"
  type: "Convolution"
  param { 
    name: "SCNN_U_w"
    lr_mult: 1 
    decay_mult: 1 
  }
  convolution_param {
    num_output: 128
    kernel_h: 1
    kernel_w: 9
    pad_h: 0
    pad_w: 4
    stride: 1
    bias_term: false
    weight_filler { type: "gaussian" std: 0.01863 }
  }
}
layer {
  name: "SCNN_U_32/relu"
  bottom: "SCNN_U_32/message"
  top: "SCNN_U_32/message"
  type: "ReLU"
}
layer {
  name: "SCNN_U_32/sum"
  bottom: "SCNN_U_32/message"
  bottom: "SCNN_D_31"
  top: "SCNN_U_31"
  type: "Eltwise"
  eltwise_param {
    operation: SUM
  }
}
layer {
  name: "SCNN_U_31"
  bottom: "SCNN_U_31"
  top: "SCNN_U_31/message"
  type: "Convolution"
  param { 
    name: "SCNN_U_w"
    lr_mult: 1 
    decay_mult: 1 
  }
  convolution_param {
    num_output: 128
    kernel_h: 1
    kernel_w: 9
    pad_h: 0
    pad_w: 4
    stride: 1
    bias_term: false
    weight_filler { type: "gaussian" std: 0.01863 }
  }
}
layer {
  name: "SCNN_U_31/relu"
  bottom: "SCNN_U_31/message"
  top: "SCNN_U_31/message"
  type: "ReLU"
}
layer {
  name: "SCNN_U_31/sum"
  bottom: "SCNN_U_31/message"
  bottom: "SCNN_D_30"
  top: "SCNN_U_30"
  type: "Eltwise"
  eltwise_param {
    operation: SUM
  }
}
layer {
  name: "SCNN_U_30"
  bottom: "SCNN_U_30"
  top: "SCNN_U_30/message"
  type: "Convolution"
  param { 
    name: "SCNN_U_w"
    lr_mult: 1 
    decay_mult: 1 
  }
  convolution_param {
    num_output: 128
    kernel_h: 1
    kernel_w: 9
    pad_h: 0
    pad_w: 4
    stride: 1
    bias_term: false
    weight_filler { type: "gaussian" std: 0.01863 }
  }
}
layer {
  name: "SCNN_U_30/relu"
  bottom: "SCNN_U_30/message"
  top: "SCNN_U_30/message"
  type: "ReLU"
}
layer {
  name: "SCNN_U_30/sum"
  bottom: "SCNN_U_30/message"
  bottom: "SCNN_D_29"
  top: "SCNN_U_29"
  type: "Eltwise"
  eltwise_param {
    operation: SUM
  }
}
layer {
  name: "SCNN_U_29"
  bottom: "SCNN_U_29"
  top: "SCNN_U_29/message"
  type: "Convolution"
  param { 
    name: "SCNN_U_w"
    lr_mult: 1 
    decay_mult: 1 
  }
  convolution_param {
    num_output: 128
    kernel_h: 1
    kernel_w: 9
    pad_h: 0
    pad_w: 4
    stride: 1
    bias_term: false
    weight_filler { type: "gaussian" std: 0.01863 }
  }
}
layer {
  name: "SCNN_U_29/relu"
  bottom: "SCNN_U_29/message"
  top: "SCNN_U_29/message"
  type: "ReLU"
}
layer {
  name: "SCNN_U_29/sum"
  bottom: "SCNN_U_29/message"
  bottom: "SCNN_D_28"
  top: "SCNN_U_28"
  type: "Eltwise"
  eltwise_param {
    operation: SUM
  }
}
layer {
  name: "SCNN_U_28"
  bottom: "SCNN_U_28"
  top: "SCNN_U_28/message"
  type: "Convolution"
  param { 
    name: "SCNN_U_w"
    lr_mult: 1 
    decay_mult: 1 
  }
  convolution_param {
    num_output: 128
    kernel_h: 1
    kernel_w: 9
    pad_h: 0
    pad_w: 4
    stride: 1
    bias_term: false
    weight_filler { type: "gaussian" std: 0.01863 }
  }
}
layer {
  name: "SCNN_U_28/relu"
  bottom: "SCNN_U_28/message"
  top: "SCNN_U_28/message"
  type: "ReLU"
}
layer {
  name: "SCNN_U_28/sum"
  bottom: "SCNN_U_28/message"
  bottom: "SCNN_D_27"
  top: "SCNN_U_27"
  type: "Eltwise"
  eltwise_param {
    operation: SUM
  }
}
layer {
  name: "SCNN_U_27"
  bottom: "SCNN_U_27"
  top: "SCNN_U_27/message"
  type: "Convolution"
  param { 
    name: "SCNN_U_w"
    lr_mult: 1 
    decay_mult: 1 
  }
  convolution_param {
    num_output: 128
    kernel_h: 1
    kernel_w: 9
    pad_h: 0
    pad_w: 4
    stride: 1
    bias_term: false
    weight_filler { type: "gaussian" std: 0.01863 }
  }
}
layer {
  name: "SCNN_U_27/relu"
  bottom: "SCNN_U_27/message"
  top: "SCNN_U_27/message"
  type: "ReLU"
}
layer {
  name: "SCNN_U_27/sum"
  bottom: "SCNN_U_27/message"
  bottom: "SCNN_D_26"
  top: "SCNN_U_26"
  type: "Eltwise"
  eltwise_param {
    operation: SUM
  }
}
layer {
  name: "SCNN_U_26"
  bottom: "SCNN_U_26"
  top: "SCNN_U_26/message"
  type: "Convolution"
  param { 
    name: "SCNN_U_w"
    lr_mult: 1 
    decay_mult: 1 
  }
  convolution_param {
    num_output: 128
    kernel_h: 1
    kernel_w: 9
    pad_h: 0
    pad_w: 4
    stride: 1
    bias_term: false
    weight_filler { type: "gaussian" std: 0.01863 }
  }
}
layer {
  name: "SCNN_U_26/relu"
  bottom: "SCNN_U_26/message"
  top: "SCNN_U_26/message"
  type: "ReLU"
}
layer {
  name: "SCNN_U_26/sum"
  bottom: "SCNN_U_26/message"
  bottom: "SCNN_D_25"
  top: "SCNN_U_25"
  type: "Eltwise"
  eltwise_param {
    operation: SUM
  }
}
layer {
  name: "SCNN_U_25"
  bottom: "SCNN_U_25"
  top: "SCNN_U_25/message"
  type: "Convolution"
  param { 
    name: "SCNN_U_w"
    lr_mult: 1 
    decay_mult: 1 
  }
  convolution_param {
    num_output: 128
    kernel_h: 1
    kernel_w: 9
    pad_h: 0
    pad_w: 4
    stride: 1
    bias_term: false
    weight_filler { type: "gaussian" std: 0.01863 }
  }
}
layer {
  name: "SCNN_U_25/relu"
  bottom: "SCNN_U_25/message"
  top: "SCNN_U_25/message"
  type: "ReLU"
}
layer {
  name: "SCNN_U_25/sum"
  bottom: "SCNN_U_25/message"
  bottom: "SCNN_D_24"
  top: "SCNN_U_24"
  type: "Eltwise"
  eltwise_param {
    operation: SUM
  }
}
layer {
  name: "SCNN_U_24"
  bottom: "SCNN_U_24"
  top: "SCNN_U_24/message"
  type: "Convolution"
  param { 
    name: "SCNN_U_w"
    lr_mult: 1 
    decay_mult: 1 
  }
  convolution_param {
    num_output: 128
    kernel_h: 1
    kernel_w: 9
    pad_h: 0
    pad_w: 4
    stride: 1
    bias_term: false
    weight_filler { type: "gaussian" std: 0.01863 }
  }
}
layer {
  name: "SCNN_U_24/relu"
  bottom: "SCNN_U_24/message"
  top: "SCNN_U_24/message"
  type: "ReLU"
}
layer {
  name: "SCNN_U_24/sum"
  bottom: "SCNN_U_24/message"
  bottom: "SCNN_D_23"
  top: "SCNN_U_23"
  type: "Eltwise"
  eltwise_param {
    operation: SUM
  }
}
layer {
  name: "SCNN_U_23"
  bottom: "SCNN_U_23"
  top: "SCNN_U_23/message"
  type: "Convolution"
  param { 
    name: "SCNN_U_w"
    lr_mult: 1 
    decay_mult: 1 
  }
  convolution_param {
    num_output: 128
    kernel_h: 1
    kernel_w: 9
    pad_h: 0
    pad_w: 4
    stride: 1
    bias_term: false
    weight_filler { type: "gaussian" std: 0.01863 }
  }
}
layer {
  name: "SCNN_U_23/relu"
  bottom: "SCNN_U_23/message"
  top: "SCNN_U_23/message"
  type: "ReLU"
}
layer {
  name: "SCNN_U_23/sum"
  bottom: "SCNN_U_23/message"
  bottom: "SCNN_D_22"
  top: "SCNN_U_22"
  type: "Eltwise"
  eltwise_param {
    operation: SUM
  }
}
layer {
  name: "SCNN_U_22"
  bottom: "SCNN_U_22"
  top: "SCNN_U_22/message"
  type: "Convolution"
  param { 
    name: "SCNN_U_w"
    lr_mult: 1 
    decay_mult: 1 
  }
  convolution_param {
    num_output: 128
    kernel_h: 1
    kernel_w: 9
    pad_h: 0
    pad_w: 4
    stride: 1
    bias_term: false
    weight_filler { type: "gaussian" std: 0.01863 }
  }
}
layer {
  name: "SCNN_U_22/relu"
  bottom: "SCNN_U_22/message"
  top: "SCNN_U_22/message"
  type: "ReLU"
}
layer {
  name: "SCNN_U_22/sum"
  bottom: "SCNN_U_22/message"
  bottom: "SCNN_D_21"
  top: "SCNN_U_21"
  type: "Eltwise"
  eltwise_param {
    operation: SUM
  }
}
layer {
  name: "SCNN_U_21"
  bottom: "SCNN_U_21"
  top: "SCNN_U_21/message"
  type: "Convolution"
  param { 
    name: "SCNN_U_w"
    lr_mult: 1 
    decay_mult: 1 
  }
  convolution_param {
    num_output: 128
    kernel_h: 1
    kernel_w: 9
    pad_h: 0
    pad_w: 4
    stride: 1
    bias_term: false
    weight_filler { type: "gaussian" std: 0.01863 }
  }
}
layer {
  name: "SCNN_U_21/relu"
  bottom: "SCNN_U_21/message"
  top: "SCNN_U_21/message"
  type: "ReLU"
}
layer {
  name: "SCNN_U_21/sum"
  bottom: "SCNN_U_21/message"
  bottom: "SCNN_D_20"
  top: "SCNN_U_20"
  type: "Eltwise"
  eltwise_param {
    operation: SUM
  }
}
layer {
  name: "SCNN_U_20"
  bottom: "SCNN_U_20"
  top: "SCNN_U_20/message"
  type: "Convolution"
  param { 
    name: "SCNN_U_w"
    lr_mult: 1 
    decay_mult: 1 
  }
  convolution_param {
    num_output: 128
    kernel_h: 1
    kernel_w: 9
    pad_h: 0
    pad_w: 4
    stride: 1
    bias_term: false
    weight_filler { type: "gaussian" std: 0.01863 }
  }
}
layer {
  name: "SCNN_U_20/relu"
  bottom: "SCNN_U_20/message"
  top: "SCNN_U_20/message"
  type: "ReLU"
}
layer {
  name: "SCNN_U_20/sum"
  bottom: "SCNN_U_20/message"
  bottom: "SCNN_D_19"
  top: "SCNN_U_19"
  type: "Eltwise"
  eltwise_param {
    operation: SUM
  }
}
layer {
  name: "SCNN_U_19"
  bottom: "SCNN_U_19"
  top: "SCNN_U_19/message"
  type: "Convolution"
  param { 
    name: "SCNN_U_w"
    lr_mult: 1 
    decay_mult: 1 
  }
  convolution_param {
    num_output: 128
    kernel_h: 1
    kernel_w: 9
    pad_h: 0
    pad_w: 4
    stride: 1
    bias_term: false
    weight_filler { type: "gaussian" std: 0.01863 }
  }
}
layer {
  name: "SCNN_U_19/relu"
  bottom: "SCNN_U_19/message"
  top: "SCNN_U_19/message"
  type: "ReLU"
}
layer {
  name: "SCNN_U_19/sum"
  bottom: "SCNN_U_19/message"
  bottom: "SCNN_D_18"
  top: "SCNN_U_18"
  type: "Eltwise"
  eltwise_param {
    operation: SUM
  }
}
layer {
  name: "SCNN_U_18"
  bottom: "SCNN_U_18"
  top: "SCNN_U_18/message"
  type: "Convolution"
  param { 
…
    kernel_h: 9
    kernel_w: 1
    pad_h: 4
    pad_w: 0
    stride: 1
    bias_term: false
    weight_filler { type: "gaussian" std: 0.01863 }
  }
}
layer {
  name: "SCNN_R_14/relu"
  bottom: "SCNN_R_14/message"
  top: "SCNN_R_14/message"
  type: "ReLU"
}
layer {
  name: "SCNN_R_14/sum"
  bottom: "SCNN_R_14/message"
  bottom: "slice2_15"
  top: "SCNN_R_15"
  type: "Eltwise"
  eltwise_param {
    operation: SUM
  }
}
layer {
  name: "SCNN_R_15"
  bottom: "SCNN_R_15"
  top: "SCNN_R_15/message"
  type: "Convolution"
  param { 
    name: "SCNN_R_w"
    lr_mult: 1 
    decay_mult: 1 
  }
  convolution_param {
    num_output: 128
    kernel_h: 9
    kernel_w: 1
    pad_h: 4
    pad_w: 0
    stride: 1
    bias_term: false
    weight_filler { type: "gaussian" std: 0.01863 }
  }
}
layer {
  name: "SCNN_R_15/relu"
  bottom: "SCNN_R_15/message"
  top: "SCNN_R_15/message"
  type: "ReLU"
}
layer {
  name: "SCNN_R_15/sum"
  bottom: "SCNN_R_15/message"
  bottom: "slice2_16"
  top: "SCNN_R_16"
  type: "Eltwise"
  eltwise_param {
    operation: SUM
  }
}
layer {
  name: "SCNN_R_16"
  bottom: "SCNN_R_16"
  top: "SCNN_R_16/message"
  type: "Convolution"
  param { 
    name: "SCNN_R_w"
    lr_mult: 1 
    decay_mult: 1 
  }
  convolution_param {
    num_output: 128
    kernel_h: 9
    kernel_w: 1
    pad_h: 4
    pad_w: 0
    stride: 1
    bias_term: false
    weight_filler { type: "gaussian" std: 0.01863 }
  }
}
layer {
  name: "SCNN_R_16/relu"
  bottom: "SCNN_R_16/message"
  top: "SCNN_R_16/message"
  type: "ReLU"
}
layer {
  name: "SCNN_R_16/sum"
  bottom: "SCNN_R_16/message"
  bottom: "slice2_17"
  top: "SCNN_R_17"
  type: "Eltwise"
  eltwise_param {
    operation: SUM
  }
}
layer {
  name: "SCNN_R_17"
  bottom: "SCNN_R_17"
  top: "SCNN_R_17/message"
  type: "Convolution"
  param { 
    name: "SCNN_R_w"
    lr_mult: 1 
    decay_mult: 1 
  }
  convolution_param {
    num_output: 128
    kernel_h: 9
    kernel_w: 1
    pad_h: 4
    pad_w: 0
    stride: 1
    bias_term: false
    weight_filler { type: "gaussian" std: 0.01863 }
  }
}
layer {
  name: "SCNN_R_17/relu"
  bottom: "SCNN_R_17/message"
  top: "SCNN_R_17/message"
  type: "ReLU"
}
layer {
  name: "SCNN_R_17/sum"
  bottom: "SCNN_R_17/message"
  bottom: "slice2_18"
  top: "SCNN_R_18"
  type: "Eltwise"
  eltwise_param {
    operation: SUM
  }
}
layer {
  name: "SCNN_R_18"
  bottom: "SCNN_R_18"
  top: "SCNN_R_18/message"
  type: "Convolution"
  param { 
    name: "SCNN_R_w"
    lr_mult: 1 
    decay_mult: 1 
  }
  convolution_param {
    num_output: 128
    kernel_h: 9
    kernel_w: 1
    pad_h: 4
    pad_w: 0
    stride: 1
    bias_term: false
    weight_filler { type: "gaussian" std: 0.01863 }
  }
}
layer {
  name: "SCNN_R_18/relu"
  bottom: "SCNN_R_18/message"
  top: "SCNN_R_18/message"
  type: "ReLU"
}
layer {
  name: "SCNN_R_18/sum"
  bottom: "SCNN_R_18/message"
  bottom: "slice2_19"
  top: "SCNN_R_19"
  type: "Eltwise"
  eltwise_param {
    operation: SUM
  }
}
layer {
  name: "SCNN_R_19"
  bottom: "SCNN_R_19"
  top: "SCNN_R_19/message"
  type: "Convolution"
  param { 
    name: "SCNN_R_w"
    lr_mult: 1 
    decay_mult: 1 
  }
  convolution_param {
    num_output: 128
    kernel_h: 9
    kernel_w: 1
    pad_h: 4
    pad_w: 0
    stride: 1
    bias_term: false
    weight_filler { type: "gaussian" std: 0.01863 }
  }
}
layer {
  name: "SCNN_R_19/relu"
  bottom: "SCNN_R_19/message"
  top: "SCNN_R_19/message"
  type: "ReLU"
}
layer {
  name: "SCNN_R_19/sum"
  bottom: "SCNN_R_19/message"
  bottom: "slice2_20"
  top: "SCNN_R_20"
  type: "Eltwise"
  eltwise_param {
    operation: SUM
  }
}
layer {
  name: "SCNN_R_20"
  bottom: "SCNN_R_20"
  top: "SCNN_R_20/message"
  type: "Convolution"
  param { 
    name: "SCNN_R_w"
    lr_mult: 1 
    decay_mult: 1 
  }
  convolution_param {
    num_output: 128
    kernel_h: 9
    kernel_w: 1
    pad_h: 4
    pad_w: 0
    stride: 1
    bias_term: false
    weight_filler { type: "gaussian" std: 0.01863 }
  }
}
layer {
  name: "SCNN_R_20/relu"
  bottom: "SCNN_R_20/message"
  top: "SCNN_R_20/message"
  type: "ReLU"
}
layer {
  name: "SCNN_R_20/sum"
  bottom: "SCNN_R_20/message"
  bottom: "slice2_21"
  top: "SCNN_R_21"
  type: "Eltwise"
  eltwise_param {
    operation: SUM
  }
}
layer {
  name: "SCNN_R_21"
  bottom: "SCNN_R_21"
  top: "SCNN_R_21/message"
  type: "Convolution"
  param { 
    name: "SCNN_R_w"
    lr_mult: 1 
    decay_mult: 1 
  }
  convolution_param {
    num_output: 128
    kernel_h: 9
    kernel_w: 1
    pad_h: 4
    pad_w: 0
    stride: 1
    bias_term: false
    weight_filler { type: "gaussian" std: 0.01863 }
  }
}
layer {
  name: "SCNN_R_21/relu"
  bottom: "SCNN_R_21/message"
  top: "SCNN_R_21/message"
  type: "ReLU"
}
layer {
  name: "SCNN_R_21/sum"
  bottom: "SCNN_R_21/message"
  bottom: "slice2_22"
  top: "SCNN_R_22"
  type: "Eltwise"
  eltwise_param {
    operation: SUM
  }
}
layer {
  name: "SCNN_R_22"
  bottom: "SCNN_R_22"
  top: "SCNN_R_22/message"
  type: "Convolution"
  param { 
    name: "SCNN_R_w"
    lr_mult: 1 
    decay_mult: 1 
  }
  convolution_param {
    num_output: 128
    kernel_h: 9
    kernel_w: 1
    pad_h: 4
    pad_w: 0
    stride: 1
    bias_term: false
    weight_filler { type: "gaussian" std: 0.01863 }
  }
}
layer {
  name: "SCNN_R_22/relu"
  bottom: "SCNN_R_22/message"
  top: "SCNN_R_22/message"
  type: "ReLU"
}
layer {
  name: "SCNN_R_22/sum"
  bottom: "SCNN_R_22/message"
  bottom: "slice2_23"
  top: "SCNN_R_23"
  type: "Eltwise"
  eltwise_param {
    operation: SUM
  }
}
layer {
  name: "SCNN_R_23"
  bottom: "SCNN_R_23"
  top: "SCNN_R_23/message"
  type: "Convolution"
  param { 
    name: "SCNN_R_w"
    lr_mult: 1 
    decay_mult: 1 
  }
  convolution_param {
    num_output: 128
    kernel_h: 9
    kernel_w: 1
    pad_h: 4
    pad_w: 0
    stride: 1
    bias_term: false
    weight_filler { type: "gaussian" std: 0.01863 }
  }
}
layer {
  name: "SCNN_R_23/relu"
  bottom: "SCNN_R_23/message"
  top: "SCNN_R_23/message"
  type: "ReLU"
}
layer {
  name: "SCNN_R_23/sum"
  bottom: "SCNN_R_23/message"
  bottom: "slice2_24"
  top: "SCNN_R_24"
  type: "Eltwise"
  eltwise_param {
    operation: SUM
  }
}
layer {
  name: "SCNN_R_24"
  bottom: "SCNN_R_24"
  top: "SCNN_R_24/message"
  type: "Convolution"
  param { 
    name: "SCNN_R_w"
    lr_mult: 1 
    decay_mult: 1 
  }
  convolution_param {
    num_output: 128
    kernel_h: 9
    kernel_w: 1
    pad_h: 4
    pad_w: 0
    stride: 1
    bias_term: false
    weight_filler { type: "gaussian" std: 0.01863 }
  }
}
layer {
  name: "SCNN_R_24/relu"
  bottom: "SCNN_R_24/message"
  top: "SCNN_R_24/message"
  type: "ReLU"
}
layer {
  name: "SCNN_R_24/sum"
  bottom: "SCNN_R_24/message"
  bottom: "slice2_25"
  top: "SCNN_R_25"
  type: "Eltwise"
  eltwise_param {
    operation: SUM
  }
}
layer {
  name: "SCNN_R_25"
  bottom: "SCNN_R_25"
  top: "SCNN_R_25/message"
  type: "Convolution"
  param { 
    name: "SCNN_R_w"
    lr_mult: 1 
    decay_mult: 1 
  }
  convolution_param {
    num_output: 128
    kernel_h: 9
    kernel_w: 1
    pad_h: 4
    pad_w: 0
    stride: 1
    bias_term: false
    weight_filler { type: "gaussian" std: 0.01863 }
  }
}
layer {
  name: "SCNN_R_25/relu"
  bottom: "SCNN_R_25/message"
  top: "SCNN_R_25/message"
  type: "ReLU"
}
layer {
  name: "SCNN_R_25/sum"
  bottom: "SCNN_R_25/message"
  bottom: "slice2_26"
  top: "SCNN_R_26"
  type: "Eltwise"
  eltwise_param {
    operation: SUM
  }
}
layer {
  name: "SCNN_R_26"
  bottom: "SCNN_R_26"
  top: "SCNN_R_26/message"
  type: "Convolution"
  param { 
    name: "SCNN_R_w"
    lr_mult: 1 
    decay_mult: 1 
  }
  convolution_param {
    num_output: 128
    kernel_h: 9
    kernel_w: 1
    pad_h: 4
    pad_w: 0
    stride: 1
    bias_term: false
    weight_filler { type: "gaussian" std: 0.01863 }
  }
}
layer {
  name: "SCNN_R_26/relu"
  bottom: "SCNN_R_26/message"
  top: "SCNN_R_26/message"
  type: "ReLU"
}
layer {
  name: "SCNN_R_26/sum"
  bottom: "SCNN_R_26/message"
  bottom: "slice2_27"
  top: "SCNN_R_27"
  type: "Eltwise"
  eltwise_param {
    operation: SUM
  }
}
layer {
  name: "SCNN_R_27"
  bottom: "SCNN_R_27"
  top: "SCNN_R_27/message"
  type: "Convolution"
  param { 
    name: "SCNN_R_w"
    lr_mult: 1 
    decay_mult: 1 
  }
  convolution_param {
    num_output: 128
    kernel_h: 9
    kernel_w: 1
    pad_h: 4
    pad_w: 0
    stride: 1
    bias_term: false
    weight_filler { type: "gaussian" std: 0.01863 }
  }
}
layer {
  name: "SCNN_R_27/relu"
  bottom: "SCNN_R_27/message"
  top: "SCNN_R_27/message"
  type: "ReLU"
}
layer {
  name: "SCNN_R_27/sum"
  bottom: "SCNN_R_27/message"
  bottom: "slice2_28"
  top: "SCNN_R_28"
  type: "Eltwise"
  eltwise_param {
    operation: SUM
  }
}
layer {
  name: "SCNN_R_28"
  bottom: "SCNN_R_28"
  top: "SCNN_R_28/message"
  type: "Convolution"
  param { 
    name: "SCNN_R_w"
    lr_mult: 1 
    decay_mult: 1 
  }
  convolution_param {
    num_output: 128
    kernel_h: 9
    kernel_w: 1
    pad_h: 4
    pad_w: 0
    stride: 1
    bias_term: false
    weight_filler { type: "gaussian" std: 0.01863 }
  }
}
layer {
  name: "SCNN_R_28/relu"
  bottom: "SCNN_R_28/message"
  top: "SCNN_R_28/message"
  type: "ReLU"
}
layer {
  name: "SCNN_R_28/sum"
  bottom: "SCNN_R_28/message"
  bottom: "slice2_29"
  top: "SCNN_R_29"
  type: "Eltwise"
  eltwise_param {
    operation: SUM
  }
}
layer {
  name: "SCNN_R_29"
  bottom: "SCNN_R_29"
  top: "SCNN_R_29/message"
  type: "Convolution"
  param { 
    name: "SCNN_R_w"
    lr_mult: 1 
    decay_mult: 1 
  }
  convolution_param {
    num_output: 128
    kernel_h: 9
    kernel_w: 1
    pad_h: 4
    pad_w: 0
    stride: 1
    bias_term: false
    weight_filler { type: "gaussian" std: 0.01863 }
  }
}
layer {
  name: "SCNN_R_29/relu"
  bottom: "SCNN_R_29/message"
  top: "SCNN_R_29/message"
  type: "ReLU"
}
layer {
  name: "SCNN_R_29/sum"
  bottom: "SCNN_R_29/message"
  bottom: "slice2_30"
  top: "SCNN_R_30"
  type: "Eltwise"
  eltwise_param {
    operation: SUM
  }
}
layer {
  name: "SCNN_R_30"
  bottom: "SCNN_R_30"
  top: "SCNN_R_30/message"
  type: "Convolution"
  param { 
    name: "SCNN_R_w"
    lr_mult: 1 
    decay_mult: 1 
  }
  convolution_param {
    num_output: 128
    kernel_h: 9
    kernel_w: 1
    pad_h: 4
    pad_w: 0
    stride: 1
    bias_term: false
    weight_filler { type: "gaussian" std: 0.01863 }
  }
}
layer {
  name: "SCNN_R_30/relu"
  bottom: "SCNN_R_30/message"
  top: "SCNN_R_30/message"
  type: "ReLU"
}
layer {
  name: "SCNN_R_30/sum"
  bottom: "SCNN_R_30/message"
  bottom: "slice2_31"
  top: "SCNN_R_31"
  type: "Eltwise"
  eltwise_param {
    operation: SUM
  }
}
layer {
  name: "SCNN_R_31"
  bottom: "SCNN_R_31"
  top: "SCNN_R_31/message"
  type: "Convolution"
  param { 
    name: "SCNN_R_w"
    lr_mult: 1 
    decay_mult: 1 
  }
  convolution_param {
    num_output: 128
    kernel_h: 9
    kernel_w: 1
    pad_h: 4
    pad_w: 0
    stride: 1
    bias_term: false
    weight_filler { type: "gaussian" std: 0.01863 }
  }
}
layer {
  name: "SCNN_R_31/relu"
  bottom: "SCNN_R_31/message"
  top: "SCNN_R_31/message"
  type: "ReLU"
}
layer {
  name: "SCNN_R_31/sum"
  bottom: "SCNN_R_31/message"
  bottom: "slice2_32"
  top: "SCNN_R_32"
  type: "Eltwise"
  eltwise_param {
    operation: SUM
  }
}
layer {
  name: "SCNN_R_32"
  bottom: "SCNN_R_32"
  top: "SCNN_R_32/message"
  type: "Convolution"
  param { 
    name: "SCNN_R_w"
    lr_mult: 1 
    decay_mult: 1 
  }
  convolution_param {
    num_output: 128
    kernel_h: 9
    kernel_w: 1
    pad_h: 4
    pad_w: 0
    stride: 1
    bias_term: false
    weight_filler { type: "gaussian" std: 0.01863 }
  }
}
layer {
  name: "SCNN_R_32/relu"
  bottom: "SCNN_R_32/message"
  top: "SCNN_R_32/message"
  type: "ReLU"
}
layer {
  name: "SCNN_R_32/sum"
  bottom: "SCNN_R_32/message"
  bottom: "slice2_33"
  top: "SCNN_R_33"
  type: "Eltwise"
  eltwise_param {
    operation: SUM
  }
}
layer {
  name: "SCNN_R_33"
  bottom: "SCNN_R_33"
  top: "SCNN_R_33/message"
  type: "Convolution"
  param { 
    name: "SCNN_R_w"
    lr_mult: 1 
    decay_mult: 1 
  }
  convolution_param {
    num_output: 128
    kernel_h: 9
    kernel_w: 1
    pad_h: 4
    pad_w: 0
    stride: 1
    bias_term: false
    weight_filler { type: "gaussian" std: 0.01863 }
  }
}
layer {
  name: "SCNN_R_33/relu"
  bottom: "SCNN_R_33/message"
  top: "SCNN_R_33/message"
  type: "ReLU"
}
layer {
  name: "SCNN_R_33/sum"
  bottom: "SCNN_R_33/message"
  bottom: "slice2_34"
  top: "SCNN_R_34"
  type: "Eltwise"
  eltwise_param {
    operation: SUM
  }
}
layer {
  name: "SCNN_R_34"
  bottom: "SCNN_R_34"
  top: "SCNN_R_34/message"
  type: "Convolution"
  param { 
    name: "SCNN_R_w"
    lr_mult: 1 
    decay_mult: 1 
  }
  convolution_param {
    num_output: 128
    kernel_h: 9
    kernel_w: 1
    pad_h: 4
    pad_w: 0
    stride: 1
    bias_term: false
    weight_filler { type: "gaussian" std: 0.01863 }
  }
}
layer {
  name: "SCNN_R_34/relu"
  bottom: "SCNN_R_34/message"
  top: "SCNN_R_34/message"
  type: "ReLU"
}
layer {
  name: "SCNN_R_34/sum"
  bottom: "SCNN_R_34/message"
  bottom: "slice2_35"
  top: "SCNN_R_35"
  type: "Eltwise"
  eltwise_param {
    operation: SUM
  }
}
layer {
  name: "SCNN_R_35"
  bottom: "SCNN_R_35"
  top: "SCNN_R_35/message"
  type: "Convolution"
  param { 
    name: "SCNN_R_w"
    lr_mult: 1 
    decay_mult: 1 
  }
  convolution_param {
    num_output: 128
    kernel_h: 9
    kernel_w: 1
    pad_h: 4
    pad_w: 0
    stride: 1
    bias_term: false
    weight_filler { type: "gaussian" std: 0.01863 }
  }
}
layer {
  name: "SCNN_R_35/relu"
  bottom: "SCNN_R_35/message"
  top: "SCNN_R_35/message"
  type: "ReLU"
}
layer {
  name: "SCNN_R_35/sum"
  bottom: "SCNN_R_35/message"
  bottom: "slice2_36"
  top: "SCNN_R_36"
  type: "Eltwise"
  eltwise_param {
    operation: SUM
  }
}
layer {
  name: "SCNN_R_36"
  bottom: "SCNN_R_36"
  top: "SCNN_R_36/message"
  type: "Convolution"
  param { 
    name: "SCNN_R_w"
    lr_mult: 1 
    decay_mult: 1 
  }
  convolution_param {
    num_output: 128
    kernel_h: 9
    kernel_w: 1
    pad_h: 4
    pad_w: 0
    stride: 1
    bias_term: false
    weight_filler { type: "gaussian" std: 0.01863 }
  }
}
layer {
  name: "SCNN_R_36/relu"
  bottom: "SCNN_R_36/message"
  top: "SCNN_R_36/message"
  type: "ReLU"
}
layer {
  name: "SCNN_R_36/sum"
  bottom: "SCNN_R_36/message"
  bottom: "slice2_37"
  top: "SCNN_R_37"
  type: "Eltwise"
  eltwise_param {
    operation: SUM
  }
}
layer {
  name: "SCNN_R_37"
  bottom: "SCNN_R_37"
  top: "SCNN_R_37/message"
  type: "Convolution"
  param { 
    name: "SCNN_R_w"
    lr_mult: 1 
    decay_mult: 1 
  }
  convolution_param {
    num_output: 128
    kernel_h: 9
    kernel_w: 1
    pad_h: 4
    pad_w: 0
    stride: 1
    bias_term: false
    weight_filler { type: "gaussian" std: 0.01863 }
  }
}
layer {
  name: "SCNN_R_37/relu"
  bottom: "SCNN_R_37/message"
  top: "SCNN_R_37/message"
  type: "ReLU"
}
layer {
  name: "SCNN_R_37/sum"
  bottom: "SCNN_R_37/message"
  bottom: "slice2_38"
  top: "SCNN_R_38"
  type: "Eltwise"
  eltwise_param {
    operation: SUM
  }
}
layer {
  name: "SCNN_R_38"
  bottom: "SCNN_R_38"
  top: "SCNN_R_38/message"
  type: "Convolution"
  param { 
    name: "SCNN_R_w"
    lr_mult: 1 
    decay_mult: 1 
  }
  convolution_param {
    num_output: 128
    kernel_h: 9
    kernel_w: 1
    pad_h: 4
    pad_w: 0
    stride: 1
    bias_term: false
    weight_filler { type: "gaussian" std: 0.01863 }
  }
}
layer {
  name: "SCNN_R_38/relu"
  bottom: "SCNN_R_38/message"
  top: "SCNN_R_38/message"
  type: "ReLU"
}
layer {
  name: "SCNN_R_38/sum"
  bottom: "SCNN_R_38/message"
  bottom: "slice2_39"
  top: "SCNN_R_39"
  type: "Eltwise"
  eltwise_param {
    operation: SUM
  }
}
layer {
  name: "SCNN_R_39"
  bottom: "SCNN_R_39"
  top: "SCNN_R_39/message"
  type: "Convolution"
  param { 
    name: "SCNN_R_w"
    lr_mult: 1 
    decay_mult: 1 
  }
  convolution_param {
    num_output: 128
    kernel_h: 9
    kernel_w: 1
    pad_h: 4
    pad_w: 0
    stride: 1
    bias_term: false
    weight_filler { type: "gaussian" std: 0.01863 }
  }
}
layer {
  name: "SCNN_R_39/relu"
  bottom: "SCNN_R_39/message"
  top: "SCNN_R_39/message"
  type: "ReLU"
}
layer {
  name: "SCNN_R_39/sum"
  bottom: "SCNN_R_39/message"
  bottom: "slice2_40"
  top: "SCNN_R_40"
  type: "Eltwise"
  eltwise_param {
    operation: SUM
  }
}
layer {
  name: "SCNN_R_40"
  bottom: "SCNN_R_40"
  top: "SCNN_R_40/message"
  type: "Convolution"
  param { 
    name: "SCNN_R_w"
    lr_mult: 1 
    decay_mult: 1 
  }
  convolution_param {
    num_output: 128
    kernel_h: 9
    kernel_w: 1
    pad_h: 4
    pad_w: 0
    stride: 1
    bias_term: false
    weight_filler { type: "gaussian" std: 0.01863 }
  }
}
layer {
  name: "SCNN_R_40/relu"
  bottom: "SCNN_R_40/message"
  top: "SCNN_R_40/message"
  type: "ReLU"
}
layer {
  name: "SCNN_R_40/sum"
  bottom: "SCNN_R_40/message"
  bottom: "slice2_41"
  top: "SCNN_R_41"
  type: "Eltwise"
  eltwise_param {
    operation: SUM
  }
}
layer {
  name: "SCNN_R_41"
  bottom: "SCNN_R_41"
  top: "SCNN_R_41/message"
  type: "Convolution"
  param { 
    name: "SCNN_R_w"
    lr_mult: 1 
    decay_mult: 1 
  }
  convolution_param {
    num_output: 128
    kernel_h: 9
    kernel_w: 1
    pad_h: 4
    pad_w: 0
    stride: 1
    bias_term: false
    weight_filler { type: "gaussian" std: 0.01863 }
  }
}
layer {
  name: "SCNN_R_41/relu"
  bottom: "SCNN_R_41/message"
  top: "SCNN_R_41/message"
  type: "ReLU"
}
layer {
  name: "SCNN_R_41/sum"
  bottom: "SCNN_R_41/message"
  bottom: "slice2_42"
  top: "SCNN_R_42"
  type: "Eltwise"
  eltwise_param {
    operation: SUM
  }
}
layer {
  name: "SCNN_R_42"
  bottom: "SCNN_R_42"
  top: "SCNN_R_42/message"
  type: "Convolution"
  param { 
    name: "SCNN_R_w"
    lr_mult: 1 
    decay_mult: 1 
  }
  convolution_param {
    num_output: 128
    kernel_h: 9
    kernel_w: 1
    pad_h: 4
    pad_w: 0
    stride: 1
    bias_term: false
    weight_filler { type: "gaussian" std: 0.01863 }
  }
}
layer {
  name: "SCNN_R_42/relu"
  bottom: "SCNN_R_42/message"
  top: "SCNN_R_42/message"
  type: "ReLU"
}
layer {
  name: "SCNN_R_42/sum"
  bottom: "SCNN_R_42/message"
  bottom: "slice2_43"
  top: "SCNN_R_43"
  type: "Eltwise"
  eltwise_param {
    operation: SUM
  }
}
layer {
  name: "SCNN_R_43"
  bottom: "SCNN_R_43"
  top: "SCNN_R_43/message"
  type: "Convolution"
  param { 
    name: "SCNN_R_w"
    lr_mult: 1 
    decay_mult: 1 
  }
  convolution_param {
    num_output: 128
    kernel_h: 9
    kernel_w: 1
    pad_h: 4
    pad_w: 0
    stride: 1
    bias_term: false
    weight_filler { type: "gaussian" std: 0.01863 }
  }
}
layer {
  name: "SCNN_R_43/relu"
  bottom: "SCNN_R_43/message"
  top: "SCNN_R_43/message"
  type: "ReLU"
}
layer {
  name: "SCNN_R_43/sum"
  bottom: "SCNN_R_43/message"
  bottom: "slice2_44"
  top: "SCNN_R_44"
  type: "Eltwise"
  eltwise_param {
    operation: SUM
  }
}
layer {
  name: "SCNN_R_44"
  bottom: "SCNN_R_44"
  top: "SCNN_R_44/message"
  type: "Convolution"
  param { 
    name: "SCNN_R_w"
    lr_mult: 1 
    decay_mult: 1 
  }
  convolution_param {
    num_output: 128
    kernel_h: 9
    kernel_w: 1
    pad_h: 4
    pad_w: 0
    stride: 1
    bias_term: false
    weight_filler { type: "gaussian" std: 0.01863 }
  }
}
layer {
  name: "SCNN_R_44/relu"
  bottom: "SCNN_R_44/message"
  top: "SCNN_R_44/message"
  type: "ReLU"
}
layer {
  name: "SCNN_R_44/sum"
  bottom: "SCNN_R_44/message"
  bottom: "slice2_45"
  top: "SCNN_R_45"
  type: "Eltwise"
  eltwise_param {
    operation: SUM
  }
}
layer {
  name: "SCNN_R_45"
  bottom: "SCNN_R_45"
  top: "SCNN_R_45/message"
  type: "Convolution"
  param { 
    name: "SCNN_R_w"
    lr_mult: 1 
    decay_mult: 1 
  }
  convolution_param {
    num_output: 128
    kernel_h: 9
    kernel_w: 1
    pad_h: 4
    pad_w: 0
    stride: 1
    bias_term: false
    weight_filler { type: "gaussian" std: 0.01863 }
  }
}
layer {
  name: "SCNN_R_45/relu"
  bottom: "SCNN_R_45/message"
  top: "SCNN_R_45/message"
  type: "ReLU"
}
layer {
  name: "SCNN_R_45/sum"
  bottom: "SCNN_R_45/message"
  bottom: "slice2_46"
  top: "SCNN_R_46"
  type: "Eltwise"
  eltwise_param {
    operation: SUM
  }
}
layer {
  name: "SCNN_L_46"
  bottom: "SCNN_R_46"
  top: "SCNN_L_46/message"
  type: "Convolution"
  param { 
    name: "SCNN_L_w"
    lr_mult: 1 
    decay_mult: 1 
  }
  convolution_param {
    num_output: 128
    kernel_h: 9
    kernel_w: 1
    pad_h: 4
    pad_w: 0
    stride: 1
    bias_term: false
    weight_filler { type: "gaussian" std: 0.01863 }
  }
}
layer {
  name: "SCNN_L_46/relu"
  bottom: "SCNN_L_46/message"
  top: "SCNN_L_46/message"
  type: "ReLU"
}
layer {
  name: "SCNN_L_46/sum"
  bottom: "SCNN_L_46/message"
  bottom: "SCNN_R_45"
  top: "SCNN_L_45"
  type: "Eltwise"
  eltwise_param {
    operation: SUM
  }
}
layer {
  name: "SCNN_L_45"
  bottom: "SCNN_L_45"
  top: "SCNN_L_45/message"
  type: "Convolution"
  param { 
    name: "SCNN_L_w"
    lr_mult: 1 
    decay_mult: 1 
  }
  convolution_param {
    num_output: 128
    kernel_h: 9
    kernel_w: 1
    pad_h: 4
    pad_w: 0
    stride: 1
    bias_term: false
    weight_filler { type: "gaussian" std: 0.01863 }
  }
}
layer {
  name: "SCNN_L_45/relu"
  bottom: "SCNN_L_45/message"
  top: "SCNN_L_45/message"
  type: "ReLU"
}
layer {
  name: "SCNN_L_45/sum"
  bottom: "SCNN_L_45/message"
  bottom: "SCNN_R_44"
  top: "SCNN_L_44"
  type: "Eltwise"
  eltwise_param {
    operation: SUM
  }
}
layer {
  name: "SCNN_L_44"
  bottom: "SCNN_L_44"
  top: "SCNN_L_44/message"
  type: "Convolution"
  param { 
    name: "SCNN_L_w"
    lr_mult: 1 
    decay_mult: 1 
  }
  convolution_param {
    num_output: 128
    kernel_h: 9
    kernel_w: 1
    pad_h: 4
    pad_w: 0
    stride: 1
    bias_term: false
    weight_filler { type: "gaussian" std: 0.01863 }
  }
}
layer {
  name: "SCNN_L_44/relu"
  bottom: "SCNN_L_44/message"
  top: "SCNN_L_44/message"
  type: "ReLU"
}
layer {
  name: "SCNN_L_44/sum"
  bottom: "SCNN_L_44/message"
  bottom: "SCNN_R_43"
  top: "SCNN_L_43"
  type: "Eltwise"
  eltwise_param {
    operation: SUM
  }
}
layer {
  name: "SCNN_L_43"
  bottom: "SCNN_L_43"
  top: "SCNN_L_43/message"
  type: "Convolution"
  param { 
    name: "SCNN_L_w"
    lr_mult: 1 
    decay_mult: 1 
  }
  convolution_param {
    num_output: 128
    kernel_h: 9
    kernel_w: 1
    pad_h: 4
    pad_w: 0
    stride: 1
    bias_term: false
    weight_filler { type: "gaussian" std: 0.01863 }
  }
}
layer {
  name: "SCNN_L_43/relu"
  bottom: "SCNN_L_43/message"
  top: "SCNN_L_43/message"
  type: "ReLU"
}
layer {
  name: "SCNN_L_43/sum"
  bottom: "SCNN_L_43/message"
  bottom: "SCNN_R_42"
  top: "SCNN_L_42"
  type: "Eltwise"
  eltwise_param {
    operation: SUM
  }
}
layer {
  name: "SCNN_L_42"
  bottom: "SCNN_L_42"
  top: "SCNN_L_42/message"
  type: "Convolution"
  param { 
    name: "SCNN_L_w"
    lr_mult: 1 
    decay_mult: 1 
  }
  convolution_param {
    num_output: 128
    kernel_h: 9
    kernel_w: 1
    pad_h: 4
    pad_w: 0
    stride: 1
    bias_term: false
    weight_filler { type: "gaussian" std: 0.01863 }
  }
}
layer {
  name: "SCNN_L_42/relu"
  bottom: "SCNN_L_42/message"
  top: "SCNN_L_42/message"
  type: "ReLU"
}
layer {
  name: "SCNN_L_42/sum"
  bottom: "SCNN_L_42/message"
  bottom: "SCNN_R_41"
  top: "SCNN_L_41"
  type: "Eltwise"
  eltwise_param {
    operation: SUM
  }
}
layer {
  name: "SCNN_L_41"
  bottom: "SCNN_L_41"
  top: "SCNN_L_41/message"
  type: "Convolution"
  param { 
    name: "SCNN_L_w"
    lr_mult: 1 
    decay_mult: 1 
  }
  convolution_param {
    num_output: 128
    kernel_h: 9
    kernel_w: 1
    pad_h: 4
    pad_w: 0
    stride: 1
    bias_term: false
    weight_filler { type: "gaussian" std: 0.01863 }
  }
}
layer {
  name: "SCNN_L_41/relu"
  bottom: "SCNN_L_41/message"
  top: "SCNN_L_41/message"
  type: "ReLU"
}
layer {
  name: "SCNN_L_41/sum"
  bottom: "SCNN_L_41/message"
  bottom: "SCNN_R_40"
  top: "SCNN_L_40"
  type: "Eltwise"
  eltwise_param {
    operation: SUM
  }
}
layer {
  name: "SCNN_L_40"
  bottom: "SCNN_L_40"
  top: "SCNN_L_40/message"
  type: "Convolution"
  param { 
    name: "SCNN_L_w"
    lr_mult: 1 
    decay_mult: 1 
  }
  convolution_param {
    num_output: 128
    kernel_h: 9
    kernel_w: 1
    pad_h: 4
    pad_w: 0
    stride: 1
    bias_term: false
    weight_filler { type: "gaussian" std: 0.01863 }
  }
}
layer {
  name: "SCNN_L_40/relu"
  bottom: "SCNN_L_40/message"
  top: "SCNN_L_40/message"
  type: "ReLU"
}
layer {
  name: "SCNN_L_40/sum"
  bottom: "SCNN_L_40/message"
  bottom: "SCNN_R_39"
  top: "SCNN_L_39"
  type: "Eltwise"
  eltwise_param {
    operation: SUM
  }
}
layer {
  name: "SCNN_L_39"
  bottom: "SCNN_L_39"
  top: "SCNN_L_39/message"
  type: "Convolution"
  param { 
    name: "SCNN_L_w"
    lr_mult: 1 
    decay_mult: 1 
  }
  convolution_param {
    num_output: 128
    kernel_h: 9
    kernel_w: 1
    pad_h: 4
    pad_w: 0
    stride: 1
    bias_term: false
    weight_filler { type: "gaussian" std: 0.01863 }
  }
}
layer {
  name: "SCNN_L_39/relu"
  bottom: "SCNN_L_39/message"
  top: "SCNN_L_39/message"
  type: "ReLU"
}
layer {
  name: "SCNN_L_39/sum"
  bottom: "SCNN_L_39/message"
  bottom: "SCNN_R_38"
  top: "SCNN_L_38"
  type: "Eltwise"
  eltwise_param {
    operation: SUM
  }
}
layer {
  name: "SCNN_L_38"
  bottom: "SCNN_L_38"
  top: "SCNN_L_38/message"
  type: "Convolution"
  param { 
    name: "SCNN_L_w"
    lr_mult: 1 
    decay_mult: 1 
  }
  convolution_param {
    num_output: 128
    kernel_h: 9
    kernel_w: 1
    pad_h: 4
    pad_w: 0
    stride: 1
    bias_term: false
    weight_filler { type: "gaussian" std: 0.01863 }
  }
}
layer {
  name: "SCNN_L_38/relu"
  bottom: "SCNN_L_38/message"
  top: "SCNN_L_38/message"
  type: "ReLU"
}
layer {
  name: "SCNN_L_38/sum"
  bottom: "SCNN_L_38/message"
  bottom: "SCNN_R_37"
  top: "SCNN_L_37"
  type: "Eltwise"
  eltwise_param {
    operation: SUM
  }
}
layer {
  name: "SCNN_L_37"
  bottom: "SCNN_L_37"
  top: "SCNN_L_37/message"
  type: "Convolution"
  param { 
    name: "SCNN_L_w"
    lr_mult: 1 
    decay_mult: 1 
  }
  convolution_param {
    num_output: 128
    kernel_h: 9
    kernel_w: 1
    pad_h: 4
    pad_w: 0
    stride: 1
    bias_term: false
    weight_filler { type: "gaussian" std: 0.01863 }
  }
}
layer {
  name: "SCNN_L_37/relu"
  bottom: "SCNN_L_37/message"
  top: "SCNN_L_37/message"
  type: "ReLU"
}
layer {
  name: "SCNN_L_37/sum"
  bottom: "SCNN_L_37/message"
  bottom: "SCNN_R_36"
  top: "SCNN_L_36"
  type: "Eltwise"
  eltwise_param {
    operation: SUM
  }
}
layer {
  name: "SCNN_L_36"
  bottom: "SCNN_L_36"
  top: "SCNN_L_36/message"
  type: "Convolution"
  param { 
    name: "SCNN_L_w"
    lr_mult: 1 
    decay_mult: 1 
  }
  convolution_param {
    num_output: 128
    kernel_h: 9
    kernel_w: 1
    pad_h: 4
    pad_w: 0
    stride: 1
    bias_term: false
    weight_filler { type: "gaussian" std: 0.01863 }
  }
}
layer {
  name: "SCNN_L_36/relu"
  bottom: "SCNN_L_36/message"
  top: "SCNN_L_36/message"
  type: "ReLU"
}
layer {
  name: "SCNN_L_36/sum"
  bottom: "SCNN_L_36/message"
  bottom: "SCNN_R_35"
  top: "SCNN_L_35"
  type: "Eltwise"
  eltwise_param {
    operation: SUM
  }
}
layer {
  name: "SCNN_L_35"
  bottom: "SCNN_L_35"
  top: "SCNN_L_35/message"
  type: "Convolution"
  param { 
    name: "SCNN_L_w"
    lr_mult: 1 
    decay_mult: 1 
  }
  convolution_param {
    num_output: 128
    kernel_h: 9
    kernel_w: 1
    pad_h: 4
    pad_w: 0
    stride: 1
    bias_term: false
    weight_filler { type: "gaussian" std: 0.01863 }
  }
}
layer {
  name: "SCNN_L_35/relu"
  bottom: "SCNN_L_35/message"
  top: "SCNN_L_35/message"
  type: "ReLU"
}
layer {
  name: "SCNN_L_35/sum"
  bottom: "SCNN_L_35/message"
  bottom: "SCNN_R_34"
  top: "SCNN_L_34"
  type: "Eltwise"
  eltwise_param {
    operation: SUM
  }
}
layer {
  name: "SCNN_L_34"
  bottom: "SCNN_L_34"
  top: "SCNN_L_34/message"
  type: "Convolution"
  param { 
    name: "SCNN_L_w"
    lr_mult: 1 
    decay_mult: 1 
  }
  convolution_param {
    num_output: 128
    kernel_h: 9
    kernel_w: 1
    pad_h: 4
    pad_w: 0
    stride: 1
    bias_term: false
    weight_filler { type: "gaussian" std: 0.01863 }
  }
}
layer {
  name: "SCNN_L_34/relu"
  bottom: "SCNN_L_34/message"
  top: "SCNN_L_34/message"
  type: "ReLU"
}
layer {
  name: "SCNN_L_34/sum"
  bottom: "SCNN_L_34/message"
  bottom: "SCNN_R_33"
  top: "SCNN_L_33"
  type: "Eltwise"
  eltwise_param {
    operation: SUM
  }
}
layer {
  name: "SCNN_L_33"
  bottom: "SCNN_L_33"
  top: "SCNN_L_33/message"
  type: "Convolution"
  param { 
    name: "SCNN_L_w"
    lr_mult: 1 
    decay_mult: 1 
  }
  convolution_param {
    num_output: 128
    kernel_h: 9
    kernel_w: 1
    pad_h: 4
    pad_w: 0
    stride: 1
    bias_term: false
    weight_filler { type: "gaussian" std: 0.01863 }
  }
}
layer {
  name: "SCNN_L_33/relu"
  bottom: "SCNN_L_33/message"
  top: "SCNN_L_33/message"
  type: "ReLU"
}
layer {
  name: "SCNN_L_33/sum"
  bottom: "SCNN_L_33/message"
  bottom: "SCNN_R_32"
  top: "SCNN_L_32"
  type: "Eltwise"
  eltwise_param {
    operation: SUM
  }
}
layer {
  name: "SCNN_L_32"
  bottom: "SCNN_L_32"
  top: "SCNN_L_32/message"
  type: "Convolution"
  param { 
    name: "SCNN_L_w"
    lr_mult: 1 
    decay_mult: 1 
  }
  convolution_param {
    num_output: 128
    kernel_h: 9
    kernel_w: 1
    pad_h: 4
    pad_w: 0
    stride: 1
    bias_term: false
    weight_filler { type: "gaussian" std: 0.01863 }
  }
}
layer {
  name: "SCNN_L_32/relu"
  bottom: "SCNN_L_32/message"
  top: "SCNN_L_32/message"
  type: "ReLU"
}
layer {
  name: "SCNN_L_32/sum"
  bottom: "SCNN_L_32/message"
  bottom: "SCNN_R_31"
  top: "SCNN_L_31"
  type: "Eltwise"
  eltwise_param {
    operation: SUM
  }
}
layer {
  name: "SCNN_L_31"
  bottom: "SCNN_L_31"
  top: "SCNN_L_31/message"
  type: "Convolution"
  param { 
    name: "SCNN_L_w"
    lr_mult: 1 
    decay_mult: 1 
  }
  convolution_param {
    num_output: 128
    kernel_h: 9
    kernel_w: 1
    pad_h: 4
    pad_w: 0
    stride: 1
    bias_term: false
    weight_filler { type: "gaussian" std: 0.01863 }
  }
}
layer {
  name: "SCNN_L_31/relu"
  bottom: "SCNN_L_31/message"
  top: "SCNN_L_31/message"
  type: "ReLU"
}
layer {
  name: "SCNN_L_31/sum"
  bottom: "SCNN_L_31/message"
  bottom: "SCNN_R_30"
  top: "SCNN_L_30"
  type: "Eltwise"
  eltwise_param {
    operation: SUM
  }
}
layer {
  name: "SCNN_L_30"
  bottom: "SCNN_L_30"
  top: "SCNN_L_30/message"
  type: "Convolution"
  param { 
    name: "SCNN_L_w"
    lr_mult: 1 
    decay_mult: 1 
  }
  convolution_param {
    num_output: 128
    kernel_h: 9
    kernel_w: 1
    pad_h: 4
    pad_w: 0
    stride: 1
    bias_term: false
    weight_filler { type: "gaussian" std: 0.01863 }
  }
}
layer {
  name: "SCNN_L_30/relu"
  bottom: "SCNN_L_30/message"
  top: "SCNN_L_30/message"
  type: "ReLU"
}
layer {
  name: "SCNN_L_30/sum"
  bottom: "SCNN_L_30/message"
  bottom: "SCNN_R_29"
  top: "SCNN_L_29"
  type: "Eltwise"
  eltwise_param {
    operation: SUM
  }
}
layer {
  name: "SCNN_L_29"
  bottom: "SCNN_L_29"
  top: "SCNN_L_29/message"
  type: "Convolution"
  param { 
    name: "SCNN_L_w"
    lr_mult: 1 
    decay_mult: 1 
  }
  convolution_param {
    num_output: 128
    kernel_h: 9
    kernel_w: 1
    pad_h: 4
    pad_w: 0
    stride: 1
    bias_term: false
    weight_filler { type: "gaussian" std: 0.01863 }
  }
}
layer {
  name: "SCNN_L_29/relu"
  bottom: "SCNN_L_29/message"
  top: "SCNN_L_29/message"
  type: "ReLU"
}
layer {
  name: "SCNN_L_29/sum"
  bottom: "SCNN_L_29/message"
  bottom: "SCNN_R_28"
  top: "SCNN_L_28"
  type: "Eltwise"
  eltwise_param {
    operation: SUM
  }
}
layer {
  name: "SCNN_L_28"
  bottom: "SCNN_L_28"
  top: "SCNN_L_28/message"
  type: "Convolution"
  param { 
    name: "SCNN_L_w"
    lr_mult: 1 
    decay_mult: 1 
  }
  convolution_param {
    num_output: 128
    kernel_h: 9
    kernel_w: 1
    pad_h: 4
    pad_w: 0
    stride: 1
    bias_term: false
    weight_filler { type: "gaussian" std: 0.01863 }
  }
}
layer {
  name: "SCNN_L_28/relu"
  bottom: "SCNN_L_28/message"
  top: "SCNN_L_28/message"
  type: "ReLU"
}
layer {
  name: "SCNN_L_28/sum"
  bottom: "SCNN_L_28/message"
  bottom: "SCNN_R_27"
  top: "SCNN_L_27"
  type: "Eltwise"
  eltwise_param {
    operation: SUM
  }
}
layer {
  name: "SCNN_L_27"
  bottom: "SCNN_L_27"
  top: "SCNN_L_27/message"
  type: "Convolution"
  param { 
    name: "SCNN_L_w"
    lr_mult: 1 
    decay_mult: 1 
  }
  convolution_param {
    num_output: 128
    kernel_h: 9
    kernel_w: 1
    pad_h: 4
    pad_w: 0
    stride: 1
    bias_term: false
    weight_filler { type: "gaussian" std: 0.01863 }
  }
}
layer {
  name: "SCNN_L_27/relu"
  bottom: "SCNN_L_27/message"
  top: "SCNN_L_27/message"
  type: "ReLU"
}
layer {
  name: "SCNN_L_27/sum"
  bottom: "SCNN_L_27/message"
  bottom: "SCNN_R_26"
  top: "SCNN_L_26"
  type: "Eltwise"
  eltwise_param {
    operation: SUM
  }
}
layer {
  name: "SCNN_L_26"
  bottom: "SCNN_L_26"
  top: "SCNN_L_26/message"
  type: "Convolution"
  param { 
    name: "SCNN_L_w"
    lr_mult: 1 
    decay_mult: 1 
  }
  convolution_param {
    num_output: 128
    kernel_h: 9
    kernel_w: 1
    pad_h: 4
    pad_w: 0
    stride: 1
    bias_term: false
    weight_filler { type: "gaussian" std: 0.01863 }
  }
}
layer {
  name: "SCNN_L_26/relu"
  bottom: "SCNN_L_26/message"
  top: "SCNN_L_26/message"
  type: "ReLU"
}
layer {
  name: "SCNN_L_26/sum"
  bottom: "SCNN_L_26/message"
  bottom: "SCNN_R_25"
  top: "SCNN_L_25"
  type: "Eltwise"
  eltwise_param {
    operation: SUM
  }
}
layer {
  name: "SCNN_L_25"
  bottom: "SCNN_L_25"
  top: "SCNN_L_25/message"
  type: "Convolution"
  param { 
    name: "SCNN_L_w"
    lr_mult: 1 
    decay_mult: 1 
  }
  convolution_param {
    num_output: 128
    kernel_h: 9
    kernel_w: 1
    pad_h: 4
    pad_w: 0
    stride: 1
    bias_term: false
    weight_filler { type: "gaussian" std: 0.01863 }
  }
}
layer {
  name: "SCNN_L_25/relu"
  bottom: "SCNN_L_25/message"
  top: "SCNN_L_25/message"
  type: "ReLU"
}
layer {
  name: "SCNN_L_25/sum"
  bottom: "SCNN_L_25/message"
  bottom: "SCNN_R_24"
  top: "SCNN_L_24"
  type: "Eltwise"
  eltwise_param {
    operation: SUM
  }
}
layer {
  name: "SCNN_L_24"
  bottom: "SCNN_L_24"
  top: "SCNN_L_24/message"
  type: "Convolution"
  param { 
    name: "SCNN_L_w"
    lr_mult: 1 
    decay_mult: 1 
  }
  convolution_param {
    num_output: 128
    kernel_h: 9
    kernel_w: 1
    pad_h: 4
    pad_w: 0
    stride: 1
    bias_term: false
    weight_filler { type: "gaussian" std: 0.01863 }
  }
}
layer {
  name: "SCNN_L_24/relu"
  bottom: "SCNN_L_24/message"
  top: "SCNN_L_24/message"
  type: "ReLU"
}
layer {
  name: "SCNN_L_24/sum"
  bottom: "SCNN_L_24/message"
  bottom: "SCNN_R_23"
  top: "SCNN_L_23"
  type: "Eltwise"
  eltwise_param {
    operation: SUM
  }
}
layer {
  name: "SCNN_L_23"
  bottom: "SCNN_L_23"
  top: "SCNN_L_23/message"
  type: "Convolution"
  param { 
    name: "SCNN_L_w"
    lr_mult: 1 
    decay_mult: 1 
  }
  convolution_param {
    num_output: 128
    kernel_h: 9
    kernel_w: 1
    pad_h: 4
    pad_w: 0
    stride: 1
    bias_term: false
    weight_filler { type: "gaussian" std: 0.01863 }
  }
}
layer {
  name: "SCNN_L_23/relu"
  bottom: "SCNN_L_23/message"
  top: "SCNN_L_23/message"
  type: "ReLU"
}
layer {
  name: "SCNN_L_23/sum"
  bottom: "SCNN_L_23/message"
  bottom: "SCNN_R_22"
  top: "SCNN_L_22"
  type: "Eltwise"
  eltwise_param {
    operation: SUM
  }
}
layer {
  name: "SCNN_L_22"
  bottom: "SCNN_L_22"
  top: "SCNN_L_22/message"
  type: "Convolution"
  param { 
    name: "SCNN_L_w"
    lr_mult: 1 
    decay_mult: 1 
  }
  convolution_param {
    num_output: 128
    kernel_h: 9
    kernel_w: 1
    pad_h: 4
    pad_w: 0
    stride: 1
    bias_term: false
    weight_filler { type: "gaussian" std: 0.01863 }
  }
}
layer {
  name: "SCNN_L_22/relu"
  bottom: "SCNN_L_22/message"
  top: "SCNN_L_22/message"
  type: "ReLU"
}
layer {
  name: "SCNN_L_22/sum"
  bottom: "SCNN_L_22/message"
  bottom: "SCNN_R_21"
  top: "SCNN_L_21"
  type: "Eltwise"
  eltwise_param {
    operation: SUM
  }
}
layer {
  name: "SCNN_L_21"
  bottom: "SCNN_L_21"
  top: "SCNN_L_21/message"
  type: "Convolution"
  param { 
    name: "SCNN_L_w"
    lr_mult: 1 
    decay_mult: 1 
  }
  convolution_param {
    num_output: 128
    kernel_h: 9
    kernel_w: 1
    pad_h: 4
    pad_w: 0
    stride: 1
    bias_term: false
    weight_filler { type: "gaussian" std: 0.01863 }
  }
}
layer {
  name: "SCNN_L_21/relu"
  bottom: "SCNN_L_21/message"
  top: "SCNN_L_21/message"
  type: "ReLU"
}
layer {
  name: "SCNN_L_21/sum"
  bottom: "SCNN_L_21/message"
  bottom: "SCNN_R_20"
  top: "SCNN_L_20"
  type: "Eltwise"
  eltwise_param {
    operation: SUM
  }
}
layer {
  name: "SCNN_L_20"
  bottom: "SCNN_L_20"
  top: "SCNN_L_20/message"
  type: "Convolution"
  param { 
    name: "SCNN_L_w"
    lr_mult: 1 
    decay_mult: 1 
  }
  convolution_param {
    num_output: 128
    kernel_h: 9
    kernel_w: 1
    pad_h: 4
    pad_w: 0
    stride: 1
    bias_term: false
    weight_filler { type: "gaussian" std: 0.01863 }
  }
}
layer {
  name: "SCNN_L_20/relu"
  bottom: "SCNN_L_20/message"
  top: "SCNN_L_20/message"
  type: "ReLU"
}
layer {
  name: "SCNN_L_20/sum"
  bottom: "SCNN_L_20/message"
  bottom: "SCNN_R_19"
  top: "SCNN_L_19"
  type: "Eltwise"
  eltwise_param {
    operation: SUM
  }
}
layer {
  name: "SCNN_L_19"
  bottom: "SCNN_L_19"
  top: "SCNN_L_19/message"
  type: "Convolution"
  param { 
    name: "SCNN_L_w"
    lr_mult: 1 
    decay_mult: 1 
  }
  convolution_param {
    num_output: 128
    kernel_h: 9
    kernel_w: 1
    pad_h: 4
    pad_w: 0
    stride: 1
    bias_term: false
    weight_filler { type: "gaussian" std: 0.01863 }
  }
}
layer {
  name: "SCNN_L_19/relu"
  bottom: "SCNN_L_19/message"
  top: "SCNN_L_19/message"
  type: "ReLU"
}
layer {
  name: "SCNN_L_19/sum"
  bottom: "SCNN_L_19/message"
  bottom: "SCNN_R_18"
  top: "SCNN_L_18"
  type: "Eltwise"
  eltwise_param {
    operation: SUM
  }
}
layer {
  name: "SCNN_L_18"
  bottom: "SCNN_L_18"
  top: "SCNN_L_18/message"
  type: "Convolution"
  param { 
    name: "SCNN_L_w"
    lr_mult: 1 
    decay_mult: 1 
  }
  convolution_param {
    num_output: 128
    kernel_h: 9
    kernel_w: 1
    pad_h: 4
    pad_w: 0
    stride: 1
    bias_term: false
    weight_filler { type: "gaussian" std: 0.01863 }
  }
}
layer {
  name: "SCNN_L_18/relu"
  bottom: "SCNN_L_18/message"
  top: "SCNN_L_18/message"
  type: "ReLU"
}
layer {
  name: "SCNN_L_18/sum"
  bottom: "SCNN_L_18/message"
  bottom: "SCNN_R_17"
  top: "SCNN_L_17"
  type: "Eltwise"
  eltwise_param {
    operation: SUM
  }
}
layer {
  name: "SCNN_L_17"
  bottom: "SCNN_L_17"
  top: "SCNN_L_17/message"
  type: "Convolution"
  param { 
    name: "SCNN_L_w"
    lr_mult: 1 
    decay_mult: 1 
  }
  convolution_param {
    num_output: 128
    kernel_h: 9
    kernel_w: 1
    pad_h: 4
    pad_w: 0
    stride: 1
    bias_term: false
    weight_filler { type: "gaussian" std: 0.01863 }
  }
}
layer {
  name: "SCNN_L_17/relu"
  bottom: "SCNN_L_17/message"
  top: "SCNN_L_17/message"
  type: "ReLU"
}
layer {
  name: "SCNN_L_17/sum"
  bottom: "SCNN_L_17/message"
  bottom: "SCNN_R_16"
  top: "SCNN_L_16"
  type: "Eltwise"
  eltwise_param {
    operation: SUM
  }
}
layer {
  name: "SCNN_L_16"
  bottom: "SCNN_L_16"
  top: "SCNN_L_16/message"
  type: "Convolution"
  param { 
    name: "SCNN_L_w"
    lr_mult: 1 
    decay_mult: 1 
  }
  convolution_param {
    num_output: 128
    kernel_h: 9
    kernel_w: 1
    pad_h: 4
    pad_w: 0
    stride: 1
    bias_term: false
    weight_filler { type: "gaussian" std: 0.01863 }
  }
}
layer {
  name: "SCNN_L_16/relu"
  bottom: "SCNN_L_16/message"
  top: "SCNN_L_16/message"
  type: "ReLU"
}
layer {
  name: "SCNN_L_16/sum"
  bottom: "SCNN_L_16/message"
  bottom: "SCNN_R_15"
  top: "SCNN_L_15"
  type: "Eltwise"
  eltwise_param {
    operation: SUM
  }
}
layer {
  name: "SCNN_L_15"
  bottom: "SCNN_L_15"
  top: "SCNN_L_15/message"
  type: "Convolution"
  param { 
    name: "SCNN_L_w"
    lr_mult: 1 
    decay_mult: 1 
  }
  convolution_param {
    num_output: 128
    kernel_h: 9
    kernel_w: 1
    pad_h: 4
    pad_w: 0
    stride: 1
    bias_term: false
    weight_filler { type: "gaussian" std: 0.01863 }
  }
}
layer {
  name: "SCNN_L_15/relu"
  bottom: "SCNN_L_15/message"
  top: "SCNN_L_15/message"
  type: "ReLU"
}
layer {
  name: "SCNN_L_15/sum"
  bottom: "SCNN_L_15/message"
  bottom: "SCNN_R_14"
  top: "SCNN_L_14"
  type: "Eltwise"
  eltwise_param {
    operation: SUM
  }
}
layer {
  name: "SCNN_L_14"
  bottom: "SCNN_L_14"
  top: "SCNN_L_14/message"
  type: "Convolution"
  param { 
    name: "SCNN_L_w"
    lr_mult: 1 
    decay_mult: 1 
  }
  convolution_param {
    num_output: 128
    kernel_h: 9
    kernel_w: 1
    pad_h: 4
    pad_w: 0
    stride: 1
    bias_term: false
    weight_filler { type: "gaussian" std: 0.01863 }
  }
}
layer {
  name: "SCNN_L_14/relu"
  bottom: "SCNN_L_14/message"
  top: "SCNN_L_14/message"
  type: "ReLU"
}
layer {
  name: "SCNN_L_14/sum"
  bottom: "SCNN_L_14/message"
  bottom: "SCNN_R_13"
  top: "SCNN_L_13"
  type: "Eltwise"
  eltwise_param {
    operation: SUM
  }
}
layer {
  name: "SCNN_L_13"
  bottom: "SCNN_L_13"
  top: "SCNN_L_13/message"
  type: "Convolution"
  param { 
    name: "SCNN_L_w"
    lr_mult: 1 
    decay_mult: 1 
  }
  convolution_param {
    num_output: 128
    kernel_h: 9
    kernel_w: 1
    pad_h: 4
    pad_w: 0
    stride: 1
    bias_term: false
    weight_filler { type: "gaussian" std: 0.01863 }
  }
}
layer {
  name: "SCNN_L_13/relu"
  bottom: "SCNN_L_13/message"
  top: "SCNN_L_13/message"
  type: "ReLU"
}
layer {
  name: "SCNN_L_13/sum"
  bottom: "SCNN_L_13/message"
  bottom: "SCNN_R_12"
  top: "SCNN_L_12"
  type: "Eltwise"
  eltwise_param {
    operation: SUM
  }
}
layer {
  name: "SCNN_L_12"
  bottom: "SCNN_L_12"
  top: "SCNN_L_12/message"
  type: "Convolution"
  param { 
    name: "SCNN_L_w"
    lr_mult: 1 
    decay_mult: 1 
  }
  convolution_param {
    num_output: 128
    kernel_h: 9
    kernel_w: 1
    pad_h: 4
    pad_w: 0
    stride: 1
    bias_term: false
    weight_filler { type: "gaussian" std: 0.01863 }
  }
}
layer {
  name: "SCNN_L_12/relu"
  bottom: "SCNN_L_12/message"
  top: "SCNN_L_12/message"
  type: "ReLU"
}
layer {
  name: "SCNN_L_12/sum"
  bottom: "SCNN_L_12/message"
  bottom: "SCNN_R_11"
  top: "SCNN_L_11"
  type: "Eltwise"
  eltwise_param {
    operation: SUM
  }
}
layer {
  name: "SCNN_L_11"
  bottom: "SCNN_L_11"
  top: "SCNN_L_11/message"
  type: "Convolution"
  param { 
    name: "SCNN_L_w"
    lr_mult: 1 
    decay_mult: 1 
  }
  convolution_param {
    num_output: 128
    kernel_h: 9
    kernel_w: 1
    pad_h: 4
    pad_w: 0
    stride: 1
    bias_term: false
    weight_filler { type: "gaussian" std: 0.01863 }
  }
}
layer {
  name: "SCNN_L_11/relu"
  bottom: "SCNN_L_11/message"
  top: "SCNN_L_11/message"
  type: "ReLU"
}
layer {
  name: "SCNN_L_11/sum"
  bottom: "SCNN_L_11/message"
  bottom: "SCNN_R_10"
  top: "SCNN_L_10"
  type: "Eltwise"
  eltwise_param {
    operation: SUM
  }
}
layer {
  name: "SCNN_L_10"
  bottom: "SCNN_L_10"
  top: "SCNN_L_10/message"
  type: "Convolution"
  param { 
    name: "SCNN_L_w"
    lr_mult: 1 
    decay_mult: 1 
  }
  convolution_param {
    num_output: 128
    kernel_h: 9
    kernel_w: 1
    pad_h: 4
    pad_w: 0
    stride: 1
    bias_term: false
    weight_filler { type: "gaussian" std: 0.01863 }
  }
}
layer {
  name: "SCNN_L_10/relu"
  bottom: "SCNN_L_10/message"
  top: "SCNN_L_10/message"
  type: "ReLU"
}
layer {
  name: "SCNN_L_10/sum"
  bottom: "SCNN_L_10/message"
  bottom: "SCNN_R_9"
  top: "SCNN_L_9"
  type: "Eltwise"
  eltwise_param {
    operation: SUM
  }
}
layer {
  name: "SCNN_L_9"
  bottom: "SCNN_L_9"
  top: "SCNN_L_9/message"
  type: "Convolution"
  param { 
    name: "SCNN_L_w"
    lr_mult: 1 
    decay_mult: 1 
  }
  convolution_param {
    num_output: 128
    kernel_h: 9
    kernel_w: 1
    pad_h: 4
    pad_w: 0
    stride: 1
    bias_term: false
    weight_filler { type: "gaussian" std: 0.01863 }
  }
}
layer {
  name: "SCNN_L_9/relu"
  bottom: "SCNN_L_9/message"
  top: "SCNN_L_9/message"
  type: "ReLU"
}
layer {
  name: "SCNN_L_9/sum"
  bottom: "SCNN_L_9/message"
  bottom: "SCNN_R_8"
  top: "SCNN_L_8"
  type: "Eltwise"
  eltwise_param {
    operation: SUM
  }
}
layer {
  name: "SCNN_L_8"
  bottom: "SCNN_L_8"
  top: "SCNN_L_8/message"
  type: "Convolution"
  param { 
    name: "SCNN_L_w"
    lr_mult: 1 
    decay_mult: 1 
  }
  convolution_param {
    num_output: 128
    kernel_h: 9
    kernel_w: 1
    pad_h: 4
    pad_w: 0
    stride: 1
    bias_term: false
    weight_filler { type: "gaussian" std: 0.01863 }
  }
}
layer {
  name: "SCNN_L_8/relu"
  bottom: "SCNN_L_8/message"
  top: "SCNN_L_8/message"
  type: "ReLU"
}
layer {
  name: "SCNN_L_8/sum"
  bottom: "SCNN_L_8/message"
  bottom: "SCNN_R_7"
  top: "SCNN_L_7"
  type: "Eltwise"
  eltwise_param {
    operation: SUM
  }
}
layer {
  name: "SCNN_L_7"
  bottom: "SCNN_L_7"
  top: "SCNN_L_7/message"
  type: "Convolution"
  param { 
    name: "SCNN_L_w"
    lr_mult: 1 
    decay_mult: 1 
  }
  convolution_param {
    num_output: 128
    kernel_h: 9
    kernel_w: 1
    pad_h: 4
    pad_w: 0
    stride: 1
    bias_term: false
    weight_filler { type: "gaussian" std: 0.01863 }
  }
}
layer {
  name: "SCNN_L_7/relu"
  bottom: "SCNN_L_7/message"
  top: "SCNN_L_7/message"
  type: "ReLU"
}
layer {
  name: "SCNN_L_7/sum"
  bottom: "SCNN_L_7/message"
  bottom: "SCNN_R_6"
  top: "SCNN_L_6"
  type: "Eltwise"
  eltwise_param {
    operation: SUM
  }
}
layer {
  name: "SCNN_L_6"
  bottom: "SCNN_L_6"
  top: "SCNN_L_6/message"
  type: "Convolution"
  param { 
    name: "SCNN_L_w"
    lr_mult: 1 
    decay_mult: 1 
  }
  convolution_param {
    num_output: 128
    kernel_h: 9
    kernel_w: 1
    pad_h: 4
    pad_w: 0
    stride: 1
    bias_term: false
    weight_filler { type: "gaussian" std: 0.01863 }
  }
}
layer {
  name: "SCNN_L_6/relu"
  bottom: "SCNN_L_6/message"
  top: "SCNN_L_6/message"
  type: "ReLU"
}
layer {
  name: "SCNN_L_6/sum"
  bottom: "SCNN_L_6/message"
  bottom: "SCNN_R_5"
  top: "SCNN_L_5"
  type: "Eltwise"
  eltwise_param {
    operation: SUM
  }
}
layer {
  name: "SCNN_L_5"
  bottom: "SCNN_L_5"
  top: "SCNN_L_5/message"
  type: "Convolution"
  param { 
    name: "SCNN_L_w"
    lr_mult: 1 
    decay_mult: 1 
  }
  convolution_param {
    num_output: 128
    kernel_h: 9
    kernel_w: 1
    pad_h: 4
    pad_w: 0
    stride: 1
    bias_term: false
    weight_filler { type: "gaussian" std: 0.01863 }
  }
}
layer {
  name: "SCNN_L_5/relu"
  bottom: "SCNN_L_5/message"
  top: "SCNN_L_5/message"
  type: "ReLU"
}
layer {
  name: "SCNN_L_5/sum"
  bottom: "SCNN_L_5/message"
  bottom: "SCNN_R_4"
  top: "SCNN_L_4"
  type: "Eltwise"
  eltwise_param {
    operation: SUM
  }
}
layer {
  name: "SCNN_L_4"
  bottom: "SCNN_L_4"
  top: "SCNN_L_4/message"
  type: "Convolution"
  param { 
    name: "SCNN_L_w"
    lr_mult: 1 
    decay_mult: 1 
  }
  convolution_param {
    num_output: 128
    kernel_h: 9
    kernel_w: 1
    pad_h: 4
    pad_w: 0
    stride: 1
    bias_term: false
    weight_filler { type: "gaussian" std: 0.01863 }
  }
}
layer {
  name: "SCNN_L_4/relu"
  bottom: "SCNN_L_4/message"
  top: "SCNN_L_4/message"
  type: "ReLU"
}
layer {
  name: "SCNN_L_4/sum"
  bottom: "SCNN_L_4/message"
  bottom: "SCNN_R_3"
  top: "SCNN_L_3"
  type: "Eltwise"
  eltwise_param {
    operation: SUM
  }
}
layer {
  name: "SCNN_L_3"
  bottom: "SCNN_L_3"
  top: "SCNN_L_3/message"
  type: "Convolution"
  param { 
    name: "SCNN_L_w"
    lr_mult: 1 
    decay_mult: 1 
  }
  convolution_param {
    num_output: 128
    kernel_h: 9
    kernel_w: 1
    pad_h: 4
    pad_w: 0
    stride: 1
    bias_term: false
    weight_filler { type: "gaussian" std: 0.01863 }
  }
}
layer {
  name: "SCNN_L_3/relu"
  bottom: "SCNN_L_3/message"
  top: "SCNN_L_3/message"
  type: "ReLU"
}
layer {
  name: "SCNN_L_3/sum"
  bottom: "SCNN_L_3/message"
  bottom: "SCNN_R_2"
  top: "SCNN_L_2"
  type: "Eltwise"
  eltwise_param {
    operation: SUM
  }
}
layer {
  name: "SCNN_L_2"
  bottom: "SCNN_L_2"
  top: "SCNN_L_2/message"
  type: "Convolution"
  param { 
    name: "SCNN_L_w"
    lr_mult: 1 
    decay_mult: 1 
  }
  convolution_param {
    num_output: 128
    kernel_h: 9
    kernel_w: 1
    pad_h: 4
    pad_w: 0
    stride: 1
    bias_term: false
    weight_filler { type: "gaussian" std: 0.01863 }
  }
}
layer {
  name: "SCNN_L_2/relu"
  bottom: "SCNN_L_2/message"
  top: "SCNN_L_2/message"
  type: "ReLU"
}
layer {
  name: "SCNN_L_2/sum"
  bottom: "SCNN_L_2/message"
  bottom: "slice2_1"
  top: "SCNN_L_1"
  type: "Eltwise"
  eltwise_param {
    operation: SUM
  }
}
layer {
  name: "Concat2"
  type: "Concat"
 bottom: "SCNN_L_1"
 bottom: "SCNN_L_2"
 bottom: "SCNN_L_3"
 bottom: "SCNN_L_4"
 bottom: "SCNN_L_5"
 bottom: "SCNN_L_6"
 bottom: "SCNN_L_7"
 bottom: "SCNN_L_8"
 bottom: "SCNN_L_9"
 bottom: "SCNN_L_10"
 bottom: "SCNN_L_11"
 bottom: "SCNN_L_12"
 bottom: "SCNN_L_13"
 bottom: "SCNN_L_14"
 bottom: "SCNN_L_15"
 bottom: "SCNN_L_16"
 bottom: "SCNN_L_17"
 bottom: "SCNN_L_18"
 bottom: "SCNN_L_19"
 bottom: "SCNN_L_20"
 bottom: "SCNN_L_21"
 bottom: "SCNN_L_22"
 bottom: "SCNN_L_23"
 bottom: "SCNN_L_24"
 bottom: "SCNN_L_25"
 bottom: "SCNN_L_26"
 bottom: "SCNN_L_27"
 bottom: "SCNN_L_28"
 bottom: "SCNN_L_29"
 bottom: "SCNN_L_30"
 bottom: "SCNN_L_31"
 bottom: "SCNN_L_32"
 bottom: "SCNN_L_33"
 bottom: "SCNN_L_34"
 bottom: "SCNN_L_35"
 bottom: "SCNN_L_36"
 bottom: "SCNN_L_37"
 bottom: "SCNN_L_38"
 bottom: "SCNN_L_39"
 bottom: "SCNN_L_40"
 bottom: "SCNN_L_41"
 bottom: "SCNN_L_42"
 bottom: "SCNN_L_43"
 bottom: "SCNN_L_44"
 bottom: "SCNN_L_45"
 bottom: "SCNN_R_46"
  top: "SCNN"
  concat_param {
    axis: 3
  }
}
layer {
  name: "conv6"
  type: "Convolution"
  bottom: "SCNN"
  top: "conv6"
  param {
    lr_mult: 10
    decay_mult: 1
  }
  param {
    lr_mult: 20
    decay_mult: 1
  }
  convolution_param {
    num_output: 19
    kernel_size: 1
    stride: 1
    weight_filler {
      type: "msra"
    }
  }
}
layer {
  name: "conv6_interp"
  type: "Interp"
  bottom: "conv6"
  top: "conv6_interp"
  interp_param {
    zoom_factor: 8
  }
}
